<?xml version="1.0"?>
<net name="main_graph" version="11">
	<layers>
		<layer id="0" name="data" type="Parameter" version="opset1">
			<data shape="1,3,416,416" element_type="f32" />
			<rt_info>
				<attribute name="old_api_map_element_type" version="0" value="f16" />
			</rt_info>
			<output>
				<port id="0" precision="FP32" names="data">
					<dim>1</dim>
					<dim>3</dim>
					<dim>416</dim>
					<dim>416</dim>
				</port>
			</output>
		</layer>
		<layer id="1" name="Constant_9521_compressed" type="Const" version="opset1">
			<data element_type="f16" shape="1, 3, 1, 1" offset="0" size="6" />
			<output>
				<port id="0" precision="FP16">
					<dim>1</dim>
					<dim>3</dim>
					<dim>1</dim>
					<dim>1</dim>
				</port>
			</output>
		</layer>
		<layer id="2" name="Constant_9521" type="Convert" version="opset1">
			<data destination_type="f32" />
			<rt_info>
				<attribute name="decompression" version="0" />
			</rt_info>
			<input>
				<port id="0" precision="FP16">
					<dim>1</dim>
					<dim>3</dim>
					<dim>1</dim>
					<dim>1</dim>
				</port>
			</input>
			<output>
				<port id="1" precision="FP32">
					<dim>1</dim>
					<dim>3</dim>
					<dim>1</dim>
					<dim>1</dim>
				</port>
			</output>
		</layer>
		<layer id="3" name="Subtract_9522" type="Subtract" version="opset1">
			<data auto_broadcast="numpy" />
			<rt_info>
				<attribute name="preprocessing" version="0" />
			</rt_info>
			<input>
				<port id="0" precision="FP32">
					<dim>1</dim>
					<dim>3</dim>
					<dim>416</dim>
					<dim>416</dim>
				</port>
				<port id="1" precision="FP32">
					<dim>1</dim>
					<dim>3</dim>
					<dim>1</dim>
					<dim>1</dim>
				</port>
			</input>
			<output>
				<port id="2" precision="FP32">
					<dim>1</dim>
					<dim>3</dim>
					<dim>416</dim>
					<dim>416</dim>
				</port>
			</output>
		</layer>
		<layer id="4" name="Constant_27138_compressed" type="Const" version="opset1">
			<data element_type="f16" shape="24, 3, 3, 3" offset="6" size="1296" />
			<output>
				<port id="0" precision="FP16">
					<dim>24</dim>
					<dim>3</dim>
					<dim>3</dim>
					<dim>3</dim>
				</port>
			</output>
		</layer>
		<layer id="5" name="Constant_27138" type="Convert" version="opset1">
			<data destination_type="f32" />
			<rt_info>
				<attribute name="decompression" version="0" />
				<attribute name="preprocessing" version="0" />
			</rt_info>
			<input>
				<port id="0" precision="FP16">
					<dim>24</dim>
					<dim>3</dim>
					<dim>3</dim>
					<dim>3</dim>
				</port>
			</input>
			<output>
				<port id="1" precision="FP32">
					<dim>24</dim>
					<dim>3</dim>
					<dim>3</dim>
					<dim>3</dim>
				</port>
			</output>
		</layer>
		<layer id="6" name="/backbone/conv1/conv1.0/Conv/WithoutBiases" type="Convolution" version="opset1">
			<data strides="2, 2" dilations="1, 1" pads_begin="1, 1" pads_end="1, 1" auto_pad="explicit" />
			<rt_info>
				<attribute name="preprocessing" version="0" />
			</rt_info>
			<input>
				<port id="0" precision="FP32">
					<dim>1</dim>
					<dim>3</dim>
					<dim>416</dim>
					<dim>416</dim>
				</port>
				<port id="1" precision="FP32">
					<dim>24</dim>
					<dim>3</dim>
					<dim>3</dim>
					<dim>3</dim>
				</port>
			</input>
			<output>
				<port id="2" precision="FP32">
					<dim>1</dim>
					<dim>24</dim>
					<dim>208</dim>
					<dim>208</dim>
				</port>
			</output>
		</layer>
		<layer id="7" name="Reshape_256_compressed" type="Const" version="opset1">
			<data element_type="f16" shape="1, 24, 1, 1" offset="1302" size="48" />
			<output>
				<port id="0" precision="FP16">
					<dim>1</dim>
					<dim>24</dim>
					<dim>1</dim>
					<dim>1</dim>
				</port>
			</output>
		</layer>
		<layer id="8" name="Reshape_256" type="Convert" version="opset1">
			<data destination_type="f32" />
			<rt_info>
				<attribute name="decompression" version="0" />
			</rt_info>
			<input>
				<port id="0" precision="FP16">
					<dim>1</dim>
					<dim>24</dim>
					<dim>1</dim>
					<dim>1</dim>
				</port>
			</input>
			<output>
				<port id="1" precision="FP32">
					<dim>1</dim>
					<dim>24</dim>
					<dim>1</dim>
					<dim>1</dim>
				</port>
			</output>
		</layer>
		<layer id="9" name="/backbone/conv1/conv1.0/Conv" type="Add" version="opset1">
			<data auto_broadcast="numpy" />
			<input>
				<port id="0" precision="FP32">
					<dim>1</dim>
					<dim>24</dim>
					<dim>208</dim>
					<dim>208</dim>
				</port>
				<port id="1" precision="FP32">
					<dim>1</dim>
					<dim>24</dim>
					<dim>1</dim>
					<dim>1</dim>
				</port>
			</input>
			<output>
				<port id="2" precision="FP32" names="/backbone/conv1/conv1.0/Conv_output_0">
					<dim>1</dim>
					<dim>24</dim>
					<dim>208</dim>
					<dim>208</dim>
				</port>
			</output>
		</layer>
		<layer id="10" name="Constant_284_compressed" type="Const" version="opset1">
			<data element_type="f16" shape="1" offset="1350" size="2" />
			<output>
				<port id="0" precision="FP16">
					<dim>1</dim>
				</port>
			</output>
		</layer>
		<layer id="11" name="Constant_284" type="Convert" version="opset1">
			<data destination_type="f32" />
			<rt_info>
				<attribute name="decompression" version="0" />
			</rt_info>
			<input>
				<port id="0" precision="FP16">
					<dim>1</dim>
				</port>
			</input>
			<output>
				<port id="1" precision="FP32">
					<dim>1</dim>
				</port>
			</output>
		</layer>
		<layer id="12" name="/backbone/conv1/conv1.2/LeakyRelu" type="PReLU" version="opset1">
			<input>
				<port id="0" precision="FP32">
					<dim>1</dim>
					<dim>24</dim>
					<dim>208</dim>
					<dim>208</dim>
				</port>
				<port id="1" precision="FP32">
					<dim>1</dim>
				</port>
			</input>
			<output>
				<port id="2" precision="FP32" names="/backbone/conv1/conv1.2/LeakyRelu_output_0">
					<dim>1</dim>
					<dim>24</dim>
					<dim>208</dim>
					<dim>208</dim>
				</port>
			</output>
		</layer>
		<layer id="13" name="/backbone/maxpool/MaxPool" type="MaxPool" version="opset8">
			<data strides="2, 2" dilations="1, 1" pads_begin="1, 1" pads_end="1, 1" kernel="3, 3" rounding_type="floor" auto_pad="explicit" index_element_type="i64" axis="0" />
			<input>
				<port id="0" precision="FP32">
					<dim>1</dim>
					<dim>24</dim>
					<dim>208</dim>
					<dim>208</dim>
				</port>
			</input>
			<output>
				<port id="1" precision="FP32" names="/backbone/maxpool/MaxPool_output_0">
					<dim>1</dim>
					<dim>24</dim>
					<dim>104</dim>
					<dim>104</dim>
				</port>
				<port id="2" precision="I64">
					<dim>1</dim>
					<dim>24</dim>
					<dim>104</dim>
					<dim>104</dim>
				</port>
			</output>
		</layer>
		<layer id="14" name="Reshape_294_compressed" type="Const" version="opset1">
			<data element_type="f16" shape="24, 1, 1, 3, 3" offset="1352" size="432" />
			<output>
				<port id="0" precision="FP16">
					<dim>24</dim>
					<dim>1</dim>
					<dim>1</dim>
					<dim>3</dim>
					<dim>3</dim>
				</port>
			</output>
		</layer>
		<layer id="15" name="Reshape_294" type="Convert" version="opset1">
			<data destination_type="f32" />
			<rt_info>
				<attribute name="decompression" version="0" />
			</rt_info>
			<input>
				<port id="0" precision="FP16">
					<dim>24</dim>
					<dim>1</dim>
					<dim>1</dim>
					<dim>3</dim>
					<dim>3</dim>
				</port>
			</input>
			<output>
				<port id="1" precision="FP32">
					<dim>24</dim>
					<dim>1</dim>
					<dim>1</dim>
					<dim>3</dim>
					<dim>3</dim>
				</port>
			</output>
		</layer>
		<layer id="16" name="/backbone/stage2/stage2.0/branch1/branch1.0/Conv/WithoutBiases" type="GroupConvolution" version="opset1">
			<data strides="2, 2" pads_begin="1, 1" pads_end="1, 1" dilations="1, 1" auto_pad="explicit" />
			<input>
				<port id="0" precision="FP32">
					<dim>1</dim>
					<dim>24</dim>
					<dim>104</dim>
					<dim>104</dim>
				</port>
				<port id="1" precision="FP32">
					<dim>24</dim>
					<dim>1</dim>
					<dim>1</dim>
					<dim>3</dim>
					<dim>3</dim>
				</port>
			</input>
			<output>
				<port id="2" precision="FP32">
					<dim>1</dim>
					<dim>24</dim>
					<dim>52</dim>
					<dim>52</dim>
				</port>
			</output>
		</layer>
		<layer id="17" name="Reshape_380_compressed" type="Const" version="opset1">
			<data element_type="f16" shape="1, 24, 1, 1" offset="1784" size="48" />
			<output>
				<port id="0" precision="FP16">
					<dim>1</dim>
					<dim>24</dim>
					<dim>1</dim>
					<dim>1</dim>
				</port>
			</output>
		</layer>
		<layer id="18" name="Reshape_380" type="Convert" version="opset1">
			<data destination_type="f32" />
			<rt_info>
				<attribute name="decompression" version="0" />
			</rt_info>
			<input>
				<port id="0" precision="FP16">
					<dim>1</dim>
					<dim>24</dim>
					<dim>1</dim>
					<dim>1</dim>
				</port>
			</input>
			<output>
				<port id="1" precision="FP32">
					<dim>1</dim>
					<dim>24</dim>
					<dim>1</dim>
					<dim>1</dim>
				</port>
			</output>
		</layer>
		<layer id="19" name="/backbone/stage2/stage2.0/branch1/branch1.0/Conv" type="Add" version="opset1">
			<data auto_broadcast="numpy" />
			<input>
				<port id="0" precision="FP32">
					<dim>1</dim>
					<dim>24</dim>
					<dim>52</dim>
					<dim>52</dim>
				</port>
				<port id="1" precision="FP32">
					<dim>1</dim>
					<dim>24</dim>
					<dim>1</dim>
					<dim>1</dim>
				</port>
			</input>
			<output>
				<port id="2" precision="FP32" names="/backbone/stage2/stage2.0/branch1/branch1.0/Conv_output_0">
					<dim>1</dim>
					<dim>24</dim>
					<dim>52</dim>
					<dim>52</dim>
				</port>
			</output>
		</layer>
		<layer id="20" name="onnx::Conv_1538_compressed" type="Const" version="opset1">
			<data element_type="f16" shape="88, 24, 1, 1" offset="1832" size="4224" />
			<output>
				<port id="0" precision="FP16">
					<dim>88</dim>
					<dim>24</dim>
					<dim>1</dim>
					<dim>1</dim>
				</port>
			</output>
		</layer>
		<layer id="21" name="onnx::Conv_1538" type="Convert" version="opset1">
			<data destination_type="f32" />
			<rt_info>
				<attribute name="decompression" version="0" />
			</rt_info>
			<input>
				<port id="0" precision="FP16">
					<dim>88</dim>
					<dim>24</dim>
					<dim>1</dim>
					<dim>1</dim>
				</port>
			</input>
			<output>
				<port id="1" precision="FP32" names="onnx::Conv_1538">
					<dim>88</dim>
					<dim>24</dim>
					<dim>1</dim>
					<dim>1</dim>
				</port>
			</output>
		</layer>
		<layer id="22" name="/backbone/stage2/stage2.0/branch1/branch1.2/Conv/WithoutBiases" type="Convolution" version="opset1">
			<data strides="1, 1" dilations="1, 1" pads_begin="0, 0" pads_end="0, 0" auto_pad="explicit" />
			<input>
				<port id="0" precision="FP32">
					<dim>1</dim>
					<dim>24</dim>
					<dim>52</dim>
					<dim>52</dim>
				</port>
				<port id="1" precision="FP32">
					<dim>88</dim>
					<dim>24</dim>
					<dim>1</dim>
					<dim>1</dim>
				</port>
			</input>
			<output>
				<port id="2" precision="FP32">
					<dim>1</dim>
					<dim>88</dim>
					<dim>52</dim>
					<dim>52</dim>
				</port>
			</output>
		</layer>
		<layer id="23" name="Reshape_428_compressed" type="Const" version="opset1">
			<data element_type="f16" shape="1, 88, 1, 1" offset="6056" size="176" />
			<output>
				<port id="0" precision="FP16">
					<dim>1</dim>
					<dim>88</dim>
					<dim>1</dim>
					<dim>1</dim>
				</port>
			</output>
		</layer>
		<layer id="24" name="Reshape_428" type="Convert" version="opset1">
			<data destination_type="f32" />
			<rt_info>
				<attribute name="decompression" version="0" />
			</rt_info>
			<input>
				<port id="0" precision="FP16">
					<dim>1</dim>
					<dim>88</dim>
					<dim>1</dim>
					<dim>1</dim>
				</port>
			</input>
			<output>
				<port id="1" precision="FP32">
					<dim>1</dim>
					<dim>88</dim>
					<dim>1</dim>
					<dim>1</dim>
				</port>
			</output>
		</layer>
		<layer id="25" name="/backbone/stage2/stage2.0/branch1/branch1.2/Conv" type="Add" version="opset1">
			<data auto_broadcast="numpy" />
			<input>
				<port id="0" precision="FP32">
					<dim>1</dim>
					<dim>88</dim>
					<dim>52</dim>
					<dim>52</dim>
				</port>
				<port id="1" precision="FP32">
					<dim>1</dim>
					<dim>88</dim>
					<dim>1</dim>
					<dim>1</dim>
				</port>
			</input>
			<output>
				<port id="2" precision="FP32" names="/backbone/stage2/stage2.0/branch1/branch1.2/Conv_output_0">
					<dim>1</dim>
					<dim>88</dim>
					<dim>52</dim>
					<dim>52</dim>
				</port>
			</output>
		</layer>
		<layer id="26" name="Constant_456_compressed" type="Const" version="opset1">
			<data element_type="f16" shape="1" offset="1350" size="2" />
			<output>
				<port id="0" precision="FP16">
					<dim>1</dim>
				</port>
			</output>
		</layer>
		<layer id="27" name="Constant_456" type="Convert" version="opset1">
			<data destination_type="f32" />
			<rt_info>
				<attribute name="decompression" version="0" />
			</rt_info>
			<input>
				<port id="0" precision="FP16">
					<dim>1</dim>
				</port>
			</input>
			<output>
				<port id="1" precision="FP32">
					<dim>1</dim>
				</port>
			</output>
		</layer>
		<layer id="28" name="/backbone/stage2/stage2.0/branch1/branch1.4/LeakyRelu" type="PReLU" version="opset1">
			<input>
				<port id="0" precision="FP32">
					<dim>1</dim>
					<dim>88</dim>
					<dim>52</dim>
					<dim>52</dim>
				</port>
				<port id="1" precision="FP32">
					<dim>1</dim>
				</port>
			</input>
			<output>
				<port id="2" precision="FP32" names="/backbone/stage2/stage2.0/branch1/branch1.4/LeakyRelu_output_0">
					<dim>1</dim>
					<dim>88</dim>
					<dim>52</dim>
					<dim>52</dim>
				</port>
			</output>
		</layer>
		<layer id="29" name="onnx::Conv_1541_compressed" type="Const" version="opset1">
			<data element_type="f16" shape="88, 24, 1, 1" offset="6232" size="4224" />
			<output>
				<port id="0" precision="FP16">
					<dim>88</dim>
					<dim>24</dim>
					<dim>1</dim>
					<dim>1</dim>
				</port>
			</output>
		</layer>
		<layer id="30" name="onnx::Conv_1541" type="Convert" version="opset1">
			<data destination_type="f32" />
			<rt_info>
				<attribute name="decompression" version="0" />
			</rt_info>
			<input>
				<port id="0" precision="FP16">
					<dim>88</dim>
					<dim>24</dim>
					<dim>1</dim>
					<dim>1</dim>
				</port>
			</input>
			<output>
				<port id="1" precision="FP32" names="onnx::Conv_1541">
					<dim>88</dim>
					<dim>24</dim>
					<dim>1</dim>
					<dim>1</dim>
				</port>
			</output>
		</layer>
		<layer id="31" name="/backbone/stage2/stage2.0/branch2/branch2.0/Conv/WithoutBiases" type="Convolution" version="opset1">
			<data strides="1, 1" dilations="1, 1" pads_begin="0, 0" pads_end="0, 0" auto_pad="explicit" />
			<input>
				<port id="0" precision="FP32">
					<dim>1</dim>
					<dim>24</dim>
					<dim>104</dim>
					<dim>104</dim>
				</port>
				<port id="1" precision="FP32">
					<dim>88</dim>
					<dim>24</dim>
					<dim>1</dim>
					<dim>1</dim>
				</port>
			</input>
			<output>
				<port id="2" precision="FP32">
					<dim>1</dim>
					<dim>88</dim>
					<dim>104</dim>
					<dim>104</dim>
				</port>
			</output>
		</layer>
		<layer id="32" name="Reshape_478_compressed" type="Const" version="opset1">
			<data element_type="f16" shape="1, 88, 1, 1" offset="10456" size="176" />
			<output>
				<port id="0" precision="FP16">
					<dim>1</dim>
					<dim>88</dim>
					<dim>1</dim>
					<dim>1</dim>
				</port>
			</output>
		</layer>
		<layer id="33" name="Reshape_478" type="Convert" version="opset1">
			<data destination_type="f32" />
			<rt_info>
				<attribute name="decompression" version="0" />
			</rt_info>
			<input>
				<port id="0" precision="FP16">
					<dim>1</dim>
					<dim>88</dim>
					<dim>1</dim>
					<dim>1</dim>
				</port>
			</input>
			<output>
				<port id="1" precision="FP32">
					<dim>1</dim>
					<dim>88</dim>
					<dim>1</dim>
					<dim>1</dim>
				</port>
			</output>
		</layer>
		<layer id="34" name="/backbone/stage2/stage2.0/branch2/branch2.0/Conv" type="Add" version="opset1">
			<data auto_broadcast="numpy" />
			<input>
				<port id="0" precision="FP32">
					<dim>1</dim>
					<dim>88</dim>
					<dim>104</dim>
					<dim>104</dim>
				</port>
				<port id="1" precision="FP32">
					<dim>1</dim>
					<dim>88</dim>
					<dim>1</dim>
					<dim>1</dim>
				</port>
			</input>
			<output>
				<port id="2" precision="FP32" names="/backbone/stage2/stage2.0/branch2/branch2.0/Conv_output_0">
					<dim>1</dim>
					<dim>88</dim>
					<dim>104</dim>
					<dim>104</dim>
				</port>
			</output>
		</layer>
		<layer id="35" name="Constant_506_compressed" type="Const" version="opset1">
			<data element_type="f16" shape="1" offset="1350" size="2" />
			<output>
				<port id="0" precision="FP16">
					<dim>1</dim>
				</port>
			</output>
		</layer>
		<layer id="36" name="Constant_506" type="Convert" version="opset1">
			<data destination_type="f32" />
			<rt_info>
				<attribute name="decompression" version="0" />
			</rt_info>
			<input>
				<port id="0" precision="FP16">
					<dim>1</dim>
				</port>
			</input>
			<output>
				<port id="1" precision="FP32">
					<dim>1</dim>
				</port>
			</output>
		</layer>
		<layer id="37" name="/backbone/stage2/stage2.0/branch2/branch2.2/LeakyRelu" type="PReLU" version="opset1">
			<input>
				<port id="0" precision="FP32">
					<dim>1</dim>
					<dim>88</dim>
					<dim>104</dim>
					<dim>104</dim>
				</port>
				<port id="1" precision="FP32">
					<dim>1</dim>
				</port>
			</input>
			<output>
				<port id="2" precision="FP32" names="/backbone/stage2/stage2.0/branch2/branch2.2/LeakyRelu_output_0">
					<dim>1</dim>
					<dim>88</dim>
					<dim>104</dim>
					<dim>104</dim>
				</port>
			</output>
		</layer>
		<layer id="38" name="Reshape_515_compressed" type="Const" version="opset1">
			<data element_type="f16" shape="88, 1, 1, 3, 3" offset="10632" size="1584" />
			<output>
				<port id="0" precision="FP16">
					<dim>88</dim>
					<dim>1</dim>
					<dim>1</dim>
					<dim>3</dim>
					<dim>3</dim>
				</port>
			</output>
		</layer>
		<layer id="39" name="Reshape_515" type="Convert" version="opset1">
			<data destination_type="f32" />
			<rt_info>
				<attribute name="decompression" version="0" />
			</rt_info>
			<input>
				<port id="0" precision="FP16">
					<dim>88</dim>
					<dim>1</dim>
					<dim>1</dim>
					<dim>3</dim>
					<dim>3</dim>
				</port>
			</input>
			<output>
				<port id="1" precision="FP32">
					<dim>88</dim>
					<dim>1</dim>
					<dim>1</dim>
					<dim>3</dim>
					<dim>3</dim>
				</port>
			</output>
		</layer>
		<layer id="40" name="/backbone/stage2/stage2.0/branch2/branch2.3/Conv/WithoutBiases" type="GroupConvolution" version="opset1">
			<data strides="2, 2" pads_begin="1, 1" pads_end="1, 1" dilations="1, 1" auto_pad="explicit" />
			<input>
				<port id="0" precision="FP32">
					<dim>1</dim>
					<dim>88</dim>
					<dim>104</dim>
					<dim>104</dim>
				</port>
				<port id="1" precision="FP32">
					<dim>88</dim>
					<dim>1</dim>
					<dim>1</dim>
					<dim>3</dim>
					<dim>3</dim>
				</port>
			</input>
			<output>
				<port id="2" precision="FP32">
					<dim>1</dim>
					<dim>88</dim>
					<dim>52</dim>
					<dim>52</dim>
				</port>
			</output>
		</layer>
		<layer id="41" name="Reshape_601_compressed" type="Const" version="opset1">
			<data element_type="f16" shape="1, 88, 1, 1" offset="12216" size="176" />
			<output>
				<port id="0" precision="FP16">
					<dim>1</dim>
					<dim>88</dim>
					<dim>1</dim>
					<dim>1</dim>
				</port>
			</output>
		</layer>
		<layer id="42" name="Reshape_601" type="Convert" version="opset1">
			<data destination_type="f32" />
			<rt_info>
				<attribute name="decompression" version="0" />
			</rt_info>
			<input>
				<port id="0" precision="FP16">
					<dim>1</dim>
					<dim>88</dim>
					<dim>1</dim>
					<dim>1</dim>
				</port>
			</input>
			<output>
				<port id="1" precision="FP32">
					<dim>1</dim>
					<dim>88</dim>
					<dim>1</dim>
					<dim>1</dim>
				</port>
			</output>
		</layer>
		<layer id="43" name="/backbone/stage2/stage2.0/branch2/branch2.3/Conv" type="Add" version="opset1">
			<data auto_broadcast="numpy" />
			<input>
				<port id="0" precision="FP32">
					<dim>1</dim>
					<dim>88</dim>
					<dim>52</dim>
					<dim>52</dim>
				</port>
				<port id="1" precision="FP32">
					<dim>1</dim>
					<dim>88</dim>
					<dim>1</dim>
					<dim>1</dim>
				</port>
			</input>
			<output>
				<port id="2" precision="FP32" names="/backbone/stage2/stage2.0/branch2/branch2.3/Conv_output_0">
					<dim>1</dim>
					<dim>88</dim>
					<dim>52</dim>
					<dim>52</dim>
				</port>
			</output>
		</layer>
		<layer id="44" name="onnx::Conv_1547_compressed" type="Const" version="opset1">
			<data element_type="f16" shape="88, 88, 1, 1" offset="12392" size="15488" />
			<output>
				<port id="0" precision="FP16">
					<dim>88</dim>
					<dim>88</dim>
					<dim>1</dim>
					<dim>1</dim>
				</port>
			</output>
		</layer>
		<layer id="45" name="onnx::Conv_1547" type="Convert" version="opset1">
			<data destination_type="f32" />
			<rt_info>
				<attribute name="decompression" version="0" />
			</rt_info>
			<input>
				<port id="0" precision="FP16">
					<dim>88</dim>
					<dim>88</dim>
					<dim>1</dim>
					<dim>1</dim>
				</port>
			</input>
			<output>
				<port id="1" precision="FP32" names="onnx::Conv_1547">
					<dim>88</dim>
					<dim>88</dim>
					<dim>1</dim>
					<dim>1</dim>
				</port>
			</output>
		</layer>
		<layer id="46" name="/backbone/stage2/stage2.0/branch2/branch2.5/Conv/WithoutBiases" type="Convolution" version="opset1">
			<data strides="1, 1" dilations="1, 1" pads_begin="0, 0" pads_end="0, 0" auto_pad="explicit" />
			<input>
				<port id="0" precision="FP32">
					<dim>1</dim>
					<dim>88</dim>
					<dim>52</dim>
					<dim>52</dim>
				</port>
				<port id="1" precision="FP32">
					<dim>88</dim>
					<dim>88</dim>
					<dim>1</dim>
					<dim>1</dim>
				</port>
			</input>
			<output>
				<port id="2" precision="FP32">
					<dim>1</dim>
					<dim>88</dim>
					<dim>52</dim>
					<dim>52</dim>
				</port>
			</output>
		</layer>
		<layer id="47" name="Reshape_649_compressed" type="Const" version="opset1">
			<data element_type="f16" shape="1, 88, 1, 1" offset="27880" size="176" />
			<output>
				<port id="0" precision="FP16">
					<dim>1</dim>
					<dim>88</dim>
					<dim>1</dim>
					<dim>1</dim>
				</port>
			</output>
		</layer>
		<layer id="48" name="Reshape_649" type="Convert" version="opset1">
			<data destination_type="f32" />
			<rt_info>
				<attribute name="decompression" version="0" />
			</rt_info>
			<input>
				<port id="0" precision="FP16">
					<dim>1</dim>
					<dim>88</dim>
					<dim>1</dim>
					<dim>1</dim>
				</port>
			</input>
			<output>
				<port id="1" precision="FP32">
					<dim>1</dim>
					<dim>88</dim>
					<dim>1</dim>
					<dim>1</dim>
				</port>
			</output>
		</layer>
		<layer id="49" name="/backbone/stage2/stage2.0/branch2/branch2.5/Conv" type="Add" version="opset1">
			<data auto_broadcast="numpy" />
			<input>
				<port id="0" precision="FP32">
					<dim>1</dim>
					<dim>88</dim>
					<dim>52</dim>
					<dim>52</dim>
				</port>
				<port id="1" precision="FP32">
					<dim>1</dim>
					<dim>88</dim>
					<dim>1</dim>
					<dim>1</dim>
				</port>
			</input>
			<output>
				<port id="2" precision="FP32" names="/backbone/stage2/stage2.0/branch2/branch2.5/Conv_output_0">
					<dim>1</dim>
					<dim>88</dim>
					<dim>52</dim>
					<dim>52</dim>
				</port>
			</output>
		</layer>
		<layer id="50" name="Constant_677_compressed" type="Const" version="opset1">
			<data element_type="f16" shape="1" offset="1350" size="2" />
			<output>
				<port id="0" precision="FP16">
					<dim>1</dim>
				</port>
			</output>
		</layer>
		<layer id="51" name="Constant_677" type="Convert" version="opset1">
			<data destination_type="f32" />
			<rt_info>
				<attribute name="decompression" version="0" />
			</rt_info>
			<input>
				<port id="0" precision="FP16">
					<dim>1</dim>
				</port>
			</input>
			<output>
				<port id="1" precision="FP32">
					<dim>1</dim>
				</port>
			</output>
		</layer>
		<layer id="52" name="/backbone/stage2/stage2.0/branch2/branch2.7/LeakyRelu" type="PReLU" version="opset1">
			<input>
				<port id="0" precision="FP32">
					<dim>1</dim>
					<dim>88</dim>
					<dim>52</dim>
					<dim>52</dim>
				</port>
				<port id="1" precision="FP32">
					<dim>1</dim>
				</port>
			</input>
			<output>
				<port id="2" precision="FP32" names="/backbone/stage2/stage2.0/branch2/branch2.7/LeakyRelu_output_0">
					<dim>1</dim>
					<dim>88</dim>
					<dim>52</dim>
					<dim>52</dim>
				</port>
			</output>
		</layer>
		<layer id="53" name="/backbone/stage2/stage2.0/Concat" type="Concat" version="opset1">
			<data axis="1" />
			<input>
				<port id="0" precision="FP32">
					<dim>1</dim>
					<dim>88</dim>
					<dim>52</dim>
					<dim>52</dim>
				</port>
				<port id="1" precision="FP32">
					<dim>1</dim>
					<dim>88</dim>
					<dim>52</dim>
					<dim>52</dim>
				</port>
			</input>
			<output>
				<port id="2" precision="FP32" names="/backbone/stage2/stage2.0/Concat_output_0">
					<dim>1</dim>
					<dim>176</dim>
					<dim>52</dim>
					<dim>52</dim>
				</port>
			</output>
		</layer>
		<layer id="54" name="/backbone/stage2/stage2.0/Constant_output_0" type="Const" version="opset1">
			<data element_type="i64" shape="5" offset="28056" size="40" />
			<output>
				<port id="0" precision="I64" names="/backbone/stage2/stage2.0/Constant_output_0">
					<dim>5</dim>
				</port>
			</output>
		</layer>
		<layer id="55" name="/backbone/stage2/stage2.0/Reshape" type="Reshape" version="opset1">
			<data special_zero="true" />
			<input>
				<port id="0" precision="FP32">
					<dim>1</dim>
					<dim>176</dim>
					<dim>52</dim>
					<dim>52</dim>
				</port>
				<port id="1" precision="I64">
					<dim>5</dim>
				</port>
			</input>
			<output>
				<port id="2" precision="FP32" names="/backbone/stage2/stage2.0/Reshape_output_0">
					<dim>1</dim>
					<dim>2</dim>
					<dim>88</dim>
					<dim>52</dim>
					<dim>52</dim>
				</port>
			</output>
		</layer>
		<layer id="56" name="Constant_686" type="Const" version="opset1">
			<data element_type="i64" shape="5" offset="28096" size="40" />
			<output>
				<port id="0" precision="I64">
					<dim>5</dim>
				</port>
			</output>
		</layer>
		<layer id="57" name="/backbone/stage2/stage2.0/Transpose" type="Transpose" version="opset1">
			<input>
				<port id="0" precision="FP32">
					<dim>1</dim>
					<dim>2</dim>
					<dim>88</dim>
					<dim>52</dim>
					<dim>52</dim>
				</port>
				<port id="1" precision="I64">
					<dim>5</dim>
				</port>
			</input>
			<output>
				<port id="2" precision="FP32" names="/backbone/stage2/stage2.0/Transpose_output_0">
					<dim>1</dim>
					<dim>88</dim>
					<dim>2</dim>
					<dim>52</dim>
					<dim>52</dim>
				</port>
			</output>
		</layer>
		<layer id="58" name="/backbone/stage2/stage2.0/Constant_1_output_0" type="Const" version="opset1">
			<data element_type="i64" shape="4" offset="28136" size="32" />
			<output>
				<port id="0" precision="I64" names="/backbone/stage2/stage2.0/Constant_1_output_0">
					<dim>4</dim>
				</port>
			</output>
		</layer>
		<layer id="59" name="/backbone/stage2/stage2.0/Reshape_1" type="Reshape" version="opset1">
			<data special_zero="true" />
			<input>
				<port id="0" precision="FP32">
					<dim>1</dim>
					<dim>88</dim>
					<dim>2</dim>
					<dim>52</dim>
					<dim>52</dim>
				</port>
				<port id="1" precision="I64">
					<dim>4</dim>
				</port>
			</input>
			<output>
				<port id="2" precision="FP32" names="/backbone/stage2/stage2.0/Reshape_1_output_0">
					<dim>1</dim>
					<dim>176</dim>
					<dim>52</dim>
					<dim>52</dim>
				</port>
			</output>
		</layer>
		<layer id="60" name="Constant_26684" type="Const" version="opset1">
			<data element_type="i64" shape="2" offset="28168" size="16" />
			<output>
				<port id="0" precision="I64">
					<dim>2</dim>
				</port>
			</output>
		</layer>
		<layer id="61" name="Constant_26687" type="Const" version="opset1">
			<data element_type="i64" shape="2" offset="28184" size="16" />
			<output>
				<port id="0" precision="I64">
					<dim>2</dim>
				</port>
			</output>
		</layer>
		<layer id="62" name="Constant_26690" type="Const" version="opset1">
			<data element_type="i64" shape="2" offset="28200" size="16" />
			<output>
				<port id="0" precision="I64">
					<dim>2</dim>
				</port>
			</output>
		</layer>
		<layer id="63" name="/backbone/stage2/stage2.1/Slice" type="StridedSlice" version="opset1">
			<data begin_mask="1, 0" end_mask="1, 0" new_axis_mask="" shrink_axis_mask="" ellipsis_mask="" />
			<input>
				<port id="0" precision="FP32">
					<dim>1</dim>
					<dim>176</dim>
					<dim>52</dim>
					<dim>52</dim>
				</port>
				<port id="1" precision="I64">
					<dim>2</dim>
				</port>
				<port id="2" precision="I64">
					<dim>2</dim>
				</port>
				<port id="3" precision="I64">
					<dim>2</dim>
				</port>
			</input>
			<output>
				<port id="4" precision="FP32" names="/backbone/stage2/stage2.1/Slice_output_0">
					<dim>1</dim>
					<dim>88</dim>
					<dim>52</dim>
					<dim>52</dim>
				</port>
			</output>
		</layer>
		<layer id="64" name="Constant_26696" type="Const" version="opset1">
			<data element_type="i64" shape="2" offset="28184" size="16" />
			<output>
				<port id="0" precision="I64">
					<dim>2</dim>
				</port>
			</output>
		</layer>
		<layer id="65" name="Constant_26699" type="Const" version="opset1">
			<data element_type="i64" shape="2" offset="28216" size="16" />
			<output>
				<port id="0" precision="I64">
					<dim>2</dim>
				</port>
			</output>
		</layer>
		<layer id="66" name="Constant_26702" type="Const" version="opset1">
			<data element_type="i64" shape="2" offset="28200" size="16" />
			<output>
				<port id="0" precision="I64">
					<dim>2</dim>
				</port>
			</output>
		</layer>
		<layer id="67" name="/backbone/stage2/stage2.1/Slice_1" type="StridedSlice" version="opset1">
			<data begin_mask="1, 0" end_mask="1, 0" new_axis_mask="" shrink_axis_mask="" ellipsis_mask="" />
			<input>
				<port id="0" precision="FP32">
					<dim>1</dim>
					<dim>176</dim>
					<dim>52</dim>
					<dim>52</dim>
				</port>
				<port id="1" precision="I64">
					<dim>2</dim>
				</port>
				<port id="2" precision="I64">
					<dim>2</dim>
				</port>
				<port id="3" precision="I64">
					<dim>2</dim>
				</port>
			</input>
			<output>
				<port id="4" precision="FP32" names="/backbone/stage2/stage2.1/Slice_1_output_0">
					<dim>1</dim>
					<dim>88</dim>
					<dim>52</dim>
					<dim>52</dim>
				</port>
			</output>
		</layer>
		<layer id="68" name="onnx::Conv_1550_compressed" type="Const" version="opset1">
			<data element_type="f16" shape="88, 88, 1, 1" offset="28232" size="15488" />
			<output>
				<port id="0" precision="FP16">
					<dim>88</dim>
					<dim>88</dim>
					<dim>1</dim>
					<dim>1</dim>
				</port>
			</output>
		</layer>
		<layer id="69" name="onnx::Conv_1550" type="Convert" version="opset1">
			<data destination_type="f32" />
			<rt_info>
				<attribute name="decompression" version="0" />
			</rt_info>
			<input>
				<port id="0" precision="FP16">
					<dim>88</dim>
					<dim>88</dim>
					<dim>1</dim>
					<dim>1</dim>
				</port>
			</input>
			<output>
				<port id="1" precision="FP32" names="onnx::Conv_1550">
					<dim>88</dim>
					<dim>88</dim>
					<dim>1</dim>
					<dim>1</dim>
				</port>
			</output>
		</layer>
		<layer id="70" name="/backbone/stage2/stage2.1/branch2/branch2.0/Conv/WithoutBiases" type="Convolution" version="opset1">
			<data strides="1, 1" dilations="1, 1" pads_begin="0, 0" pads_end="0, 0" auto_pad="explicit" />
			<input>
				<port id="0" precision="FP32">
					<dim>1</dim>
					<dim>88</dim>
					<dim>52</dim>
					<dim>52</dim>
				</port>
				<port id="1" precision="FP32">
					<dim>88</dim>
					<dim>88</dim>
					<dim>1</dim>
					<dim>1</dim>
				</port>
			</input>
			<output>
				<port id="2" precision="FP32">
					<dim>1</dim>
					<dim>88</dim>
					<dim>52</dim>
					<dim>52</dim>
				</port>
			</output>
		</layer>
		<layer id="71" name="Reshape_752_compressed" type="Const" version="opset1">
			<data element_type="f16" shape="1, 88, 1, 1" offset="43720" size="176" />
			<output>
				<port id="0" precision="FP16">
					<dim>1</dim>
					<dim>88</dim>
					<dim>1</dim>
					<dim>1</dim>
				</port>
			</output>
		</layer>
		<layer id="72" name="Reshape_752" type="Convert" version="opset1">
			<data destination_type="f32" />
			<rt_info>
				<attribute name="decompression" version="0" />
			</rt_info>
			<input>
				<port id="0" precision="FP16">
					<dim>1</dim>
					<dim>88</dim>
					<dim>1</dim>
					<dim>1</dim>
				</port>
			</input>
			<output>
				<port id="1" precision="FP32">
					<dim>1</dim>
					<dim>88</dim>
					<dim>1</dim>
					<dim>1</dim>
				</port>
			</output>
		</layer>
		<layer id="73" name="/backbone/stage2/stage2.1/branch2/branch2.0/Conv" type="Add" version="opset1">
			<data auto_broadcast="numpy" />
			<input>
				<port id="0" precision="FP32">
					<dim>1</dim>
					<dim>88</dim>
					<dim>52</dim>
					<dim>52</dim>
				</port>
				<port id="1" precision="FP32">
					<dim>1</dim>
					<dim>88</dim>
					<dim>1</dim>
					<dim>1</dim>
				</port>
			</input>
			<output>
				<port id="2" precision="FP32" names="/backbone/stage2/stage2.1/branch2/branch2.0/Conv_output_0">
					<dim>1</dim>
					<dim>88</dim>
					<dim>52</dim>
					<dim>52</dim>
				</port>
			</output>
		</layer>
		<layer id="74" name="Constant_780_compressed" type="Const" version="opset1">
			<data element_type="f16" shape="1" offset="1350" size="2" />
			<output>
				<port id="0" precision="FP16">
					<dim>1</dim>
				</port>
			</output>
		</layer>
		<layer id="75" name="Constant_780" type="Convert" version="opset1">
			<data destination_type="f32" />
			<rt_info>
				<attribute name="decompression" version="0" />
			</rt_info>
			<input>
				<port id="0" precision="FP16">
					<dim>1</dim>
				</port>
			</input>
			<output>
				<port id="1" precision="FP32">
					<dim>1</dim>
				</port>
			</output>
		</layer>
		<layer id="76" name="/backbone/stage2/stage2.1/branch2/branch2.2/LeakyRelu" type="PReLU" version="opset1">
			<input>
				<port id="0" precision="FP32">
					<dim>1</dim>
					<dim>88</dim>
					<dim>52</dim>
					<dim>52</dim>
				</port>
				<port id="1" precision="FP32">
					<dim>1</dim>
				</port>
			</input>
			<output>
				<port id="2" precision="FP32" names="/backbone/stage2/stage2.1/branch2/branch2.2/LeakyRelu_output_0">
					<dim>1</dim>
					<dim>88</dim>
					<dim>52</dim>
					<dim>52</dim>
				</port>
			</output>
		</layer>
		<layer id="77" name="Reshape_789_compressed" type="Const" version="opset1">
			<data element_type="f16" shape="88, 1, 1, 3, 3" offset="43896" size="1584" />
			<output>
				<port id="0" precision="FP16">
					<dim>88</dim>
					<dim>1</dim>
					<dim>1</dim>
					<dim>3</dim>
					<dim>3</dim>
				</port>
			</output>
		</layer>
		<layer id="78" name="Reshape_789" type="Convert" version="opset1">
			<data destination_type="f32" />
			<rt_info>
				<attribute name="decompression" version="0" />
			</rt_info>
			<input>
				<port id="0" precision="FP16">
					<dim>88</dim>
					<dim>1</dim>
					<dim>1</dim>
					<dim>3</dim>
					<dim>3</dim>
				</port>
			</input>
			<output>
				<port id="1" precision="FP32">
					<dim>88</dim>
					<dim>1</dim>
					<dim>1</dim>
					<dim>3</dim>
					<dim>3</dim>
				</port>
			</output>
		</layer>
		<layer id="79" name="/backbone/stage2/stage2.1/branch2/branch2.3/Conv/WithoutBiases" type="GroupConvolution" version="opset1">
			<data strides="1, 1" pads_begin="1, 1" pads_end="1, 1" dilations="1, 1" auto_pad="explicit" />
			<input>
				<port id="0" precision="FP32">
					<dim>1</dim>
					<dim>88</dim>
					<dim>52</dim>
					<dim>52</dim>
				</port>
				<port id="1" precision="FP32">
					<dim>88</dim>
					<dim>1</dim>
					<dim>1</dim>
					<dim>3</dim>
					<dim>3</dim>
				</port>
			</input>
			<output>
				<port id="2" precision="FP32">
					<dim>1</dim>
					<dim>88</dim>
					<dim>52</dim>
					<dim>52</dim>
				</port>
			</output>
		</layer>
		<layer id="80" name="Reshape_875_compressed" type="Const" version="opset1">
			<data element_type="f16" shape="1, 88, 1, 1" offset="45480" size="176" />
			<output>
				<port id="0" precision="FP16">
					<dim>1</dim>
					<dim>88</dim>
					<dim>1</dim>
					<dim>1</dim>
				</port>
			</output>
		</layer>
		<layer id="81" name="Reshape_875" type="Convert" version="opset1">
			<data destination_type="f32" />
			<rt_info>
				<attribute name="decompression" version="0" />
			</rt_info>
			<input>
				<port id="0" precision="FP16">
					<dim>1</dim>
					<dim>88</dim>
					<dim>1</dim>
					<dim>1</dim>
				</port>
			</input>
			<output>
				<port id="1" precision="FP32">
					<dim>1</dim>
					<dim>88</dim>
					<dim>1</dim>
					<dim>1</dim>
				</port>
			</output>
		</layer>
		<layer id="82" name="/backbone/stage2/stage2.1/branch2/branch2.3/Conv" type="Add" version="opset1">
			<data auto_broadcast="numpy" />
			<input>
				<port id="0" precision="FP32">
					<dim>1</dim>
					<dim>88</dim>
					<dim>52</dim>
					<dim>52</dim>
				</port>
				<port id="1" precision="FP32">
					<dim>1</dim>
					<dim>88</dim>
					<dim>1</dim>
					<dim>1</dim>
				</port>
			</input>
			<output>
				<port id="2" precision="FP32" names="/backbone/stage2/stage2.1/branch2/branch2.3/Conv_output_0">
					<dim>1</dim>
					<dim>88</dim>
					<dim>52</dim>
					<dim>52</dim>
				</port>
			</output>
		</layer>
		<layer id="83" name="onnx::Conv_1556_compressed" type="Const" version="opset1">
			<data element_type="f16" shape="88, 88, 1, 1" offset="45656" size="15488" />
			<output>
				<port id="0" precision="FP16">
					<dim>88</dim>
					<dim>88</dim>
					<dim>1</dim>
					<dim>1</dim>
				</port>
			</output>
		</layer>
		<layer id="84" name="onnx::Conv_1556" type="Convert" version="opset1">
			<data destination_type="f32" />
			<rt_info>
				<attribute name="decompression" version="0" />
			</rt_info>
			<input>
				<port id="0" precision="FP16">
					<dim>88</dim>
					<dim>88</dim>
					<dim>1</dim>
					<dim>1</dim>
				</port>
			</input>
			<output>
				<port id="1" precision="FP32" names="onnx::Conv_1556">
					<dim>88</dim>
					<dim>88</dim>
					<dim>1</dim>
					<dim>1</dim>
				</port>
			</output>
		</layer>
		<layer id="85" name="/backbone/stage2/stage2.1/branch2/branch2.5/Conv/WithoutBiases" type="Convolution" version="opset1">
			<data strides="1, 1" dilations="1, 1" pads_begin="0, 0" pads_end="0, 0" auto_pad="explicit" />
			<input>
				<port id="0" precision="FP32">
					<dim>1</dim>
					<dim>88</dim>
					<dim>52</dim>
					<dim>52</dim>
				</port>
				<port id="1" precision="FP32">
					<dim>88</dim>
					<dim>88</dim>
					<dim>1</dim>
					<dim>1</dim>
				</port>
			</input>
			<output>
				<port id="2" precision="FP32">
					<dim>1</dim>
					<dim>88</dim>
					<dim>52</dim>
					<dim>52</dim>
				</port>
			</output>
		</layer>
		<layer id="86" name="Reshape_923_compressed" type="Const" version="opset1">
			<data element_type="f16" shape="1, 88, 1, 1" offset="61144" size="176" />
			<output>
				<port id="0" precision="FP16">
					<dim>1</dim>
					<dim>88</dim>
					<dim>1</dim>
					<dim>1</dim>
				</port>
			</output>
		</layer>
		<layer id="87" name="Reshape_923" type="Convert" version="opset1">
			<data destination_type="f32" />
			<rt_info>
				<attribute name="decompression" version="0" />
			</rt_info>
			<input>
				<port id="0" precision="FP16">
					<dim>1</dim>
					<dim>88</dim>
					<dim>1</dim>
					<dim>1</dim>
				</port>
			</input>
			<output>
				<port id="1" precision="FP32">
					<dim>1</dim>
					<dim>88</dim>
					<dim>1</dim>
					<dim>1</dim>
				</port>
			</output>
		</layer>
		<layer id="88" name="/backbone/stage2/stage2.1/branch2/branch2.5/Conv" type="Add" version="opset1">
			<data auto_broadcast="numpy" />
			<input>
				<port id="0" precision="FP32">
					<dim>1</dim>
					<dim>88</dim>
					<dim>52</dim>
					<dim>52</dim>
				</port>
				<port id="1" precision="FP32">
					<dim>1</dim>
					<dim>88</dim>
					<dim>1</dim>
					<dim>1</dim>
				</port>
			</input>
			<output>
				<port id="2" precision="FP32" names="/backbone/stage2/stage2.1/branch2/branch2.5/Conv_output_0">
					<dim>1</dim>
					<dim>88</dim>
					<dim>52</dim>
					<dim>52</dim>
				</port>
			</output>
		</layer>
		<layer id="89" name="Constant_951_compressed" type="Const" version="opset1">
			<data element_type="f16" shape="1" offset="1350" size="2" />
			<output>
				<port id="0" precision="FP16">
					<dim>1</dim>
				</port>
			</output>
		</layer>
		<layer id="90" name="Constant_951" type="Convert" version="opset1">
			<data destination_type="f32" />
			<rt_info>
				<attribute name="decompression" version="0" />
			</rt_info>
			<input>
				<port id="0" precision="FP16">
					<dim>1</dim>
				</port>
			</input>
			<output>
				<port id="1" precision="FP32">
					<dim>1</dim>
				</port>
			</output>
		</layer>
		<layer id="91" name="/backbone/stage2/stage2.1/branch2/branch2.7/LeakyRelu" type="PReLU" version="opset1">
			<input>
				<port id="0" precision="FP32">
					<dim>1</dim>
					<dim>88</dim>
					<dim>52</dim>
					<dim>52</dim>
				</port>
				<port id="1" precision="FP32">
					<dim>1</dim>
				</port>
			</input>
			<output>
				<port id="2" precision="FP32" names="/backbone/stage2/stage2.1/branch2/branch2.7/LeakyRelu_output_0">
					<dim>1</dim>
					<dim>88</dim>
					<dim>52</dim>
					<dim>52</dim>
				</port>
			</output>
		</layer>
		<layer id="92" name="/backbone/stage2/stage2.1/Concat" type="Concat" version="opset1">
			<data axis="1" />
			<input>
				<port id="0" precision="FP32">
					<dim>1</dim>
					<dim>88</dim>
					<dim>52</dim>
					<dim>52</dim>
				</port>
				<port id="1" precision="FP32">
					<dim>1</dim>
					<dim>88</dim>
					<dim>52</dim>
					<dim>52</dim>
				</port>
			</input>
			<output>
				<port id="2" precision="FP32" names="/backbone/stage2/stage2.1/Concat_output_0">
					<dim>1</dim>
					<dim>176</dim>
					<dim>52</dim>
					<dim>52</dim>
				</port>
			</output>
		</layer>
		<layer id="93" name="/backbone/stage2/stage2.1/Reshape" type="Reshape" version="opset1">
			<data special_zero="true" />
			<input>
				<port id="0" precision="FP32">
					<dim>1</dim>
					<dim>176</dim>
					<dim>52</dim>
					<dim>52</dim>
				</port>
				<port id="1" precision="I64">
					<dim>5</dim>
				</port>
			</input>
			<output>
				<port id="2" precision="FP32" names="/backbone/stage2/stage2.1/Reshape_output_0">
					<dim>1</dim>
					<dim>2</dim>
					<dim>88</dim>
					<dim>52</dim>
					<dim>52</dim>
				</port>
			</output>
		</layer>
		<layer id="94" name="Constant_957" type="Const" version="opset1">
			<data element_type="i64" shape="5" offset="28096" size="40" />
			<output>
				<port id="0" precision="I64">
					<dim>5</dim>
				</port>
			</output>
		</layer>
		<layer id="95" name="/backbone/stage2/stage2.1/Transpose" type="Transpose" version="opset1">
			<input>
				<port id="0" precision="FP32">
					<dim>1</dim>
					<dim>2</dim>
					<dim>88</dim>
					<dim>52</dim>
					<dim>52</dim>
				</port>
				<port id="1" precision="I64">
					<dim>5</dim>
				</port>
			</input>
			<output>
				<port id="2" precision="FP32" names="/backbone/stage2/stage2.1/Transpose_output_0">
					<dim>1</dim>
					<dim>88</dim>
					<dim>2</dim>
					<dim>52</dim>
					<dim>52</dim>
				</port>
			</output>
		</layer>
		<layer id="96" name="/backbone/stage2/stage2.1/Reshape_1" type="Reshape" version="opset1">
			<data special_zero="true" />
			<input>
				<port id="0" precision="FP32">
					<dim>1</dim>
					<dim>88</dim>
					<dim>2</dim>
					<dim>52</dim>
					<dim>52</dim>
				</port>
				<port id="1" precision="I64">
					<dim>4</dim>
				</port>
			</input>
			<output>
				<port id="2" precision="FP32" names="/backbone/stage2/stage2.1/Reshape_1_output_0">
					<dim>1</dim>
					<dim>176</dim>
					<dim>52</dim>
					<dim>52</dim>
				</port>
			</output>
		</layer>
		<layer id="97" name="Constant_26708" type="Const" version="opset1">
			<data element_type="i64" shape="2" offset="28168" size="16" />
			<output>
				<port id="0" precision="I64">
					<dim>2</dim>
				</port>
			</output>
		</layer>
		<layer id="98" name="Constant_26711" type="Const" version="opset1">
			<data element_type="i64" shape="2" offset="28184" size="16" />
			<output>
				<port id="0" precision="I64">
					<dim>2</dim>
				</port>
			</output>
		</layer>
		<layer id="99" name="Constant_26714" type="Const" version="opset1">
			<data element_type="i64" shape="2" offset="28200" size="16" />
			<output>
				<port id="0" precision="I64">
					<dim>2</dim>
				</port>
			</output>
		</layer>
		<layer id="100" name="/backbone/stage2/stage2.2/Slice" type="StridedSlice" version="opset1">
			<data begin_mask="1, 0" end_mask="1, 0" new_axis_mask="" shrink_axis_mask="" ellipsis_mask="" />
			<input>
				<port id="0" precision="FP32">
					<dim>1</dim>
					<dim>176</dim>
					<dim>52</dim>
					<dim>52</dim>
				</port>
				<port id="1" precision="I64">
					<dim>2</dim>
				</port>
				<port id="2" precision="I64">
					<dim>2</dim>
				</port>
				<port id="3" precision="I64">
					<dim>2</dim>
				</port>
			</input>
			<output>
				<port id="4" precision="FP32" names="/backbone/stage2/stage2.2/Slice_output_0">
					<dim>1</dim>
					<dim>88</dim>
					<dim>52</dim>
					<dim>52</dim>
				</port>
			</output>
		</layer>
		<layer id="101" name="Constant_26720" type="Const" version="opset1">
			<data element_type="i64" shape="2" offset="28184" size="16" />
			<output>
				<port id="0" precision="I64">
					<dim>2</dim>
				</port>
			</output>
		</layer>
		<layer id="102" name="Constant_26723" type="Const" version="opset1">
			<data element_type="i64" shape="2" offset="28216" size="16" />
			<output>
				<port id="0" precision="I64">
					<dim>2</dim>
				</port>
			</output>
		</layer>
		<layer id="103" name="Constant_26726" type="Const" version="opset1">
			<data element_type="i64" shape="2" offset="28200" size="16" />
			<output>
				<port id="0" precision="I64">
					<dim>2</dim>
				</port>
			</output>
		</layer>
		<layer id="104" name="/backbone/stage2/stage2.2/Slice_1" type="StridedSlice" version="opset1">
			<data begin_mask="1, 0" end_mask="1, 0" new_axis_mask="" shrink_axis_mask="" ellipsis_mask="" />
			<input>
				<port id="0" precision="FP32">
					<dim>1</dim>
					<dim>176</dim>
					<dim>52</dim>
					<dim>52</dim>
				</port>
				<port id="1" precision="I64">
					<dim>2</dim>
				</port>
				<port id="2" precision="I64">
					<dim>2</dim>
				</port>
				<port id="3" precision="I64">
					<dim>2</dim>
				</port>
			</input>
			<output>
				<port id="4" precision="FP32" names="/backbone/stage2/stage2.2/Slice_1_output_0">
					<dim>1</dim>
					<dim>88</dim>
					<dim>52</dim>
					<dim>52</dim>
				</port>
			</output>
		</layer>
		<layer id="105" name="onnx::Conv_1559_compressed" type="Const" version="opset1">
			<data element_type="f16" shape="88, 88, 1, 1" offset="61320" size="15488" />
			<output>
				<port id="0" precision="FP16">
					<dim>88</dim>
					<dim>88</dim>
					<dim>1</dim>
					<dim>1</dim>
				</port>
			</output>
		</layer>
		<layer id="106" name="onnx::Conv_1559" type="Convert" version="opset1">
			<data destination_type="f32" />
			<rt_info>
				<attribute name="decompression" version="0" />
			</rt_info>
			<input>
				<port id="0" precision="FP16">
					<dim>88</dim>
					<dim>88</dim>
					<dim>1</dim>
					<dim>1</dim>
				</port>
			</input>
			<output>
				<port id="1" precision="FP32" names="onnx::Conv_1559">
					<dim>88</dim>
					<dim>88</dim>
					<dim>1</dim>
					<dim>1</dim>
				</port>
			</output>
		</layer>
		<layer id="107" name="/backbone/stage2/stage2.2/branch2/branch2.0/Conv/WithoutBiases" type="Convolution" version="opset1">
			<data strides="1, 1" dilations="1, 1" pads_begin="0, 0" pads_end="0, 0" auto_pad="explicit" />
			<input>
				<port id="0" precision="FP32">
					<dim>1</dim>
					<dim>88</dim>
					<dim>52</dim>
					<dim>52</dim>
				</port>
				<port id="1" precision="FP32">
					<dim>88</dim>
					<dim>88</dim>
					<dim>1</dim>
					<dim>1</dim>
				</port>
			</input>
			<output>
				<port id="2" precision="FP32">
					<dim>1</dim>
					<dim>88</dim>
					<dim>52</dim>
					<dim>52</dim>
				</port>
			</output>
		</layer>
		<layer id="108" name="Reshape_1020_compressed" type="Const" version="opset1">
			<data element_type="f16" shape="1, 88, 1, 1" offset="76808" size="176" />
			<output>
				<port id="0" precision="FP16">
					<dim>1</dim>
					<dim>88</dim>
					<dim>1</dim>
					<dim>1</dim>
				</port>
			</output>
		</layer>
		<layer id="109" name="Reshape_1020" type="Convert" version="opset1">
			<data destination_type="f32" />
			<rt_info>
				<attribute name="decompression" version="0" />
			</rt_info>
			<input>
				<port id="0" precision="FP16">
					<dim>1</dim>
					<dim>88</dim>
					<dim>1</dim>
					<dim>1</dim>
				</port>
			</input>
			<output>
				<port id="1" precision="FP32">
					<dim>1</dim>
					<dim>88</dim>
					<dim>1</dim>
					<dim>1</dim>
				</port>
			</output>
		</layer>
		<layer id="110" name="/backbone/stage2/stage2.2/branch2/branch2.0/Conv" type="Add" version="opset1">
			<data auto_broadcast="numpy" />
			<input>
				<port id="0" precision="FP32">
					<dim>1</dim>
					<dim>88</dim>
					<dim>52</dim>
					<dim>52</dim>
				</port>
				<port id="1" precision="FP32">
					<dim>1</dim>
					<dim>88</dim>
					<dim>1</dim>
					<dim>1</dim>
				</port>
			</input>
			<output>
				<port id="2" precision="FP32" names="/backbone/stage2/stage2.2/branch2/branch2.0/Conv_output_0">
					<dim>1</dim>
					<dim>88</dim>
					<dim>52</dim>
					<dim>52</dim>
				</port>
			</output>
		</layer>
		<layer id="111" name="Constant_1048_compressed" type="Const" version="opset1">
			<data element_type="f16" shape="1" offset="1350" size="2" />
			<output>
				<port id="0" precision="FP16">
					<dim>1</dim>
				</port>
			</output>
		</layer>
		<layer id="112" name="Constant_1048" type="Convert" version="opset1">
			<data destination_type="f32" />
			<rt_info>
				<attribute name="decompression" version="0" />
			</rt_info>
			<input>
				<port id="0" precision="FP16">
					<dim>1</dim>
				</port>
			</input>
			<output>
				<port id="1" precision="FP32">
					<dim>1</dim>
				</port>
			</output>
		</layer>
		<layer id="113" name="/backbone/stage2/stage2.2/branch2/branch2.2/LeakyRelu" type="PReLU" version="opset1">
			<input>
				<port id="0" precision="FP32">
					<dim>1</dim>
					<dim>88</dim>
					<dim>52</dim>
					<dim>52</dim>
				</port>
				<port id="1" precision="FP32">
					<dim>1</dim>
				</port>
			</input>
			<output>
				<port id="2" precision="FP32" names="/backbone/stage2/stage2.2/branch2/branch2.2/LeakyRelu_output_0">
					<dim>1</dim>
					<dim>88</dim>
					<dim>52</dim>
					<dim>52</dim>
				</port>
			</output>
		</layer>
		<layer id="114" name="Reshape_1057_compressed" type="Const" version="opset1">
			<data element_type="f16" shape="88, 1, 1, 3, 3" offset="76984" size="1584" />
			<output>
				<port id="0" precision="FP16">
					<dim>88</dim>
					<dim>1</dim>
					<dim>1</dim>
					<dim>3</dim>
					<dim>3</dim>
				</port>
			</output>
		</layer>
		<layer id="115" name="Reshape_1057" type="Convert" version="opset1">
			<data destination_type="f32" />
			<rt_info>
				<attribute name="decompression" version="0" />
			</rt_info>
			<input>
				<port id="0" precision="FP16">
					<dim>88</dim>
					<dim>1</dim>
					<dim>1</dim>
					<dim>3</dim>
					<dim>3</dim>
				</port>
			</input>
			<output>
				<port id="1" precision="FP32">
					<dim>88</dim>
					<dim>1</dim>
					<dim>1</dim>
					<dim>3</dim>
					<dim>3</dim>
				</port>
			</output>
		</layer>
		<layer id="116" name="/backbone/stage2/stage2.2/branch2/branch2.3/Conv/WithoutBiases" type="GroupConvolution" version="opset1">
			<data strides="1, 1" pads_begin="1, 1" pads_end="1, 1" dilations="1, 1" auto_pad="explicit" />
			<input>
				<port id="0" precision="FP32">
					<dim>1</dim>
					<dim>88</dim>
					<dim>52</dim>
					<dim>52</dim>
				</port>
				<port id="1" precision="FP32">
					<dim>88</dim>
					<dim>1</dim>
					<dim>1</dim>
					<dim>3</dim>
					<dim>3</dim>
				</port>
			</input>
			<output>
				<port id="2" precision="FP32">
					<dim>1</dim>
					<dim>88</dim>
					<dim>52</dim>
					<dim>52</dim>
				</port>
			</output>
		</layer>
		<layer id="117" name="Reshape_1143_compressed" type="Const" version="opset1">
			<data element_type="f16" shape="1, 88, 1, 1" offset="78568" size="176" />
			<output>
				<port id="0" precision="FP16">
					<dim>1</dim>
					<dim>88</dim>
					<dim>1</dim>
					<dim>1</dim>
				</port>
			</output>
		</layer>
		<layer id="118" name="Reshape_1143" type="Convert" version="opset1">
			<data destination_type="f32" />
			<rt_info>
				<attribute name="decompression" version="0" />
			</rt_info>
			<input>
				<port id="0" precision="FP16">
					<dim>1</dim>
					<dim>88</dim>
					<dim>1</dim>
					<dim>1</dim>
				</port>
			</input>
			<output>
				<port id="1" precision="FP32">
					<dim>1</dim>
					<dim>88</dim>
					<dim>1</dim>
					<dim>1</dim>
				</port>
			</output>
		</layer>
		<layer id="119" name="/backbone/stage2/stage2.2/branch2/branch2.3/Conv" type="Add" version="opset1">
			<data auto_broadcast="numpy" />
			<input>
				<port id="0" precision="FP32">
					<dim>1</dim>
					<dim>88</dim>
					<dim>52</dim>
					<dim>52</dim>
				</port>
				<port id="1" precision="FP32">
					<dim>1</dim>
					<dim>88</dim>
					<dim>1</dim>
					<dim>1</dim>
				</port>
			</input>
			<output>
				<port id="2" precision="FP32" names="/backbone/stage2/stage2.2/branch2/branch2.3/Conv_output_0">
					<dim>1</dim>
					<dim>88</dim>
					<dim>52</dim>
					<dim>52</dim>
				</port>
			</output>
		</layer>
		<layer id="120" name="onnx::Conv_1565_compressed" type="Const" version="opset1">
			<data element_type="f16" shape="88, 88, 1, 1" offset="78744" size="15488" />
			<output>
				<port id="0" precision="FP16">
					<dim>88</dim>
					<dim>88</dim>
					<dim>1</dim>
					<dim>1</dim>
				</port>
			</output>
		</layer>
		<layer id="121" name="onnx::Conv_1565" type="Convert" version="opset1">
			<data destination_type="f32" />
			<rt_info>
				<attribute name="decompression" version="0" />
			</rt_info>
			<input>
				<port id="0" precision="FP16">
					<dim>88</dim>
					<dim>88</dim>
					<dim>1</dim>
					<dim>1</dim>
				</port>
			</input>
			<output>
				<port id="1" precision="FP32" names="onnx::Conv_1565">
					<dim>88</dim>
					<dim>88</dim>
					<dim>1</dim>
					<dim>1</dim>
				</port>
			</output>
		</layer>
		<layer id="122" name="/backbone/stage2/stage2.2/branch2/branch2.5/Conv/WithoutBiases" type="Convolution" version="opset1">
			<data strides="1, 1" dilations="1, 1" pads_begin="0, 0" pads_end="0, 0" auto_pad="explicit" />
			<input>
				<port id="0" precision="FP32">
					<dim>1</dim>
					<dim>88</dim>
					<dim>52</dim>
					<dim>52</dim>
				</port>
				<port id="1" precision="FP32">
					<dim>88</dim>
					<dim>88</dim>
					<dim>1</dim>
					<dim>1</dim>
				</port>
			</input>
			<output>
				<port id="2" precision="FP32">
					<dim>1</dim>
					<dim>88</dim>
					<dim>52</dim>
					<dim>52</dim>
				</port>
			</output>
		</layer>
		<layer id="123" name="Reshape_1191_compressed" type="Const" version="opset1">
			<data element_type="f16" shape="1, 88, 1, 1" offset="94232" size="176" />
			<output>
				<port id="0" precision="FP16">
					<dim>1</dim>
					<dim>88</dim>
					<dim>1</dim>
					<dim>1</dim>
				</port>
			</output>
		</layer>
		<layer id="124" name="Reshape_1191" type="Convert" version="opset1">
			<data destination_type="f32" />
			<rt_info>
				<attribute name="decompression" version="0" />
			</rt_info>
			<input>
				<port id="0" precision="FP16">
					<dim>1</dim>
					<dim>88</dim>
					<dim>1</dim>
					<dim>1</dim>
				</port>
			</input>
			<output>
				<port id="1" precision="FP32">
					<dim>1</dim>
					<dim>88</dim>
					<dim>1</dim>
					<dim>1</dim>
				</port>
			</output>
		</layer>
		<layer id="125" name="/backbone/stage2/stage2.2/branch2/branch2.5/Conv" type="Add" version="opset1">
			<data auto_broadcast="numpy" />
			<input>
				<port id="0" precision="FP32">
					<dim>1</dim>
					<dim>88</dim>
					<dim>52</dim>
					<dim>52</dim>
				</port>
				<port id="1" precision="FP32">
					<dim>1</dim>
					<dim>88</dim>
					<dim>1</dim>
					<dim>1</dim>
				</port>
			</input>
			<output>
				<port id="2" precision="FP32" names="/backbone/stage2/stage2.2/branch2/branch2.5/Conv_output_0">
					<dim>1</dim>
					<dim>88</dim>
					<dim>52</dim>
					<dim>52</dim>
				</port>
			</output>
		</layer>
		<layer id="126" name="Constant_1219_compressed" type="Const" version="opset1">
			<data element_type="f16" shape="1" offset="1350" size="2" />
			<output>
				<port id="0" precision="FP16">
					<dim>1</dim>
				</port>
			</output>
		</layer>
		<layer id="127" name="Constant_1219" type="Convert" version="opset1">
			<data destination_type="f32" />
			<rt_info>
				<attribute name="decompression" version="0" />
			</rt_info>
			<input>
				<port id="0" precision="FP16">
					<dim>1</dim>
				</port>
			</input>
			<output>
				<port id="1" precision="FP32">
					<dim>1</dim>
				</port>
			</output>
		</layer>
		<layer id="128" name="/backbone/stage2/stage2.2/branch2/branch2.7/LeakyRelu" type="PReLU" version="opset1">
			<input>
				<port id="0" precision="FP32">
					<dim>1</dim>
					<dim>88</dim>
					<dim>52</dim>
					<dim>52</dim>
				</port>
				<port id="1" precision="FP32">
					<dim>1</dim>
				</port>
			</input>
			<output>
				<port id="2" precision="FP32" names="/backbone/stage2/stage2.2/branch2/branch2.7/LeakyRelu_output_0">
					<dim>1</dim>
					<dim>88</dim>
					<dim>52</dim>
					<dim>52</dim>
				</port>
			</output>
		</layer>
		<layer id="129" name="/backbone/stage2/stage2.2/Concat" type="Concat" version="opset1">
			<data axis="1" />
			<input>
				<port id="0" precision="FP32">
					<dim>1</dim>
					<dim>88</dim>
					<dim>52</dim>
					<dim>52</dim>
				</port>
				<port id="1" precision="FP32">
					<dim>1</dim>
					<dim>88</dim>
					<dim>52</dim>
					<dim>52</dim>
				</port>
			</input>
			<output>
				<port id="2" precision="FP32" names="/backbone/stage2/stage2.2/Concat_output_0">
					<dim>1</dim>
					<dim>176</dim>
					<dim>52</dim>
					<dim>52</dim>
				</port>
			</output>
		</layer>
		<layer id="130" name="/backbone/stage2/stage2.2/Reshape" type="Reshape" version="opset1">
			<data special_zero="true" />
			<input>
				<port id="0" precision="FP32">
					<dim>1</dim>
					<dim>176</dim>
					<dim>52</dim>
					<dim>52</dim>
				</port>
				<port id="1" precision="I64">
					<dim>5</dim>
				</port>
			</input>
			<output>
				<port id="2" precision="FP32" names="/backbone/stage2/stage2.2/Reshape_output_0">
					<dim>1</dim>
					<dim>2</dim>
					<dim>88</dim>
					<dim>52</dim>
					<dim>52</dim>
				</port>
			</output>
		</layer>
		<layer id="131" name="Constant_1225" type="Const" version="opset1">
			<data element_type="i64" shape="5" offset="28096" size="40" />
			<output>
				<port id="0" precision="I64">
					<dim>5</dim>
				</port>
			</output>
		</layer>
		<layer id="132" name="/backbone/stage2/stage2.2/Transpose" type="Transpose" version="opset1">
			<input>
				<port id="0" precision="FP32">
					<dim>1</dim>
					<dim>2</dim>
					<dim>88</dim>
					<dim>52</dim>
					<dim>52</dim>
				</port>
				<port id="1" precision="I64">
					<dim>5</dim>
				</port>
			</input>
			<output>
				<port id="2" precision="FP32" names="/backbone/stage2/stage2.2/Transpose_output_0">
					<dim>1</dim>
					<dim>88</dim>
					<dim>2</dim>
					<dim>52</dim>
					<dim>52</dim>
				</port>
			</output>
		</layer>
		<layer id="133" name="/backbone/stage2/stage2.2/Reshape_1" type="Reshape" version="opset1">
			<data special_zero="true" />
			<input>
				<port id="0" precision="FP32">
					<dim>1</dim>
					<dim>88</dim>
					<dim>2</dim>
					<dim>52</dim>
					<dim>52</dim>
				</port>
				<port id="1" precision="I64">
					<dim>4</dim>
				</port>
			</input>
			<output>
				<port id="2" precision="FP32" names="/backbone/stage2/stage2.2/Reshape_1_output_0">
					<dim>1</dim>
					<dim>176</dim>
					<dim>52</dim>
					<dim>52</dim>
				</port>
			</output>
		</layer>
		<layer id="134" name="Constant_26732" type="Const" version="opset1">
			<data element_type="i64" shape="2" offset="28168" size="16" />
			<output>
				<port id="0" precision="I64">
					<dim>2</dim>
				</port>
			</output>
		</layer>
		<layer id="135" name="Constant_26735" type="Const" version="opset1">
			<data element_type="i64" shape="2" offset="28184" size="16" />
			<output>
				<port id="0" precision="I64">
					<dim>2</dim>
				</port>
			</output>
		</layer>
		<layer id="136" name="Constant_26738" type="Const" version="opset1">
			<data element_type="i64" shape="2" offset="28200" size="16" />
			<output>
				<port id="0" precision="I64">
					<dim>2</dim>
				</port>
			</output>
		</layer>
		<layer id="137" name="/backbone/stage2/stage2.3/Slice" type="StridedSlice" version="opset1">
			<data begin_mask="1, 0" end_mask="1, 0" new_axis_mask="" shrink_axis_mask="" ellipsis_mask="" />
			<input>
				<port id="0" precision="FP32">
					<dim>1</dim>
					<dim>176</dim>
					<dim>52</dim>
					<dim>52</dim>
				</port>
				<port id="1" precision="I64">
					<dim>2</dim>
				</port>
				<port id="2" precision="I64">
					<dim>2</dim>
				</port>
				<port id="3" precision="I64">
					<dim>2</dim>
				</port>
			</input>
			<output>
				<port id="4" precision="FP32" names="/backbone/stage2/stage2.3/Slice_output_0">
					<dim>1</dim>
					<dim>88</dim>
					<dim>52</dim>
					<dim>52</dim>
				</port>
			</output>
		</layer>
		<layer id="138" name="Constant_26744" type="Const" version="opset1">
			<data element_type="i64" shape="2" offset="28184" size="16" />
			<output>
				<port id="0" precision="I64">
					<dim>2</dim>
				</port>
			</output>
		</layer>
		<layer id="139" name="Constant_26747" type="Const" version="opset1">
			<data element_type="i64" shape="2" offset="28216" size="16" />
			<output>
				<port id="0" precision="I64">
					<dim>2</dim>
				</port>
			</output>
		</layer>
		<layer id="140" name="Constant_26750" type="Const" version="opset1">
			<data element_type="i64" shape="2" offset="28200" size="16" />
			<output>
				<port id="0" precision="I64">
					<dim>2</dim>
				</port>
			</output>
		</layer>
		<layer id="141" name="/backbone/stage2/stage2.3/Slice_1" type="StridedSlice" version="opset1">
			<data begin_mask="1, 0" end_mask="1, 0" new_axis_mask="" shrink_axis_mask="" ellipsis_mask="" />
			<input>
				<port id="0" precision="FP32">
					<dim>1</dim>
					<dim>176</dim>
					<dim>52</dim>
					<dim>52</dim>
				</port>
				<port id="1" precision="I64">
					<dim>2</dim>
				</port>
				<port id="2" precision="I64">
					<dim>2</dim>
				</port>
				<port id="3" precision="I64">
					<dim>2</dim>
				</port>
			</input>
			<output>
				<port id="4" precision="FP32" names="/backbone/stage2/stage2.3/Slice_1_output_0">
					<dim>1</dim>
					<dim>88</dim>
					<dim>52</dim>
					<dim>52</dim>
				</port>
			</output>
		</layer>
		<layer id="142" name="onnx::Conv_1568_compressed" type="Const" version="opset1">
			<data element_type="f16" shape="88, 88, 1, 1" offset="94408" size="15488" />
			<output>
				<port id="0" precision="FP16">
					<dim>88</dim>
					<dim>88</dim>
					<dim>1</dim>
					<dim>1</dim>
				</port>
			</output>
		</layer>
		<layer id="143" name="onnx::Conv_1568" type="Convert" version="opset1">
			<data destination_type="f32" />
			<rt_info>
				<attribute name="decompression" version="0" />
			</rt_info>
			<input>
				<port id="0" precision="FP16">
					<dim>88</dim>
					<dim>88</dim>
					<dim>1</dim>
					<dim>1</dim>
				</port>
			</input>
			<output>
				<port id="1" precision="FP32" names="onnx::Conv_1568">
					<dim>88</dim>
					<dim>88</dim>
					<dim>1</dim>
					<dim>1</dim>
				</port>
			</output>
		</layer>
		<layer id="144" name="/backbone/stage2/stage2.3/branch2/branch2.0/Conv/WithoutBiases" type="Convolution" version="opset1">
			<data strides="1, 1" dilations="1, 1" pads_begin="0, 0" pads_end="0, 0" auto_pad="explicit" />
			<input>
				<port id="0" precision="FP32">
					<dim>1</dim>
					<dim>88</dim>
					<dim>52</dim>
					<dim>52</dim>
				</port>
				<port id="1" precision="FP32">
					<dim>88</dim>
					<dim>88</dim>
					<dim>1</dim>
					<dim>1</dim>
				</port>
			</input>
			<output>
				<port id="2" precision="FP32">
					<dim>1</dim>
					<dim>88</dim>
					<dim>52</dim>
					<dim>52</dim>
				</port>
			</output>
		</layer>
		<layer id="145" name="Reshape_1288_compressed" type="Const" version="opset1">
			<data element_type="f16" shape="1, 88, 1, 1" offset="109896" size="176" />
			<output>
				<port id="0" precision="FP16">
					<dim>1</dim>
					<dim>88</dim>
					<dim>1</dim>
					<dim>1</dim>
				</port>
			</output>
		</layer>
		<layer id="146" name="Reshape_1288" type="Convert" version="opset1">
			<data destination_type="f32" />
			<rt_info>
				<attribute name="decompression" version="0" />
			</rt_info>
			<input>
				<port id="0" precision="FP16">
					<dim>1</dim>
					<dim>88</dim>
					<dim>1</dim>
					<dim>1</dim>
				</port>
			</input>
			<output>
				<port id="1" precision="FP32">
					<dim>1</dim>
					<dim>88</dim>
					<dim>1</dim>
					<dim>1</dim>
				</port>
			</output>
		</layer>
		<layer id="147" name="/backbone/stage2/stage2.3/branch2/branch2.0/Conv" type="Add" version="opset1">
			<data auto_broadcast="numpy" />
			<input>
				<port id="0" precision="FP32">
					<dim>1</dim>
					<dim>88</dim>
					<dim>52</dim>
					<dim>52</dim>
				</port>
				<port id="1" precision="FP32">
					<dim>1</dim>
					<dim>88</dim>
					<dim>1</dim>
					<dim>1</dim>
				</port>
			</input>
			<output>
				<port id="2" precision="FP32" names="/backbone/stage2/stage2.3/branch2/branch2.0/Conv_output_0">
					<dim>1</dim>
					<dim>88</dim>
					<dim>52</dim>
					<dim>52</dim>
				</port>
			</output>
		</layer>
		<layer id="148" name="Constant_1316_compressed" type="Const" version="opset1">
			<data element_type="f16" shape="1" offset="1350" size="2" />
			<output>
				<port id="0" precision="FP16">
					<dim>1</dim>
				</port>
			</output>
		</layer>
		<layer id="149" name="Constant_1316" type="Convert" version="opset1">
			<data destination_type="f32" />
			<rt_info>
				<attribute name="decompression" version="0" />
			</rt_info>
			<input>
				<port id="0" precision="FP16">
					<dim>1</dim>
				</port>
			</input>
			<output>
				<port id="1" precision="FP32">
					<dim>1</dim>
				</port>
			</output>
		</layer>
		<layer id="150" name="/backbone/stage2/stage2.3/branch2/branch2.2/LeakyRelu" type="PReLU" version="opset1">
			<input>
				<port id="0" precision="FP32">
					<dim>1</dim>
					<dim>88</dim>
					<dim>52</dim>
					<dim>52</dim>
				</port>
				<port id="1" precision="FP32">
					<dim>1</dim>
				</port>
			</input>
			<output>
				<port id="2" precision="FP32" names="/backbone/stage2/stage2.3/branch2/branch2.2/LeakyRelu_output_0">
					<dim>1</dim>
					<dim>88</dim>
					<dim>52</dim>
					<dim>52</dim>
				</port>
			</output>
		</layer>
		<layer id="151" name="Reshape_1325_compressed" type="Const" version="opset1">
			<data element_type="f16" shape="88, 1, 1, 3, 3" offset="110072" size="1584" />
			<output>
				<port id="0" precision="FP16">
					<dim>88</dim>
					<dim>1</dim>
					<dim>1</dim>
					<dim>3</dim>
					<dim>3</dim>
				</port>
			</output>
		</layer>
		<layer id="152" name="Reshape_1325" type="Convert" version="opset1">
			<data destination_type="f32" />
			<rt_info>
				<attribute name="decompression" version="0" />
			</rt_info>
			<input>
				<port id="0" precision="FP16">
					<dim>88</dim>
					<dim>1</dim>
					<dim>1</dim>
					<dim>3</dim>
					<dim>3</dim>
				</port>
			</input>
			<output>
				<port id="1" precision="FP32">
					<dim>88</dim>
					<dim>1</dim>
					<dim>1</dim>
					<dim>3</dim>
					<dim>3</dim>
				</port>
			</output>
		</layer>
		<layer id="153" name="/backbone/stage2/stage2.3/branch2/branch2.3/Conv/WithoutBiases" type="GroupConvolution" version="opset1">
			<data strides="1, 1" pads_begin="1, 1" pads_end="1, 1" dilations="1, 1" auto_pad="explicit" />
			<input>
				<port id="0" precision="FP32">
					<dim>1</dim>
					<dim>88</dim>
					<dim>52</dim>
					<dim>52</dim>
				</port>
				<port id="1" precision="FP32">
					<dim>88</dim>
					<dim>1</dim>
					<dim>1</dim>
					<dim>3</dim>
					<dim>3</dim>
				</port>
			</input>
			<output>
				<port id="2" precision="FP32">
					<dim>1</dim>
					<dim>88</dim>
					<dim>52</dim>
					<dim>52</dim>
				</port>
			</output>
		</layer>
		<layer id="154" name="Reshape_1411_compressed" type="Const" version="opset1">
			<data element_type="f16" shape="1, 88, 1, 1" offset="111656" size="176" />
			<output>
				<port id="0" precision="FP16">
					<dim>1</dim>
					<dim>88</dim>
					<dim>1</dim>
					<dim>1</dim>
				</port>
			</output>
		</layer>
		<layer id="155" name="Reshape_1411" type="Convert" version="opset1">
			<data destination_type="f32" />
			<rt_info>
				<attribute name="decompression" version="0" />
			</rt_info>
			<input>
				<port id="0" precision="FP16">
					<dim>1</dim>
					<dim>88</dim>
					<dim>1</dim>
					<dim>1</dim>
				</port>
			</input>
			<output>
				<port id="1" precision="FP32">
					<dim>1</dim>
					<dim>88</dim>
					<dim>1</dim>
					<dim>1</dim>
				</port>
			</output>
		</layer>
		<layer id="156" name="/backbone/stage2/stage2.3/branch2/branch2.3/Conv" type="Add" version="opset1">
			<data auto_broadcast="numpy" />
			<input>
				<port id="0" precision="FP32">
					<dim>1</dim>
					<dim>88</dim>
					<dim>52</dim>
					<dim>52</dim>
				</port>
				<port id="1" precision="FP32">
					<dim>1</dim>
					<dim>88</dim>
					<dim>1</dim>
					<dim>1</dim>
				</port>
			</input>
			<output>
				<port id="2" precision="FP32" names="/backbone/stage2/stage2.3/branch2/branch2.3/Conv_output_0">
					<dim>1</dim>
					<dim>88</dim>
					<dim>52</dim>
					<dim>52</dim>
				</port>
			</output>
		</layer>
		<layer id="157" name="onnx::Conv_1574_compressed" type="Const" version="opset1">
			<data element_type="f16" shape="88, 88, 1, 1" offset="111832" size="15488" />
			<output>
				<port id="0" precision="FP16">
					<dim>88</dim>
					<dim>88</dim>
					<dim>1</dim>
					<dim>1</dim>
				</port>
			</output>
		</layer>
		<layer id="158" name="onnx::Conv_1574" type="Convert" version="opset1">
			<data destination_type="f32" />
			<rt_info>
				<attribute name="decompression" version="0" />
			</rt_info>
			<input>
				<port id="0" precision="FP16">
					<dim>88</dim>
					<dim>88</dim>
					<dim>1</dim>
					<dim>1</dim>
				</port>
			</input>
			<output>
				<port id="1" precision="FP32" names="onnx::Conv_1574">
					<dim>88</dim>
					<dim>88</dim>
					<dim>1</dim>
					<dim>1</dim>
				</port>
			</output>
		</layer>
		<layer id="159" name="/backbone/stage2/stage2.3/branch2/branch2.5/Conv/WithoutBiases" type="Convolution" version="opset1">
			<data strides="1, 1" dilations="1, 1" pads_begin="0, 0" pads_end="0, 0" auto_pad="explicit" />
			<input>
				<port id="0" precision="FP32">
					<dim>1</dim>
					<dim>88</dim>
					<dim>52</dim>
					<dim>52</dim>
				</port>
				<port id="1" precision="FP32">
					<dim>88</dim>
					<dim>88</dim>
					<dim>1</dim>
					<dim>1</dim>
				</port>
			</input>
			<output>
				<port id="2" precision="FP32">
					<dim>1</dim>
					<dim>88</dim>
					<dim>52</dim>
					<dim>52</dim>
				</port>
			</output>
		</layer>
		<layer id="160" name="Reshape_1459_compressed" type="Const" version="opset1">
			<data element_type="f16" shape="1, 88, 1, 1" offset="127320" size="176" />
			<output>
				<port id="0" precision="FP16">
					<dim>1</dim>
					<dim>88</dim>
					<dim>1</dim>
					<dim>1</dim>
				</port>
			</output>
		</layer>
		<layer id="161" name="Reshape_1459" type="Convert" version="opset1">
			<data destination_type="f32" />
			<rt_info>
				<attribute name="decompression" version="0" />
			</rt_info>
			<input>
				<port id="0" precision="FP16">
					<dim>1</dim>
					<dim>88</dim>
					<dim>1</dim>
					<dim>1</dim>
				</port>
			</input>
			<output>
				<port id="1" precision="FP32">
					<dim>1</dim>
					<dim>88</dim>
					<dim>1</dim>
					<dim>1</dim>
				</port>
			</output>
		</layer>
		<layer id="162" name="/backbone/stage2/stage2.3/branch2/branch2.5/Conv" type="Add" version="opset1">
			<data auto_broadcast="numpy" />
			<input>
				<port id="0" precision="FP32">
					<dim>1</dim>
					<dim>88</dim>
					<dim>52</dim>
					<dim>52</dim>
				</port>
				<port id="1" precision="FP32">
					<dim>1</dim>
					<dim>88</dim>
					<dim>1</dim>
					<dim>1</dim>
				</port>
			</input>
			<output>
				<port id="2" precision="FP32" names="/backbone/stage2/stage2.3/branch2/branch2.5/Conv_output_0">
					<dim>1</dim>
					<dim>88</dim>
					<dim>52</dim>
					<dim>52</dim>
				</port>
			</output>
		</layer>
		<layer id="163" name="Constant_1487_compressed" type="Const" version="opset1">
			<data element_type="f16" shape="1" offset="1350" size="2" />
			<output>
				<port id="0" precision="FP16">
					<dim>1</dim>
				</port>
			</output>
		</layer>
		<layer id="164" name="Constant_1487" type="Convert" version="opset1">
			<data destination_type="f32" />
			<rt_info>
				<attribute name="decompression" version="0" />
			</rt_info>
			<input>
				<port id="0" precision="FP16">
					<dim>1</dim>
				</port>
			</input>
			<output>
				<port id="1" precision="FP32">
					<dim>1</dim>
				</port>
			</output>
		</layer>
		<layer id="165" name="/backbone/stage2/stage2.3/branch2/branch2.7/LeakyRelu" type="PReLU" version="opset1">
			<input>
				<port id="0" precision="FP32">
					<dim>1</dim>
					<dim>88</dim>
					<dim>52</dim>
					<dim>52</dim>
				</port>
				<port id="1" precision="FP32">
					<dim>1</dim>
				</port>
			</input>
			<output>
				<port id="2" precision="FP32" names="/backbone/stage2/stage2.3/branch2/branch2.7/LeakyRelu_output_0">
					<dim>1</dim>
					<dim>88</dim>
					<dim>52</dim>
					<dim>52</dim>
				</port>
			</output>
		</layer>
		<layer id="166" name="/backbone/stage2/stage2.3/Concat" type="Concat" version="opset1">
			<data axis="1" />
			<input>
				<port id="0" precision="FP32">
					<dim>1</dim>
					<dim>88</dim>
					<dim>52</dim>
					<dim>52</dim>
				</port>
				<port id="1" precision="FP32">
					<dim>1</dim>
					<dim>88</dim>
					<dim>52</dim>
					<dim>52</dim>
				</port>
			</input>
			<output>
				<port id="2" precision="FP32" names="/backbone/stage2/stage2.3/Concat_output_0">
					<dim>1</dim>
					<dim>176</dim>
					<dim>52</dim>
					<dim>52</dim>
				</port>
			</output>
		</layer>
		<layer id="167" name="/backbone/stage2/stage2.3/Reshape" type="Reshape" version="opset1">
			<data special_zero="true" />
			<input>
				<port id="0" precision="FP32">
					<dim>1</dim>
					<dim>176</dim>
					<dim>52</dim>
					<dim>52</dim>
				</port>
				<port id="1" precision="I64">
					<dim>5</dim>
				</port>
			</input>
			<output>
				<port id="2" precision="FP32" names="/backbone/stage2/stage2.3/Reshape_output_0">
					<dim>1</dim>
					<dim>2</dim>
					<dim>88</dim>
					<dim>52</dim>
					<dim>52</dim>
				</port>
			</output>
		</layer>
		<layer id="168" name="Constant_1493" type="Const" version="opset1">
			<data element_type="i64" shape="5" offset="28096" size="40" />
			<output>
				<port id="0" precision="I64">
					<dim>5</dim>
				</port>
			</output>
		</layer>
		<layer id="169" name="/backbone/stage2/stage2.3/Transpose" type="Transpose" version="opset1">
			<input>
				<port id="0" precision="FP32">
					<dim>1</dim>
					<dim>2</dim>
					<dim>88</dim>
					<dim>52</dim>
					<dim>52</dim>
				</port>
				<port id="1" precision="I64">
					<dim>5</dim>
				</port>
			</input>
			<output>
				<port id="2" precision="FP32" names="/backbone/stage2/stage2.3/Transpose_output_0">
					<dim>1</dim>
					<dim>88</dim>
					<dim>2</dim>
					<dim>52</dim>
					<dim>52</dim>
				</port>
			</output>
		</layer>
		<layer id="170" name="/backbone/stage2/stage2.3/Reshape_1" type="Reshape" version="opset1">
			<data special_zero="true" />
			<input>
				<port id="0" precision="FP32">
					<dim>1</dim>
					<dim>88</dim>
					<dim>2</dim>
					<dim>52</dim>
					<dim>52</dim>
				</port>
				<port id="1" precision="I64">
					<dim>4</dim>
				</port>
			</input>
			<output>
				<port id="2" precision="FP32" names="/backbone/stage2/stage2.3/Reshape_1_output_0">
					<dim>1</dim>
					<dim>176</dim>
					<dim>52</dim>
					<dim>52</dim>
				</port>
			</output>
		</layer>
		<layer id="171" name="Reshape_1505_compressed" type="Const" version="opset1">
			<data element_type="f16" shape="176, 1, 1, 3, 3" offset="127496" size="3168" />
			<output>
				<port id="0" precision="FP16">
					<dim>176</dim>
					<dim>1</dim>
					<dim>1</dim>
					<dim>3</dim>
					<dim>3</dim>
				</port>
			</output>
		</layer>
		<layer id="172" name="Reshape_1505" type="Convert" version="opset1">
			<data destination_type="f32" />
			<rt_info>
				<attribute name="decompression" version="0" />
			</rt_info>
			<input>
				<port id="0" precision="FP16">
					<dim>176</dim>
					<dim>1</dim>
					<dim>1</dim>
					<dim>3</dim>
					<dim>3</dim>
				</port>
			</input>
			<output>
				<port id="1" precision="FP32">
					<dim>176</dim>
					<dim>1</dim>
					<dim>1</dim>
					<dim>3</dim>
					<dim>3</dim>
				</port>
			</output>
		</layer>
		<layer id="173" name="/backbone/stage3/stage3.0/branch1/branch1.0/Conv/WithoutBiases" type="GroupConvolution" version="opset1">
			<data strides="2, 2" pads_begin="1, 1" pads_end="1, 1" dilations="1, 1" auto_pad="explicit" />
			<input>
				<port id="0" precision="FP32">
					<dim>1</dim>
					<dim>176</dim>
					<dim>52</dim>
					<dim>52</dim>
				</port>
				<port id="1" precision="FP32">
					<dim>176</dim>
					<dim>1</dim>
					<dim>1</dim>
					<dim>3</dim>
					<dim>3</dim>
				</port>
			</input>
			<output>
				<port id="2" precision="FP32">
					<dim>1</dim>
					<dim>176</dim>
					<dim>26</dim>
					<dim>26</dim>
				</port>
			</output>
		</layer>
		<layer id="174" name="Reshape_1591_compressed" type="Const" version="opset1">
			<data element_type="f16" shape="1, 176, 1, 1" offset="130664" size="352" />
			<output>
				<port id="0" precision="FP16">
					<dim>1</dim>
					<dim>176</dim>
					<dim>1</dim>
					<dim>1</dim>
				</port>
			</output>
		</layer>
		<layer id="175" name="Reshape_1591" type="Convert" version="opset1">
			<data destination_type="f32" />
			<rt_info>
				<attribute name="decompression" version="0" />
			</rt_info>
			<input>
				<port id="0" precision="FP16">
					<dim>1</dim>
					<dim>176</dim>
					<dim>1</dim>
					<dim>1</dim>
				</port>
			</input>
			<output>
				<port id="1" precision="FP32">
					<dim>1</dim>
					<dim>176</dim>
					<dim>1</dim>
					<dim>1</dim>
				</port>
			</output>
		</layer>
		<layer id="176" name="/backbone/stage3/stage3.0/branch1/branch1.0/Conv" type="Add" version="opset1">
			<data auto_broadcast="numpy" />
			<input>
				<port id="0" precision="FP32">
					<dim>1</dim>
					<dim>176</dim>
					<dim>26</dim>
					<dim>26</dim>
				</port>
				<port id="1" precision="FP32">
					<dim>1</dim>
					<dim>176</dim>
					<dim>1</dim>
					<dim>1</dim>
				</port>
			</input>
			<output>
				<port id="2" precision="FP32" names="/backbone/stage3/stage3.0/branch1/branch1.0/Conv_output_0">
					<dim>1</dim>
					<dim>176</dim>
					<dim>26</dim>
					<dim>26</dim>
				</port>
			</output>
		</layer>
		<layer id="177" name="onnx::Conv_1580_compressed" type="Const" version="opset1">
			<data element_type="f16" shape="176, 176, 1, 1" offset="131016" size="61952" />
			<output>
				<port id="0" precision="FP16">
					<dim>176</dim>
					<dim>176</dim>
					<dim>1</dim>
					<dim>1</dim>
				</port>
			</output>
		</layer>
		<layer id="178" name="onnx::Conv_1580" type="Convert" version="opset1">
			<data destination_type="f32" />
			<rt_info>
				<attribute name="decompression" version="0" />
			</rt_info>
			<input>
				<port id="0" precision="FP16">
					<dim>176</dim>
					<dim>176</dim>
					<dim>1</dim>
					<dim>1</dim>
				</port>
			</input>
			<output>
				<port id="1" precision="FP32" names="onnx::Conv_1580">
					<dim>176</dim>
					<dim>176</dim>
					<dim>1</dim>
					<dim>1</dim>
				</port>
			</output>
		</layer>
		<layer id="179" name="/backbone/stage3/stage3.0/branch1/branch1.2/Conv/WithoutBiases" type="Convolution" version="opset1">
			<data strides="1, 1" dilations="1, 1" pads_begin="0, 0" pads_end="0, 0" auto_pad="explicit" />
			<input>
				<port id="0" precision="FP32">
					<dim>1</dim>
					<dim>176</dim>
					<dim>26</dim>
					<dim>26</dim>
				</port>
				<port id="1" precision="FP32">
					<dim>176</dim>
					<dim>176</dim>
					<dim>1</dim>
					<dim>1</dim>
				</port>
			</input>
			<output>
				<port id="2" precision="FP32">
					<dim>1</dim>
					<dim>176</dim>
					<dim>26</dim>
					<dim>26</dim>
				</port>
			</output>
		</layer>
		<layer id="180" name="Reshape_1639_compressed" type="Const" version="opset1">
			<data element_type="f16" shape="1, 176, 1, 1" offset="192968" size="352" />
			<output>
				<port id="0" precision="FP16">
					<dim>1</dim>
					<dim>176</dim>
					<dim>1</dim>
					<dim>1</dim>
				</port>
			</output>
		</layer>
		<layer id="181" name="Reshape_1639" type="Convert" version="opset1">
			<data destination_type="f32" />
			<rt_info>
				<attribute name="decompression" version="0" />
			</rt_info>
			<input>
				<port id="0" precision="FP16">
					<dim>1</dim>
					<dim>176</dim>
					<dim>1</dim>
					<dim>1</dim>
				</port>
			</input>
			<output>
				<port id="1" precision="FP32">
					<dim>1</dim>
					<dim>176</dim>
					<dim>1</dim>
					<dim>1</dim>
				</port>
			</output>
		</layer>
		<layer id="182" name="/backbone/stage3/stage3.0/branch1/branch1.2/Conv" type="Add" version="opset1">
			<data auto_broadcast="numpy" />
			<input>
				<port id="0" precision="FP32">
					<dim>1</dim>
					<dim>176</dim>
					<dim>26</dim>
					<dim>26</dim>
				</port>
				<port id="1" precision="FP32">
					<dim>1</dim>
					<dim>176</dim>
					<dim>1</dim>
					<dim>1</dim>
				</port>
			</input>
			<output>
				<port id="2" precision="FP32" names="/backbone/stage3/stage3.0/branch1/branch1.2/Conv_output_0">
					<dim>1</dim>
					<dim>176</dim>
					<dim>26</dim>
					<dim>26</dim>
				</port>
			</output>
		</layer>
		<layer id="183" name="Constant_1667_compressed" type="Const" version="opset1">
			<data element_type="f16" shape="1" offset="1350" size="2" />
			<output>
				<port id="0" precision="FP16">
					<dim>1</dim>
				</port>
			</output>
		</layer>
		<layer id="184" name="Constant_1667" type="Convert" version="opset1">
			<data destination_type="f32" />
			<rt_info>
				<attribute name="decompression" version="0" />
			</rt_info>
			<input>
				<port id="0" precision="FP16">
					<dim>1</dim>
				</port>
			</input>
			<output>
				<port id="1" precision="FP32">
					<dim>1</dim>
				</port>
			</output>
		</layer>
		<layer id="185" name="/backbone/stage3/stage3.0/branch1/branch1.4/LeakyRelu" type="PReLU" version="opset1">
			<input>
				<port id="0" precision="FP32">
					<dim>1</dim>
					<dim>176</dim>
					<dim>26</dim>
					<dim>26</dim>
				</port>
				<port id="1" precision="FP32">
					<dim>1</dim>
				</port>
			</input>
			<output>
				<port id="2" precision="FP32" names="/backbone/stage3/stage3.0/branch1/branch1.4/LeakyRelu_output_0">
					<dim>1</dim>
					<dim>176</dim>
					<dim>26</dim>
					<dim>26</dim>
				</port>
			</output>
		</layer>
		<layer id="186" name="onnx::Conv_1583_compressed" type="Const" version="opset1">
			<data element_type="f16" shape="176, 176, 1, 1" offset="193320" size="61952" />
			<output>
				<port id="0" precision="FP16">
					<dim>176</dim>
					<dim>176</dim>
					<dim>1</dim>
					<dim>1</dim>
				</port>
			</output>
		</layer>
		<layer id="187" name="onnx::Conv_1583" type="Convert" version="opset1">
			<data destination_type="f32" />
			<rt_info>
				<attribute name="decompression" version="0" />
			</rt_info>
			<input>
				<port id="0" precision="FP16">
					<dim>176</dim>
					<dim>176</dim>
					<dim>1</dim>
					<dim>1</dim>
				</port>
			</input>
			<output>
				<port id="1" precision="FP32" names="onnx::Conv_1583">
					<dim>176</dim>
					<dim>176</dim>
					<dim>1</dim>
					<dim>1</dim>
				</port>
			</output>
		</layer>
		<layer id="188" name="/backbone/stage3/stage3.0/branch2/branch2.0/Conv/WithoutBiases" type="Convolution" version="opset1">
			<data strides="1, 1" dilations="1, 1" pads_begin="0, 0" pads_end="0, 0" auto_pad="explicit" />
			<input>
				<port id="0" precision="FP32">
					<dim>1</dim>
					<dim>176</dim>
					<dim>52</dim>
					<dim>52</dim>
				</port>
				<port id="1" precision="FP32">
					<dim>176</dim>
					<dim>176</dim>
					<dim>1</dim>
					<dim>1</dim>
				</port>
			</input>
			<output>
				<port id="2" precision="FP32">
					<dim>1</dim>
					<dim>176</dim>
					<dim>52</dim>
					<dim>52</dim>
				</port>
			</output>
		</layer>
		<layer id="189" name="Reshape_1689_compressed" type="Const" version="opset1">
			<data element_type="f16" shape="1, 176, 1, 1" offset="255272" size="352" />
			<output>
				<port id="0" precision="FP16">
					<dim>1</dim>
					<dim>176</dim>
					<dim>1</dim>
					<dim>1</dim>
				</port>
			</output>
		</layer>
		<layer id="190" name="Reshape_1689" type="Convert" version="opset1">
			<data destination_type="f32" />
			<rt_info>
				<attribute name="decompression" version="0" />
			</rt_info>
			<input>
				<port id="0" precision="FP16">
					<dim>1</dim>
					<dim>176</dim>
					<dim>1</dim>
					<dim>1</dim>
				</port>
			</input>
			<output>
				<port id="1" precision="FP32">
					<dim>1</dim>
					<dim>176</dim>
					<dim>1</dim>
					<dim>1</dim>
				</port>
			</output>
		</layer>
		<layer id="191" name="/backbone/stage3/stage3.0/branch2/branch2.0/Conv" type="Add" version="opset1">
			<data auto_broadcast="numpy" />
			<input>
				<port id="0" precision="FP32">
					<dim>1</dim>
					<dim>176</dim>
					<dim>52</dim>
					<dim>52</dim>
				</port>
				<port id="1" precision="FP32">
					<dim>1</dim>
					<dim>176</dim>
					<dim>1</dim>
					<dim>1</dim>
				</port>
			</input>
			<output>
				<port id="2" precision="FP32" names="/backbone/stage3/stage3.0/branch2/branch2.0/Conv_output_0">
					<dim>1</dim>
					<dim>176</dim>
					<dim>52</dim>
					<dim>52</dim>
				</port>
			</output>
		</layer>
		<layer id="192" name="Constant_1717_compressed" type="Const" version="opset1">
			<data element_type="f16" shape="1" offset="1350" size="2" />
			<output>
				<port id="0" precision="FP16">
					<dim>1</dim>
				</port>
			</output>
		</layer>
		<layer id="193" name="Constant_1717" type="Convert" version="opset1">
			<data destination_type="f32" />
			<rt_info>
				<attribute name="decompression" version="0" />
			</rt_info>
			<input>
				<port id="0" precision="FP16">
					<dim>1</dim>
				</port>
			</input>
			<output>
				<port id="1" precision="FP32">
					<dim>1</dim>
				</port>
			</output>
		</layer>
		<layer id="194" name="/backbone/stage3/stage3.0/branch2/branch2.2/LeakyRelu" type="PReLU" version="opset1">
			<input>
				<port id="0" precision="FP32">
					<dim>1</dim>
					<dim>176</dim>
					<dim>52</dim>
					<dim>52</dim>
				</port>
				<port id="1" precision="FP32">
					<dim>1</dim>
				</port>
			</input>
			<output>
				<port id="2" precision="FP32" names="/backbone/stage3/stage3.0/branch2/branch2.2/LeakyRelu_output_0">
					<dim>1</dim>
					<dim>176</dim>
					<dim>52</dim>
					<dim>52</dim>
				</port>
			</output>
		</layer>
		<layer id="195" name="Reshape_1726_compressed" type="Const" version="opset1">
			<data element_type="f16" shape="176, 1, 1, 3, 3" offset="255624" size="3168" />
			<output>
				<port id="0" precision="FP16">
					<dim>176</dim>
					<dim>1</dim>
					<dim>1</dim>
					<dim>3</dim>
					<dim>3</dim>
				</port>
			</output>
		</layer>
		<layer id="196" name="Reshape_1726" type="Convert" version="opset1">
			<data destination_type="f32" />
			<rt_info>
				<attribute name="decompression" version="0" />
			</rt_info>
			<input>
				<port id="0" precision="FP16">
					<dim>176</dim>
					<dim>1</dim>
					<dim>1</dim>
					<dim>3</dim>
					<dim>3</dim>
				</port>
			</input>
			<output>
				<port id="1" precision="FP32">
					<dim>176</dim>
					<dim>1</dim>
					<dim>1</dim>
					<dim>3</dim>
					<dim>3</dim>
				</port>
			</output>
		</layer>
		<layer id="197" name="/backbone/stage3/stage3.0/branch2/branch2.3/Conv/WithoutBiases" type="GroupConvolution" version="opset1">
			<data strides="2, 2" pads_begin="1, 1" pads_end="1, 1" dilations="1, 1" auto_pad="explicit" />
			<input>
				<port id="0" precision="FP32">
					<dim>1</dim>
					<dim>176</dim>
					<dim>52</dim>
					<dim>52</dim>
				</port>
				<port id="1" precision="FP32">
					<dim>176</dim>
					<dim>1</dim>
					<dim>1</dim>
					<dim>3</dim>
					<dim>3</dim>
				</port>
			</input>
			<output>
				<port id="2" precision="FP32">
					<dim>1</dim>
					<dim>176</dim>
					<dim>26</dim>
					<dim>26</dim>
				</port>
			</output>
		</layer>
		<layer id="198" name="Reshape_1812_compressed" type="Const" version="opset1">
			<data element_type="f16" shape="1, 176, 1, 1" offset="258792" size="352" />
			<output>
				<port id="0" precision="FP16">
					<dim>1</dim>
					<dim>176</dim>
					<dim>1</dim>
					<dim>1</dim>
				</port>
			</output>
		</layer>
		<layer id="199" name="Reshape_1812" type="Convert" version="opset1">
			<data destination_type="f32" />
			<rt_info>
				<attribute name="decompression" version="0" />
			</rt_info>
			<input>
				<port id="0" precision="FP16">
					<dim>1</dim>
					<dim>176</dim>
					<dim>1</dim>
					<dim>1</dim>
				</port>
			</input>
			<output>
				<port id="1" precision="FP32">
					<dim>1</dim>
					<dim>176</dim>
					<dim>1</dim>
					<dim>1</dim>
				</port>
			</output>
		</layer>
		<layer id="200" name="/backbone/stage3/stage3.0/branch2/branch2.3/Conv" type="Add" version="opset1">
			<data auto_broadcast="numpy" />
			<input>
				<port id="0" precision="FP32">
					<dim>1</dim>
					<dim>176</dim>
					<dim>26</dim>
					<dim>26</dim>
				</port>
				<port id="1" precision="FP32">
					<dim>1</dim>
					<dim>176</dim>
					<dim>1</dim>
					<dim>1</dim>
				</port>
			</input>
			<output>
				<port id="2" precision="FP32" names="/backbone/stage3/stage3.0/branch2/branch2.3/Conv_output_0">
					<dim>1</dim>
					<dim>176</dim>
					<dim>26</dim>
					<dim>26</dim>
				</port>
			</output>
		</layer>
		<layer id="201" name="onnx::Conv_1589_compressed" type="Const" version="opset1">
			<data element_type="f16" shape="176, 176, 1, 1" offset="259144" size="61952" />
			<output>
				<port id="0" precision="FP16">
					<dim>176</dim>
					<dim>176</dim>
					<dim>1</dim>
					<dim>1</dim>
				</port>
			</output>
		</layer>
		<layer id="202" name="onnx::Conv_1589" type="Convert" version="opset1">
			<data destination_type="f32" />
			<rt_info>
				<attribute name="decompression" version="0" />
			</rt_info>
			<input>
				<port id="0" precision="FP16">
					<dim>176</dim>
					<dim>176</dim>
					<dim>1</dim>
					<dim>1</dim>
				</port>
			</input>
			<output>
				<port id="1" precision="FP32" names="onnx::Conv_1589">
					<dim>176</dim>
					<dim>176</dim>
					<dim>1</dim>
					<dim>1</dim>
				</port>
			</output>
		</layer>
		<layer id="203" name="/backbone/stage3/stage3.0/branch2/branch2.5/Conv/WithoutBiases" type="Convolution" version="opset1">
			<data strides="1, 1" dilations="1, 1" pads_begin="0, 0" pads_end="0, 0" auto_pad="explicit" />
			<input>
				<port id="0" precision="FP32">
					<dim>1</dim>
					<dim>176</dim>
					<dim>26</dim>
					<dim>26</dim>
				</port>
				<port id="1" precision="FP32">
					<dim>176</dim>
					<dim>176</dim>
					<dim>1</dim>
					<dim>1</dim>
				</port>
			</input>
			<output>
				<port id="2" precision="FP32">
					<dim>1</dim>
					<dim>176</dim>
					<dim>26</dim>
					<dim>26</dim>
				</port>
			</output>
		</layer>
		<layer id="204" name="Reshape_1860_compressed" type="Const" version="opset1">
			<data element_type="f16" shape="1, 176, 1, 1" offset="321096" size="352" />
			<output>
				<port id="0" precision="FP16">
					<dim>1</dim>
					<dim>176</dim>
					<dim>1</dim>
					<dim>1</dim>
				</port>
			</output>
		</layer>
		<layer id="205" name="Reshape_1860" type="Convert" version="opset1">
			<data destination_type="f32" />
			<rt_info>
				<attribute name="decompression" version="0" />
			</rt_info>
			<input>
				<port id="0" precision="FP16">
					<dim>1</dim>
					<dim>176</dim>
					<dim>1</dim>
					<dim>1</dim>
				</port>
			</input>
			<output>
				<port id="1" precision="FP32">
					<dim>1</dim>
					<dim>176</dim>
					<dim>1</dim>
					<dim>1</dim>
				</port>
			</output>
		</layer>
		<layer id="206" name="/backbone/stage3/stage3.0/branch2/branch2.5/Conv" type="Add" version="opset1">
			<data auto_broadcast="numpy" />
			<input>
				<port id="0" precision="FP32">
					<dim>1</dim>
					<dim>176</dim>
					<dim>26</dim>
					<dim>26</dim>
				</port>
				<port id="1" precision="FP32">
					<dim>1</dim>
					<dim>176</dim>
					<dim>1</dim>
					<dim>1</dim>
				</port>
			</input>
			<output>
				<port id="2" precision="FP32" names="/backbone/stage3/stage3.0/branch2/branch2.5/Conv_output_0">
					<dim>1</dim>
					<dim>176</dim>
					<dim>26</dim>
					<dim>26</dim>
				</port>
			</output>
		</layer>
		<layer id="207" name="Constant_1888_compressed" type="Const" version="opset1">
			<data element_type="f16" shape="1" offset="1350" size="2" />
			<output>
				<port id="0" precision="FP16">
					<dim>1</dim>
				</port>
			</output>
		</layer>
		<layer id="208" name="Constant_1888" type="Convert" version="opset1">
			<data destination_type="f32" />
			<rt_info>
				<attribute name="decompression" version="0" />
			</rt_info>
			<input>
				<port id="0" precision="FP16">
					<dim>1</dim>
				</port>
			</input>
			<output>
				<port id="1" precision="FP32">
					<dim>1</dim>
				</port>
			</output>
		</layer>
		<layer id="209" name="/backbone/stage3/stage3.0/branch2/branch2.7/LeakyRelu" type="PReLU" version="opset1">
			<input>
				<port id="0" precision="FP32">
					<dim>1</dim>
					<dim>176</dim>
					<dim>26</dim>
					<dim>26</dim>
				</port>
				<port id="1" precision="FP32">
					<dim>1</dim>
				</port>
			</input>
			<output>
				<port id="2" precision="FP32" names="/backbone/stage3/stage3.0/branch2/branch2.7/LeakyRelu_output_0">
					<dim>1</dim>
					<dim>176</dim>
					<dim>26</dim>
					<dim>26</dim>
				</port>
			</output>
		</layer>
		<layer id="210" name="/backbone/stage3/stage3.0/Concat" type="Concat" version="opset1">
			<data axis="1" />
			<input>
				<port id="0" precision="FP32">
					<dim>1</dim>
					<dim>176</dim>
					<dim>26</dim>
					<dim>26</dim>
				</port>
				<port id="1" precision="FP32">
					<dim>1</dim>
					<dim>176</dim>
					<dim>26</dim>
					<dim>26</dim>
				</port>
			</input>
			<output>
				<port id="2" precision="FP32" names="/backbone/stage3/stage3.0/Concat_output_0">
					<dim>1</dim>
					<dim>352</dim>
					<dim>26</dim>
					<dim>26</dim>
				</port>
			</output>
		</layer>
		<layer id="211" name="/backbone/stage3/stage3.0/Constant_output_0" type="Const" version="opset1">
			<data element_type="i64" shape="5" offset="321448" size="40" />
			<output>
				<port id="0" precision="I64" names="/backbone/stage3/stage3.0/Constant_output_0">
					<dim>5</dim>
				</port>
			</output>
		</layer>
		<layer id="212" name="/backbone/stage3/stage3.0/Reshape" type="Reshape" version="opset1">
			<data special_zero="true" />
			<input>
				<port id="0" precision="FP32">
					<dim>1</dim>
					<dim>352</dim>
					<dim>26</dim>
					<dim>26</dim>
				</port>
				<port id="1" precision="I64">
					<dim>5</dim>
				</port>
			</input>
			<output>
				<port id="2" precision="FP32" names="/backbone/stage3/stage3.0/Reshape_output_0">
					<dim>1</dim>
					<dim>2</dim>
					<dim>176</dim>
					<dim>26</dim>
					<dim>26</dim>
				</port>
			</output>
		</layer>
		<layer id="213" name="Constant_1897" type="Const" version="opset1">
			<data element_type="i64" shape="5" offset="28096" size="40" />
			<output>
				<port id="0" precision="I64">
					<dim>5</dim>
				</port>
			</output>
		</layer>
		<layer id="214" name="/backbone/stage3/stage3.0/Transpose" type="Transpose" version="opset1">
			<input>
				<port id="0" precision="FP32">
					<dim>1</dim>
					<dim>2</dim>
					<dim>176</dim>
					<dim>26</dim>
					<dim>26</dim>
				</port>
				<port id="1" precision="I64">
					<dim>5</dim>
				</port>
			</input>
			<output>
				<port id="2" precision="FP32" names="/backbone/stage3/stage3.0/Transpose_output_0">
					<dim>1</dim>
					<dim>176</dim>
					<dim>2</dim>
					<dim>26</dim>
					<dim>26</dim>
				</port>
			</output>
		</layer>
		<layer id="215" name="/backbone/stage3/stage3.0/Constant_1_output_0" type="Const" version="opset1">
			<data element_type="i64" shape="4" offset="321488" size="32" />
			<output>
				<port id="0" precision="I64" names="/backbone/stage3/stage3.0/Constant_1_output_0">
					<dim>4</dim>
				</port>
			</output>
		</layer>
		<layer id="216" name="/backbone/stage3/stage3.0/Reshape_1" type="Reshape" version="opset1">
			<data special_zero="true" />
			<input>
				<port id="0" precision="FP32">
					<dim>1</dim>
					<dim>176</dim>
					<dim>2</dim>
					<dim>26</dim>
					<dim>26</dim>
				</port>
				<port id="1" precision="I64">
					<dim>4</dim>
				</port>
			</input>
			<output>
				<port id="2" precision="FP32" names="/backbone/stage3/stage3.0/Reshape_1_output_0">
					<dim>1</dim>
					<dim>352</dim>
					<dim>26</dim>
					<dim>26</dim>
				</port>
			</output>
		</layer>
		<layer id="217" name="Constant_26756" type="Const" version="opset1">
			<data element_type="i64" shape="2" offset="28168" size="16" />
			<output>
				<port id="0" precision="I64">
					<dim>2</dim>
				</port>
			</output>
		</layer>
		<layer id="218" name="Constant_26759" type="Const" version="opset1">
			<data element_type="i64" shape="2" offset="28216" size="16" />
			<output>
				<port id="0" precision="I64">
					<dim>2</dim>
				</port>
			</output>
		</layer>
		<layer id="219" name="Constant_26762" type="Const" version="opset1">
			<data element_type="i64" shape="2" offset="28200" size="16" />
			<output>
				<port id="0" precision="I64">
					<dim>2</dim>
				</port>
			</output>
		</layer>
		<layer id="220" name="/backbone/stage3/stage3.1/Slice" type="StridedSlice" version="opset1">
			<data begin_mask="1, 0" end_mask="1, 0" new_axis_mask="" shrink_axis_mask="" ellipsis_mask="" />
			<input>
				<port id="0" precision="FP32">
					<dim>1</dim>
					<dim>352</dim>
					<dim>26</dim>
					<dim>26</dim>
				</port>
				<port id="1" precision="I64">
					<dim>2</dim>
				</port>
				<port id="2" precision="I64">
					<dim>2</dim>
				</port>
				<port id="3" precision="I64">
					<dim>2</dim>
				</port>
			</input>
			<output>
				<port id="4" precision="FP32" names="/backbone/stage3/stage3.1/Slice_output_0">
					<dim>1</dim>
					<dim>176</dim>
					<dim>26</dim>
					<dim>26</dim>
				</port>
			</output>
		</layer>
		<layer id="221" name="Constant_26768" type="Const" version="opset1">
			<data element_type="i64" shape="2" offset="28216" size="16" />
			<output>
				<port id="0" precision="I64">
					<dim>2</dim>
				</port>
			</output>
		</layer>
		<layer id="222" name="Constant_26771" type="Const" version="opset1">
			<data element_type="i64" shape="2" offset="321520" size="16" />
			<output>
				<port id="0" precision="I64">
					<dim>2</dim>
				</port>
			</output>
		</layer>
		<layer id="223" name="Constant_26774" type="Const" version="opset1">
			<data element_type="i64" shape="2" offset="28200" size="16" />
			<output>
				<port id="0" precision="I64">
					<dim>2</dim>
				</port>
			</output>
		</layer>
		<layer id="224" name="/backbone/stage3/stage3.1/Slice_1" type="StridedSlice" version="opset1">
			<data begin_mask="1, 0" end_mask="1, 0" new_axis_mask="" shrink_axis_mask="" ellipsis_mask="" />
			<input>
				<port id="0" precision="FP32">
					<dim>1</dim>
					<dim>352</dim>
					<dim>26</dim>
					<dim>26</dim>
				</port>
				<port id="1" precision="I64">
					<dim>2</dim>
				</port>
				<port id="2" precision="I64">
					<dim>2</dim>
				</port>
				<port id="3" precision="I64">
					<dim>2</dim>
				</port>
			</input>
			<output>
				<port id="4" precision="FP32" names="/backbone/stage3/stage3.1/Slice_1_output_0">
					<dim>1</dim>
					<dim>176</dim>
					<dim>26</dim>
					<dim>26</dim>
				</port>
			</output>
		</layer>
		<layer id="225" name="onnx::Conv_1592_compressed" type="Const" version="opset1">
			<data element_type="f16" shape="176, 176, 1, 1" offset="321536" size="61952" />
			<output>
				<port id="0" precision="FP16">
					<dim>176</dim>
					<dim>176</dim>
					<dim>1</dim>
					<dim>1</dim>
				</port>
			</output>
		</layer>
		<layer id="226" name="onnx::Conv_1592" type="Convert" version="opset1">
			<data destination_type="f32" />
			<rt_info>
				<attribute name="decompression" version="0" />
			</rt_info>
			<input>
				<port id="0" precision="FP16">
					<dim>176</dim>
					<dim>176</dim>
					<dim>1</dim>
					<dim>1</dim>
				</port>
			</input>
			<output>
				<port id="1" precision="FP32" names="onnx::Conv_1592">
					<dim>176</dim>
					<dim>176</dim>
					<dim>1</dim>
					<dim>1</dim>
				</port>
			</output>
		</layer>
		<layer id="227" name="/backbone/stage3/stage3.1/branch2/branch2.0/Conv/WithoutBiases" type="Convolution" version="opset1">
			<data strides="1, 1" dilations="1, 1" pads_begin="0, 0" pads_end="0, 0" auto_pad="explicit" />
			<input>
				<port id="0" precision="FP32">
					<dim>1</dim>
					<dim>176</dim>
					<dim>26</dim>
					<dim>26</dim>
				</port>
				<port id="1" precision="FP32">
					<dim>176</dim>
					<dim>176</dim>
					<dim>1</dim>
					<dim>1</dim>
				</port>
			</input>
			<output>
				<port id="2" precision="FP32">
					<dim>1</dim>
					<dim>176</dim>
					<dim>26</dim>
					<dim>26</dim>
				</port>
			</output>
		</layer>
		<layer id="228" name="Reshape_1963_compressed" type="Const" version="opset1">
			<data element_type="f16" shape="1, 176, 1, 1" offset="383488" size="352" />
			<output>
				<port id="0" precision="FP16">
					<dim>1</dim>
					<dim>176</dim>
					<dim>1</dim>
					<dim>1</dim>
				</port>
			</output>
		</layer>
		<layer id="229" name="Reshape_1963" type="Convert" version="opset1">
			<data destination_type="f32" />
			<rt_info>
				<attribute name="decompression" version="0" />
			</rt_info>
			<input>
				<port id="0" precision="FP16">
					<dim>1</dim>
					<dim>176</dim>
					<dim>1</dim>
					<dim>1</dim>
				</port>
			</input>
			<output>
				<port id="1" precision="FP32">
					<dim>1</dim>
					<dim>176</dim>
					<dim>1</dim>
					<dim>1</dim>
				</port>
			</output>
		</layer>
		<layer id="230" name="/backbone/stage3/stage3.1/branch2/branch2.0/Conv" type="Add" version="opset1">
			<data auto_broadcast="numpy" />
			<input>
				<port id="0" precision="FP32">
					<dim>1</dim>
					<dim>176</dim>
					<dim>26</dim>
					<dim>26</dim>
				</port>
				<port id="1" precision="FP32">
					<dim>1</dim>
					<dim>176</dim>
					<dim>1</dim>
					<dim>1</dim>
				</port>
			</input>
			<output>
				<port id="2" precision="FP32" names="/backbone/stage3/stage3.1/branch2/branch2.0/Conv_output_0">
					<dim>1</dim>
					<dim>176</dim>
					<dim>26</dim>
					<dim>26</dim>
				</port>
			</output>
		</layer>
		<layer id="231" name="Constant_1991_compressed" type="Const" version="opset1">
			<data element_type="f16" shape="1" offset="1350" size="2" />
			<output>
				<port id="0" precision="FP16">
					<dim>1</dim>
				</port>
			</output>
		</layer>
		<layer id="232" name="Constant_1991" type="Convert" version="opset1">
			<data destination_type="f32" />
			<rt_info>
				<attribute name="decompression" version="0" />
			</rt_info>
			<input>
				<port id="0" precision="FP16">
					<dim>1</dim>
				</port>
			</input>
			<output>
				<port id="1" precision="FP32">
					<dim>1</dim>
				</port>
			</output>
		</layer>
		<layer id="233" name="/backbone/stage3/stage3.1/branch2/branch2.2/LeakyRelu" type="PReLU" version="opset1">
			<input>
				<port id="0" precision="FP32">
					<dim>1</dim>
					<dim>176</dim>
					<dim>26</dim>
					<dim>26</dim>
				</port>
				<port id="1" precision="FP32">
					<dim>1</dim>
				</port>
			</input>
			<output>
				<port id="2" precision="FP32" names="/backbone/stage3/stage3.1/branch2/branch2.2/LeakyRelu_output_0">
					<dim>1</dim>
					<dim>176</dim>
					<dim>26</dim>
					<dim>26</dim>
				</port>
			</output>
		</layer>
		<layer id="234" name="Reshape_2000_compressed" type="Const" version="opset1">
			<data element_type="f16" shape="176, 1, 1, 3, 3" offset="383840" size="3168" />
			<output>
				<port id="0" precision="FP16">
					<dim>176</dim>
					<dim>1</dim>
					<dim>1</dim>
					<dim>3</dim>
					<dim>3</dim>
				</port>
			</output>
		</layer>
		<layer id="235" name="Reshape_2000" type="Convert" version="opset1">
			<data destination_type="f32" />
			<rt_info>
				<attribute name="decompression" version="0" />
			</rt_info>
			<input>
				<port id="0" precision="FP16">
					<dim>176</dim>
					<dim>1</dim>
					<dim>1</dim>
					<dim>3</dim>
					<dim>3</dim>
				</port>
			</input>
			<output>
				<port id="1" precision="FP32">
					<dim>176</dim>
					<dim>1</dim>
					<dim>1</dim>
					<dim>3</dim>
					<dim>3</dim>
				</port>
			</output>
		</layer>
		<layer id="236" name="/backbone/stage3/stage3.1/branch2/branch2.3/Conv/WithoutBiases" type="GroupConvolution" version="opset1">
			<data strides="1, 1" pads_begin="1, 1" pads_end="1, 1" dilations="1, 1" auto_pad="explicit" />
			<input>
				<port id="0" precision="FP32">
					<dim>1</dim>
					<dim>176</dim>
					<dim>26</dim>
					<dim>26</dim>
				</port>
				<port id="1" precision="FP32">
					<dim>176</dim>
					<dim>1</dim>
					<dim>1</dim>
					<dim>3</dim>
					<dim>3</dim>
				</port>
			</input>
			<output>
				<port id="2" precision="FP32">
					<dim>1</dim>
					<dim>176</dim>
					<dim>26</dim>
					<dim>26</dim>
				</port>
			</output>
		</layer>
		<layer id="237" name="Reshape_2086_compressed" type="Const" version="opset1">
			<data element_type="f16" shape="1, 176, 1, 1" offset="387008" size="352" />
			<output>
				<port id="0" precision="FP16">
					<dim>1</dim>
					<dim>176</dim>
					<dim>1</dim>
					<dim>1</dim>
				</port>
			</output>
		</layer>
		<layer id="238" name="Reshape_2086" type="Convert" version="opset1">
			<data destination_type="f32" />
			<rt_info>
				<attribute name="decompression" version="0" />
			</rt_info>
			<input>
				<port id="0" precision="FP16">
					<dim>1</dim>
					<dim>176</dim>
					<dim>1</dim>
					<dim>1</dim>
				</port>
			</input>
			<output>
				<port id="1" precision="FP32">
					<dim>1</dim>
					<dim>176</dim>
					<dim>1</dim>
					<dim>1</dim>
				</port>
			</output>
		</layer>
		<layer id="239" name="/backbone/stage3/stage3.1/branch2/branch2.3/Conv" type="Add" version="opset1">
			<data auto_broadcast="numpy" />
			<input>
				<port id="0" precision="FP32">
					<dim>1</dim>
					<dim>176</dim>
					<dim>26</dim>
					<dim>26</dim>
				</port>
				<port id="1" precision="FP32">
					<dim>1</dim>
					<dim>176</dim>
					<dim>1</dim>
					<dim>1</dim>
				</port>
			</input>
			<output>
				<port id="2" precision="FP32" names="/backbone/stage3/stage3.1/branch2/branch2.3/Conv_output_0">
					<dim>1</dim>
					<dim>176</dim>
					<dim>26</dim>
					<dim>26</dim>
				</port>
			</output>
		</layer>
		<layer id="240" name="onnx::Conv_1598_compressed" type="Const" version="opset1">
			<data element_type="f16" shape="176, 176, 1, 1" offset="387360" size="61952" />
			<output>
				<port id="0" precision="FP16">
					<dim>176</dim>
					<dim>176</dim>
					<dim>1</dim>
					<dim>1</dim>
				</port>
			</output>
		</layer>
		<layer id="241" name="onnx::Conv_1598" type="Convert" version="opset1">
			<data destination_type="f32" />
			<rt_info>
				<attribute name="decompression" version="0" />
			</rt_info>
			<input>
				<port id="0" precision="FP16">
					<dim>176</dim>
					<dim>176</dim>
					<dim>1</dim>
					<dim>1</dim>
				</port>
			</input>
			<output>
				<port id="1" precision="FP32" names="onnx::Conv_1598">
					<dim>176</dim>
					<dim>176</dim>
					<dim>1</dim>
					<dim>1</dim>
				</port>
			</output>
		</layer>
		<layer id="242" name="/backbone/stage3/stage3.1/branch2/branch2.5/Conv/WithoutBiases" type="Convolution" version="opset1">
			<data strides="1, 1" dilations="1, 1" pads_begin="0, 0" pads_end="0, 0" auto_pad="explicit" />
			<input>
				<port id="0" precision="FP32">
					<dim>1</dim>
					<dim>176</dim>
					<dim>26</dim>
					<dim>26</dim>
				</port>
				<port id="1" precision="FP32">
					<dim>176</dim>
					<dim>176</dim>
					<dim>1</dim>
					<dim>1</dim>
				</port>
			</input>
			<output>
				<port id="2" precision="FP32">
					<dim>1</dim>
					<dim>176</dim>
					<dim>26</dim>
					<dim>26</dim>
				</port>
			</output>
		</layer>
		<layer id="243" name="Reshape_2134_compressed" type="Const" version="opset1">
			<data element_type="f16" shape="1, 176, 1, 1" offset="449312" size="352" />
			<output>
				<port id="0" precision="FP16">
					<dim>1</dim>
					<dim>176</dim>
					<dim>1</dim>
					<dim>1</dim>
				</port>
			</output>
		</layer>
		<layer id="244" name="Reshape_2134" type="Convert" version="opset1">
			<data destination_type="f32" />
			<rt_info>
				<attribute name="decompression" version="0" />
			</rt_info>
			<input>
				<port id="0" precision="FP16">
					<dim>1</dim>
					<dim>176</dim>
					<dim>1</dim>
					<dim>1</dim>
				</port>
			</input>
			<output>
				<port id="1" precision="FP32">
					<dim>1</dim>
					<dim>176</dim>
					<dim>1</dim>
					<dim>1</dim>
				</port>
			</output>
		</layer>
		<layer id="245" name="/backbone/stage3/stage3.1/branch2/branch2.5/Conv" type="Add" version="opset1">
			<data auto_broadcast="numpy" />
			<input>
				<port id="0" precision="FP32">
					<dim>1</dim>
					<dim>176</dim>
					<dim>26</dim>
					<dim>26</dim>
				</port>
				<port id="1" precision="FP32">
					<dim>1</dim>
					<dim>176</dim>
					<dim>1</dim>
					<dim>1</dim>
				</port>
			</input>
			<output>
				<port id="2" precision="FP32" names="/backbone/stage3/stage3.1/branch2/branch2.5/Conv_output_0">
					<dim>1</dim>
					<dim>176</dim>
					<dim>26</dim>
					<dim>26</dim>
				</port>
			</output>
		</layer>
		<layer id="246" name="Constant_2162_compressed" type="Const" version="opset1">
			<data element_type="f16" shape="1" offset="1350" size="2" />
			<output>
				<port id="0" precision="FP16">
					<dim>1</dim>
				</port>
			</output>
		</layer>
		<layer id="247" name="Constant_2162" type="Convert" version="opset1">
			<data destination_type="f32" />
			<rt_info>
				<attribute name="decompression" version="0" />
			</rt_info>
			<input>
				<port id="0" precision="FP16">
					<dim>1</dim>
				</port>
			</input>
			<output>
				<port id="1" precision="FP32">
					<dim>1</dim>
				</port>
			</output>
		</layer>
		<layer id="248" name="/backbone/stage3/stage3.1/branch2/branch2.7/LeakyRelu" type="PReLU" version="opset1">
			<input>
				<port id="0" precision="FP32">
					<dim>1</dim>
					<dim>176</dim>
					<dim>26</dim>
					<dim>26</dim>
				</port>
				<port id="1" precision="FP32">
					<dim>1</dim>
				</port>
			</input>
			<output>
				<port id="2" precision="FP32" names="/backbone/stage3/stage3.1/branch2/branch2.7/LeakyRelu_output_0">
					<dim>1</dim>
					<dim>176</dim>
					<dim>26</dim>
					<dim>26</dim>
				</port>
			</output>
		</layer>
		<layer id="249" name="/backbone/stage3/stage3.1/Concat" type="Concat" version="opset1">
			<data axis="1" />
			<input>
				<port id="0" precision="FP32">
					<dim>1</dim>
					<dim>176</dim>
					<dim>26</dim>
					<dim>26</dim>
				</port>
				<port id="1" precision="FP32">
					<dim>1</dim>
					<dim>176</dim>
					<dim>26</dim>
					<dim>26</dim>
				</port>
			</input>
			<output>
				<port id="2" precision="FP32" names="/backbone/stage3/stage3.1/Concat_output_0">
					<dim>1</dim>
					<dim>352</dim>
					<dim>26</dim>
					<dim>26</dim>
				</port>
			</output>
		</layer>
		<layer id="250" name="/backbone/stage3/stage3.1/Reshape" type="Reshape" version="opset1">
			<data special_zero="true" />
			<input>
				<port id="0" precision="FP32">
					<dim>1</dim>
					<dim>352</dim>
					<dim>26</dim>
					<dim>26</dim>
				</port>
				<port id="1" precision="I64">
					<dim>5</dim>
				</port>
			</input>
			<output>
				<port id="2" precision="FP32" names="/backbone/stage3/stage3.1/Reshape_output_0">
					<dim>1</dim>
					<dim>2</dim>
					<dim>176</dim>
					<dim>26</dim>
					<dim>26</dim>
				</port>
			</output>
		</layer>
		<layer id="251" name="Constant_2168" type="Const" version="opset1">
			<data element_type="i64" shape="5" offset="28096" size="40" />
			<output>
				<port id="0" precision="I64">
					<dim>5</dim>
				</port>
			</output>
		</layer>
		<layer id="252" name="/backbone/stage3/stage3.1/Transpose" type="Transpose" version="opset1">
			<input>
				<port id="0" precision="FP32">
					<dim>1</dim>
					<dim>2</dim>
					<dim>176</dim>
					<dim>26</dim>
					<dim>26</dim>
				</port>
				<port id="1" precision="I64">
					<dim>5</dim>
				</port>
			</input>
			<output>
				<port id="2" precision="FP32" names="/backbone/stage3/stage3.1/Transpose_output_0">
					<dim>1</dim>
					<dim>176</dim>
					<dim>2</dim>
					<dim>26</dim>
					<dim>26</dim>
				</port>
			</output>
		</layer>
		<layer id="253" name="/backbone/stage3/stage3.1/Reshape_1" type="Reshape" version="opset1">
			<data special_zero="true" />
			<input>
				<port id="0" precision="FP32">
					<dim>1</dim>
					<dim>176</dim>
					<dim>2</dim>
					<dim>26</dim>
					<dim>26</dim>
				</port>
				<port id="1" precision="I64">
					<dim>4</dim>
				</port>
			</input>
			<output>
				<port id="2" precision="FP32" names="/backbone/stage3/stage3.1/Reshape_1_output_0">
					<dim>1</dim>
					<dim>352</dim>
					<dim>26</dim>
					<dim>26</dim>
				</port>
			</output>
		</layer>
		<layer id="254" name="Constant_26780" type="Const" version="opset1">
			<data element_type="i64" shape="2" offset="28168" size="16" />
			<output>
				<port id="0" precision="I64">
					<dim>2</dim>
				</port>
			</output>
		</layer>
		<layer id="255" name="Constant_26783" type="Const" version="opset1">
			<data element_type="i64" shape="2" offset="28216" size="16" />
			<output>
				<port id="0" precision="I64">
					<dim>2</dim>
				</port>
			</output>
		</layer>
		<layer id="256" name="Constant_26786" type="Const" version="opset1">
			<data element_type="i64" shape="2" offset="28200" size="16" />
			<output>
				<port id="0" precision="I64">
					<dim>2</dim>
				</port>
			</output>
		</layer>
		<layer id="257" name="/backbone/stage3/stage3.2/Slice" type="StridedSlice" version="opset1">
			<data begin_mask="1, 0" end_mask="1, 0" new_axis_mask="" shrink_axis_mask="" ellipsis_mask="" />
			<input>
				<port id="0" precision="FP32">
					<dim>1</dim>
					<dim>352</dim>
					<dim>26</dim>
					<dim>26</dim>
				</port>
				<port id="1" precision="I64">
					<dim>2</dim>
				</port>
				<port id="2" precision="I64">
					<dim>2</dim>
				</port>
				<port id="3" precision="I64">
					<dim>2</dim>
				</port>
			</input>
			<output>
				<port id="4" precision="FP32" names="/backbone/stage3/stage3.2/Slice_output_0">
					<dim>1</dim>
					<dim>176</dim>
					<dim>26</dim>
					<dim>26</dim>
				</port>
			</output>
		</layer>
		<layer id="258" name="Constant_26792" type="Const" version="opset1">
			<data element_type="i64" shape="2" offset="28216" size="16" />
			<output>
				<port id="0" precision="I64">
					<dim>2</dim>
				</port>
			</output>
		</layer>
		<layer id="259" name="Constant_26795" type="Const" version="opset1">
			<data element_type="i64" shape="2" offset="321520" size="16" />
			<output>
				<port id="0" precision="I64">
					<dim>2</dim>
				</port>
			</output>
		</layer>
		<layer id="260" name="Constant_26798" type="Const" version="opset1">
			<data element_type="i64" shape="2" offset="28200" size="16" />
			<output>
				<port id="0" precision="I64">
					<dim>2</dim>
				</port>
			</output>
		</layer>
		<layer id="261" name="/backbone/stage3/stage3.2/Slice_1" type="StridedSlice" version="opset1">
			<data begin_mask="1, 0" end_mask="1, 0" new_axis_mask="" shrink_axis_mask="" ellipsis_mask="" />
			<input>
				<port id="0" precision="FP32">
					<dim>1</dim>
					<dim>352</dim>
					<dim>26</dim>
					<dim>26</dim>
				</port>
				<port id="1" precision="I64">
					<dim>2</dim>
				</port>
				<port id="2" precision="I64">
					<dim>2</dim>
				</port>
				<port id="3" precision="I64">
					<dim>2</dim>
				</port>
			</input>
			<output>
				<port id="4" precision="FP32" names="/backbone/stage3/stage3.2/Slice_1_output_0">
					<dim>1</dim>
					<dim>176</dim>
					<dim>26</dim>
					<dim>26</dim>
				</port>
			</output>
		</layer>
		<layer id="262" name="onnx::Conv_1601_compressed" type="Const" version="opset1">
			<data element_type="f16" shape="176, 176, 1, 1" offset="449664" size="61952" />
			<output>
				<port id="0" precision="FP16">
					<dim>176</dim>
					<dim>176</dim>
					<dim>1</dim>
					<dim>1</dim>
				</port>
			</output>
		</layer>
		<layer id="263" name="onnx::Conv_1601" type="Convert" version="opset1">
			<data destination_type="f32" />
			<rt_info>
				<attribute name="decompression" version="0" />
			</rt_info>
			<input>
				<port id="0" precision="FP16">
					<dim>176</dim>
					<dim>176</dim>
					<dim>1</dim>
					<dim>1</dim>
				</port>
			</input>
			<output>
				<port id="1" precision="FP32" names="onnx::Conv_1601">
					<dim>176</dim>
					<dim>176</dim>
					<dim>1</dim>
					<dim>1</dim>
				</port>
			</output>
		</layer>
		<layer id="264" name="/backbone/stage3/stage3.2/branch2/branch2.0/Conv/WithoutBiases" type="Convolution" version="opset1">
			<data strides="1, 1" dilations="1, 1" pads_begin="0, 0" pads_end="0, 0" auto_pad="explicit" />
			<input>
				<port id="0" precision="FP32">
					<dim>1</dim>
					<dim>176</dim>
					<dim>26</dim>
					<dim>26</dim>
				</port>
				<port id="1" precision="FP32">
					<dim>176</dim>
					<dim>176</dim>
					<dim>1</dim>
					<dim>1</dim>
				</port>
			</input>
			<output>
				<port id="2" precision="FP32">
					<dim>1</dim>
					<dim>176</dim>
					<dim>26</dim>
					<dim>26</dim>
				</port>
			</output>
		</layer>
		<layer id="265" name="Reshape_2231_compressed" type="Const" version="opset1">
			<data element_type="f16" shape="1, 176, 1, 1" offset="511616" size="352" />
			<output>
				<port id="0" precision="FP16">
					<dim>1</dim>
					<dim>176</dim>
					<dim>1</dim>
					<dim>1</dim>
				</port>
			</output>
		</layer>
		<layer id="266" name="Reshape_2231" type="Convert" version="opset1">
			<data destination_type="f32" />
			<rt_info>
				<attribute name="decompression" version="0" />
			</rt_info>
			<input>
				<port id="0" precision="FP16">
					<dim>1</dim>
					<dim>176</dim>
					<dim>1</dim>
					<dim>1</dim>
				</port>
			</input>
			<output>
				<port id="1" precision="FP32">
					<dim>1</dim>
					<dim>176</dim>
					<dim>1</dim>
					<dim>1</dim>
				</port>
			</output>
		</layer>
		<layer id="267" name="/backbone/stage3/stage3.2/branch2/branch2.0/Conv" type="Add" version="opset1">
			<data auto_broadcast="numpy" />
			<input>
				<port id="0" precision="FP32">
					<dim>1</dim>
					<dim>176</dim>
					<dim>26</dim>
					<dim>26</dim>
				</port>
				<port id="1" precision="FP32">
					<dim>1</dim>
					<dim>176</dim>
					<dim>1</dim>
					<dim>1</dim>
				</port>
			</input>
			<output>
				<port id="2" precision="FP32" names="/backbone/stage3/stage3.2/branch2/branch2.0/Conv_output_0">
					<dim>1</dim>
					<dim>176</dim>
					<dim>26</dim>
					<dim>26</dim>
				</port>
			</output>
		</layer>
		<layer id="268" name="Constant_2259_compressed" type="Const" version="opset1">
			<data element_type="f16" shape="1" offset="1350" size="2" />
			<output>
				<port id="0" precision="FP16">
					<dim>1</dim>
				</port>
			</output>
		</layer>
		<layer id="269" name="Constant_2259" type="Convert" version="opset1">
			<data destination_type="f32" />
			<rt_info>
				<attribute name="decompression" version="0" />
			</rt_info>
			<input>
				<port id="0" precision="FP16">
					<dim>1</dim>
				</port>
			</input>
			<output>
				<port id="1" precision="FP32">
					<dim>1</dim>
				</port>
			</output>
		</layer>
		<layer id="270" name="/backbone/stage3/stage3.2/branch2/branch2.2/LeakyRelu" type="PReLU" version="opset1">
			<input>
				<port id="0" precision="FP32">
					<dim>1</dim>
					<dim>176</dim>
					<dim>26</dim>
					<dim>26</dim>
				</port>
				<port id="1" precision="FP32">
					<dim>1</dim>
				</port>
			</input>
			<output>
				<port id="2" precision="FP32" names="/backbone/stage3/stage3.2/branch2/branch2.2/LeakyRelu_output_0">
					<dim>1</dim>
					<dim>176</dim>
					<dim>26</dim>
					<dim>26</dim>
				</port>
			</output>
		</layer>
		<layer id="271" name="Reshape_2268_compressed" type="Const" version="opset1">
			<data element_type="f16" shape="176, 1, 1, 3, 3" offset="511968" size="3168" />
			<output>
				<port id="0" precision="FP16">
					<dim>176</dim>
					<dim>1</dim>
					<dim>1</dim>
					<dim>3</dim>
					<dim>3</dim>
				</port>
			</output>
		</layer>
		<layer id="272" name="Reshape_2268" type="Convert" version="opset1">
			<data destination_type="f32" />
			<rt_info>
				<attribute name="decompression" version="0" />
			</rt_info>
			<input>
				<port id="0" precision="FP16">
					<dim>176</dim>
					<dim>1</dim>
					<dim>1</dim>
					<dim>3</dim>
					<dim>3</dim>
				</port>
			</input>
			<output>
				<port id="1" precision="FP32">
					<dim>176</dim>
					<dim>1</dim>
					<dim>1</dim>
					<dim>3</dim>
					<dim>3</dim>
				</port>
			</output>
		</layer>
		<layer id="273" name="/backbone/stage3/stage3.2/branch2/branch2.3/Conv/WithoutBiases" type="GroupConvolution" version="opset1">
			<data strides="1, 1" pads_begin="1, 1" pads_end="1, 1" dilations="1, 1" auto_pad="explicit" />
			<input>
				<port id="0" precision="FP32">
					<dim>1</dim>
					<dim>176</dim>
					<dim>26</dim>
					<dim>26</dim>
				</port>
				<port id="1" precision="FP32">
					<dim>176</dim>
					<dim>1</dim>
					<dim>1</dim>
					<dim>3</dim>
					<dim>3</dim>
				</port>
			</input>
			<output>
				<port id="2" precision="FP32">
					<dim>1</dim>
					<dim>176</dim>
					<dim>26</dim>
					<dim>26</dim>
				</port>
			</output>
		</layer>
		<layer id="274" name="Reshape_2354_compressed" type="Const" version="opset1">
			<data element_type="f16" shape="1, 176, 1, 1" offset="515136" size="352" />
			<output>
				<port id="0" precision="FP16">
					<dim>1</dim>
					<dim>176</dim>
					<dim>1</dim>
					<dim>1</dim>
				</port>
			</output>
		</layer>
		<layer id="275" name="Reshape_2354" type="Convert" version="opset1">
			<data destination_type="f32" />
			<rt_info>
				<attribute name="decompression" version="0" />
			</rt_info>
			<input>
				<port id="0" precision="FP16">
					<dim>1</dim>
					<dim>176</dim>
					<dim>1</dim>
					<dim>1</dim>
				</port>
			</input>
			<output>
				<port id="1" precision="FP32">
					<dim>1</dim>
					<dim>176</dim>
					<dim>1</dim>
					<dim>1</dim>
				</port>
			</output>
		</layer>
		<layer id="276" name="/backbone/stage3/stage3.2/branch2/branch2.3/Conv" type="Add" version="opset1">
			<data auto_broadcast="numpy" />
			<input>
				<port id="0" precision="FP32">
					<dim>1</dim>
					<dim>176</dim>
					<dim>26</dim>
					<dim>26</dim>
				</port>
				<port id="1" precision="FP32">
					<dim>1</dim>
					<dim>176</dim>
					<dim>1</dim>
					<dim>1</dim>
				</port>
			</input>
			<output>
				<port id="2" precision="FP32" names="/backbone/stage3/stage3.2/branch2/branch2.3/Conv_output_0">
					<dim>1</dim>
					<dim>176</dim>
					<dim>26</dim>
					<dim>26</dim>
				</port>
			</output>
		</layer>
		<layer id="277" name="onnx::Conv_1607_compressed" type="Const" version="opset1">
			<data element_type="f16" shape="176, 176, 1, 1" offset="515488" size="61952" />
			<output>
				<port id="0" precision="FP16">
					<dim>176</dim>
					<dim>176</dim>
					<dim>1</dim>
					<dim>1</dim>
				</port>
			</output>
		</layer>
		<layer id="278" name="onnx::Conv_1607" type="Convert" version="opset1">
			<data destination_type="f32" />
			<rt_info>
				<attribute name="decompression" version="0" />
			</rt_info>
			<input>
				<port id="0" precision="FP16">
					<dim>176</dim>
					<dim>176</dim>
					<dim>1</dim>
					<dim>1</dim>
				</port>
			</input>
			<output>
				<port id="1" precision="FP32" names="onnx::Conv_1607">
					<dim>176</dim>
					<dim>176</dim>
					<dim>1</dim>
					<dim>1</dim>
				</port>
			</output>
		</layer>
		<layer id="279" name="/backbone/stage3/stage3.2/branch2/branch2.5/Conv/WithoutBiases" type="Convolution" version="opset1">
			<data strides="1, 1" dilations="1, 1" pads_begin="0, 0" pads_end="0, 0" auto_pad="explicit" />
			<input>
				<port id="0" precision="FP32">
					<dim>1</dim>
					<dim>176</dim>
					<dim>26</dim>
					<dim>26</dim>
				</port>
				<port id="1" precision="FP32">
					<dim>176</dim>
					<dim>176</dim>
					<dim>1</dim>
					<dim>1</dim>
				</port>
			</input>
			<output>
				<port id="2" precision="FP32">
					<dim>1</dim>
					<dim>176</dim>
					<dim>26</dim>
					<dim>26</dim>
				</port>
			</output>
		</layer>
		<layer id="280" name="Reshape_2402_compressed" type="Const" version="opset1">
			<data element_type="f16" shape="1, 176, 1, 1" offset="577440" size="352" />
			<output>
				<port id="0" precision="FP16">
					<dim>1</dim>
					<dim>176</dim>
					<dim>1</dim>
					<dim>1</dim>
				</port>
			</output>
		</layer>
		<layer id="281" name="Reshape_2402" type="Convert" version="opset1">
			<data destination_type="f32" />
			<rt_info>
				<attribute name="decompression" version="0" />
			</rt_info>
			<input>
				<port id="0" precision="FP16">
					<dim>1</dim>
					<dim>176</dim>
					<dim>1</dim>
					<dim>1</dim>
				</port>
			</input>
			<output>
				<port id="1" precision="FP32">
					<dim>1</dim>
					<dim>176</dim>
					<dim>1</dim>
					<dim>1</dim>
				</port>
			</output>
		</layer>
		<layer id="282" name="/backbone/stage3/stage3.2/branch2/branch2.5/Conv" type="Add" version="opset1">
			<data auto_broadcast="numpy" />
			<input>
				<port id="0" precision="FP32">
					<dim>1</dim>
					<dim>176</dim>
					<dim>26</dim>
					<dim>26</dim>
				</port>
				<port id="1" precision="FP32">
					<dim>1</dim>
					<dim>176</dim>
					<dim>1</dim>
					<dim>1</dim>
				</port>
			</input>
			<output>
				<port id="2" precision="FP32" names="/backbone/stage3/stage3.2/branch2/branch2.5/Conv_output_0">
					<dim>1</dim>
					<dim>176</dim>
					<dim>26</dim>
					<dim>26</dim>
				</port>
			</output>
		</layer>
		<layer id="283" name="Constant_2430_compressed" type="Const" version="opset1">
			<data element_type="f16" shape="1" offset="1350" size="2" />
			<output>
				<port id="0" precision="FP16">
					<dim>1</dim>
				</port>
			</output>
		</layer>
		<layer id="284" name="Constant_2430" type="Convert" version="opset1">
			<data destination_type="f32" />
			<rt_info>
				<attribute name="decompression" version="0" />
			</rt_info>
			<input>
				<port id="0" precision="FP16">
					<dim>1</dim>
				</port>
			</input>
			<output>
				<port id="1" precision="FP32">
					<dim>1</dim>
				</port>
			</output>
		</layer>
		<layer id="285" name="/backbone/stage3/stage3.2/branch2/branch2.7/LeakyRelu" type="PReLU" version="opset1">
			<input>
				<port id="0" precision="FP32">
					<dim>1</dim>
					<dim>176</dim>
					<dim>26</dim>
					<dim>26</dim>
				</port>
				<port id="1" precision="FP32">
					<dim>1</dim>
				</port>
			</input>
			<output>
				<port id="2" precision="FP32" names="/backbone/stage3/stage3.2/branch2/branch2.7/LeakyRelu_output_0">
					<dim>1</dim>
					<dim>176</dim>
					<dim>26</dim>
					<dim>26</dim>
				</port>
			</output>
		</layer>
		<layer id="286" name="/backbone/stage3/stage3.2/Concat" type="Concat" version="opset1">
			<data axis="1" />
			<input>
				<port id="0" precision="FP32">
					<dim>1</dim>
					<dim>176</dim>
					<dim>26</dim>
					<dim>26</dim>
				</port>
				<port id="1" precision="FP32">
					<dim>1</dim>
					<dim>176</dim>
					<dim>26</dim>
					<dim>26</dim>
				</port>
			</input>
			<output>
				<port id="2" precision="FP32" names="/backbone/stage3/stage3.2/Concat_output_0">
					<dim>1</dim>
					<dim>352</dim>
					<dim>26</dim>
					<dim>26</dim>
				</port>
			</output>
		</layer>
		<layer id="287" name="/backbone/stage3/stage3.2/Reshape" type="Reshape" version="opset1">
			<data special_zero="true" />
			<input>
				<port id="0" precision="FP32">
					<dim>1</dim>
					<dim>352</dim>
					<dim>26</dim>
					<dim>26</dim>
				</port>
				<port id="1" precision="I64">
					<dim>5</dim>
				</port>
			</input>
			<output>
				<port id="2" precision="FP32" names="/backbone/stage3/stage3.2/Reshape_output_0">
					<dim>1</dim>
					<dim>2</dim>
					<dim>176</dim>
					<dim>26</dim>
					<dim>26</dim>
				</port>
			</output>
		</layer>
		<layer id="288" name="Constant_2436" type="Const" version="opset1">
			<data element_type="i64" shape="5" offset="28096" size="40" />
			<output>
				<port id="0" precision="I64">
					<dim>5</dim>
				</port>
			</output>
		</layer>
		<layer id="289" name="/backbone/stage3/stage3.2/Transpose" type="Transpose" version="opset1">
			<input>
				<port id="0" precision="FP32">
					<dim>1</dim>
					<dim>2</dim>
					<dim>176</dim>
					<dim>26</dim>
					<dim>26</dim>
				</port>
				<port id="1" precision="I64">
					<dim>5</dim>
				</port>
			</input>
			<output>
				<port id="2" precision="FP32" names="/backbone/stage3/stage3.2/Transpose_output_0">
					<dim>1</dim>
					<dim>176</dim>
					<dim>2</dim>
					<dim>26</dim>
					<dim>26</dim>
				</port>
			</output>
		</layer>
		<layer id="290" name="/backbone/stage3/stage3.2/Reshape_1" type="Reshape" version="opset1">
			<data special_zero="true" />
			<input>
				<port id="0" precision="FP32">
					<dim>1</dim>
					<dim>176</dim>
					<dim>2</dim>
					<dim>26</dim>
					<dim>26</dim>
				</port>
				<port id="1" precision="I64">
					<dim>4</dim>
				</port>
			</input>
			<output>
				<port id="2" precision="FP32" names="/backbone/stage3/stage3.2/Reshape_1_output_0">
					<dim>1</dim>
					<dim>352</dim>
					<dim>26</dim>
					<dim>26</dim>
				</port>
			</output>
		</layer>
		<layer id="291" name="Constant_26804" type="Const" version="opset1">
			<data element_type="i64" shape="2" offset="28168" size="16" />
			<output>
				<port id="0" precision="I64">
					<dim>2</dim>
				</port>
			</output>
		</layer>
		<layer id="292" name="Constant_26807" type="Const" version="opset1">
			<data element_type="i64" shape="2" offset="28216" size="16" />
			<output>
				<port id="0" precision="I64">
					<dim>2</dim>
				</port>
			</output>
		</layer>
		<layer id="293" name="Constant_26810" type="Const" version="opset1">
			<data element_type="i64" shape="2" offset="28200" size="16" />
			<output>
				<port id="0" precision="I64">
					<dim>2</dim>
				</port>
			</output>
		</layer>
		<layer id="294" name="/backbone/stage3/stage3.3/Slice" type="StridedSlice" version="opset1">
			<data begin_mask="1, 0" end_mask="1, 0" new_axis_mask="" shrink_axis_mask="" ellipsis_mask="" />
			<input>
				<port id="0" precision="FP32">
					<dim>1</dim>
					<dim>352</dim>
					<dim>26</dim>
					<dim>26</dim>
				</port>
				<port id="1" precision="I64">
					<dim>2</dim>
				</port>
				<port id="2" precision="I64">
					<dim>2</dim>
				</port>
				<port id="3" precision="I64">
					<dim>2</dim>
				</port>
			</input>
			<output>
				<port id="4" precision="FP32" names="/backbone/stage3/stage3.3/Slice_output_0">
					<dim>1</dim>
					<dim>176</dim>
					<dim>26</dim>
					<dim>26</dim>
				</port>
			</output>
		</layer>
		<layer id="295" name="Constant_26816" type="Const" version="opset1">
			<data element_type="i64" shape="2" offset="28216" size="16" />
			<output>
				<port id="0" precision="I64">
					<dim>2</dim>
				</port>
			</output>
		</layer>
		<layer id="296" name="Constant_26819" type="Const" version="opset1">
			<data element_type="i64" shape="2" offset="321520" size="16" />
			<output>
				<port id="0" precision="I64">
					<dim>2</dim>
				</port>
			</output>
		</layer>
		<layer id="297" name="Constant_26822" type="Const" version="opset1">
			<data element_type="i64" shape="2" offset="28200" size="16" />
			<output>
				<port id="0" precision="I64">
					<dim>2</dim>
				</port>
			</output>
		</layer>
		<layer id="298" name="/backbone/stage3/stage3.3/Slice_1" type="StridedSlice" version="opset1">
			<data begin_mask="1, 0" end_mask="1, 0" new_axis_mask="" shrink_axis_mask="" ellipsis_mask="" />
			<input>
				<port id="0" precision="FP32">
					<dim>1</dim>
					<dim>352</dim>
					<dim>26</dim>
					<dim>26</dim>
				</port>
				<port id="1" precision="I64">
					<dim>2</dim>
				</port>
				<port id="2" precision="I64">
					<dim>2</dim>
				</port>
				<port id="3" precision="I64">
					<dim>2</dim>
				</port>
			</input>
			<output>
				<port id="4" precision="FP32" names="/backbone/stage3/stage3.3/Slice_1_output_0">
					<dim>1</dim>
					<dim>176</dim>
					<dim>26</dim>
					<dim>26</dim>
				</port>
			</output>
		</layer>
		<layer id="299" name="onnx::Conv_1610_compressed" type="Const" version="opset1">
			<data element_type="f16" shape="176, 176, 1, 1" offset="577792" size="61952" />
			<output>
				<port id="0" precision="FP16">
					<dim>176</dim>
					<dim>176</dim>
					<dim>1</dim>
					<dim>1</dim>
				</port>
			</output>
		</layer>
		<layer id="300" name="onnx::Conv_1610" type="Convert" version="opset1">
			<data destination_type="f32" />
			<rt_info>
				<attribute name="decompression" version="0" />
			</rt_info>
			<input>
				<port id="0" precision="FP16">
					<dim>176</dim>
					<dim>176</dim>
					<dim>1</dim>
					<dim>1</dim>
				</port>
			</input>
			<output>
				<port id="1" precision="FP32" names="onnx::Conv_1610">
					<dim>176</dim>
					<dim>176</dim>
					<dim>1</dim>
					<dim>1</dim>
				</port>
			</output>
		</layer>
		<layer id="301" name="/backbone/stage3/stage3.3/branch2/branch2.0/Conv/WithoutBiases" type="Convolution" version="opset1">
			<data strides="1, 1" dilations="1, 1" pads_begin="0, 0" pads_end="0, 0" auto_pad="explicit" />
			<input>
				<port id="0" precision="FP32">
					<dim>1</dim>
					<dim>176</dim>
					<dim>26</dim>
					<dim>26</dim>
				</port>
				<port id="1" precision="FP32">
					<dim>176</dim>
					<dim>176</dim>
					<dim>1</dim>
					<dim>1</dim>
				</port>
			</input>
			<output>
				<port id="2" precision="FP32">
					<dim>1</dim>
					<dim>176</dim>
					<dim>26</dim>
					<dim>26</dim>
				</port>
			</output>
		</layer>
		<layer id="302" name="Reshape_2499_compressed" type="Const" version="opset1">
			<data element_type="f16" shape="1, 176, 1, 1" offset="639744" size="352" />
			<output>
				<port id="0" precision="FP16">
					<dim>1</dim>
					<dim>176</dim>
					<dim>1</dim>
					<dim>1</dim>
				</port>
			</output>
		</layer>
		<layer id="303" name="Reshape_2499" type="Convert" version="opset1">
			<data destination_type="f32" />
			<rt_info>
				<attribute name="decompression" version="0" />
			</rt_info>
			<input>
				<port id="0" precision="FP16">
					<dim>1</dim>
					<dim>176</dim>
					<dim>1</dim>
					<dim>1</dim>
				</port>
			</input>
			<output>
				<port id="1" precision="FP32">
					<dim>1</dim>
					<dim>176</dim>
					<dim>1</dim>
					<dim>1</dim>
				</port>
			</output>
		</layer>
		<layer id="304" name="/backbone/stage3/stage3.3/branch2/branch2.0/Conv" type="Add" version="opset1">
			<data auto_broadcast="numpy" />
			<input>
				<port id="0" precision="FP32">
					<dim>1</dim>
					<dim>176</dim>
					<dim>26</dim>
					<dim>26</dim>
				</port>
				<port id="1" precision="FP32">
					<dim>1</dim>
					<dim>176</dim>
					<dim>1</dim>
					<dim>1</dim>
				</port>
			</input>
			<output>
				<port id="2" precision="FP32" names="/backbone/stage3/stage3.3/branch2/branch2.0/Conv_output_0">
					<dim>1</dim>
					<dim>176</dim>
					<dim>26</dim>
					<dim>26</dim>
				</port>
			</output>
		</layer>
		<layer id="305" name="Constant_2527_compressed" type="Const" version="opset1">
			<data element_type="f16" shape="1" offset="1350" size="2" />
			<output>
				<port id="0" precision="FP16">
					<dim>1</dim>
				</port>
			</output>
		</layer>
		<layer id="306" name="Constant_2527" type="Convert" version="opset1">
			<data destination_type="f32" />
			<rt_info>
				<attribute name="decompression" version="0" />
			</rt_info>
			<input>
				<port id="0" precision="FP16">
					<dim>1</dim>
				</port>
			</input>
			<output>
				<port id="1" precision="FP32">
					<dim>1</dim>
				</port>
			</output>
		</layer>
		<layer id="307" name="/backbone/stage3/stage3.3/branch2/branch2.2/LeakyRelu" type="PReLU" version="opset1">
			<input>
				<port id="0" precision="FP32">
					<dim>1</dim>
					<dim>176</dim>
					<dim>26</dim>
					<dim>26</dim>
				</port>
				<port id="1" precision="FP32">
					<dim>1</dim>
				</port>
			</input>
			<output>
				<port id="2" precision="FP32" names="/backbone/stage3/stage3.3/branch2/branch2.2/LeakyRelu_output_0">
					<dim>1</dim>
					<dim>176</dim>
					<dim>26</dim>
					<dim>26</dim>
				</port>
			</output>
		</layer>
		<layer id="308" name="Reshape_2536_compressed" type="Const" version="opset1">
			<data element_type="f16" shape="176, 1, 1, 3, 3" offset="640096" size="3168" />
			<output>
				<port id="0" precision="FP16">
					<dim>176</dim>
					<dim>1</dim>
					<dim>1</dim>
					<dim>3</dim>
					<dim>3</dim>
				</port>
			</output>
		</layer>
		<layer id="309" name="Reshape_2536" type="Convert" version="opset1">
			<data destination_type="f32" />
			<rt_info>
				<attribute name="decompression" version="0" />
			</rt_info>
			<input>
				<port id="0" precision="FP16">
					<dim>176</dim>
					<dim>1</dim>
					<dim>1</dim>
					<dim>3</dim>
					<dim>3</dim>
				</port>
			</input>
			<output>
				<port id="1" precision="FP32">
					<dim>176</dim>
					<dim>1</dim>
					<dim>1</dim>
					<dim>3</dim>
					<dim>3</dim>
				</port>
			</output>
		</layer>
		<layer id="310" name="/backbone/stage3/stage3.3/branch2/branch2.3/Conv/WithoutBiases" type="GroupConvolution" version="opset1">
			<data strides="1, 1" pads_begin="1, 1" pads_end="1, 1" dilations="1, 1" auto_pad="explicit" />
			<input>
				<port id="0" precision="FP32">
					<dim>1</dim>
					<dim>176</dim>
					<dim>26</dim>
					<dim>26</dim>
				</port>
				<port id="1" precision="FP32">
					<dim>176</dim>
					<dim>1</dim>
					<dim>1</dim>
					<dim>3</dim>
					<dim>3</dim>
				</port>
			</input>
			<output>
				<port id="2" precision="FP32">
					<dim>1</dim>
					<dim>176</dim>
					<dim>26</dim>
					<dim>26</dim>
				</port>
			</output>
		</layer>
		<layer id="311" name="Reshape_2622_compressed" type="Const" version="opset1">
			<data element_type="f16" shape="1, 176, 1, 1" offset="643264" size="352" />
			<output>
				<port id="0" precision="FP16">
					<dim>1</dim>
					<dim>176</dim>
					<dim>1</dim>
					<dim>1</dim>
				</port>
			</output>
		</layer>
		<layer id="312" name="Reshape_2622" type="Convert" version="opset1">
			<data destination_type="f32" />
			<rt_info>
				<attribute name="decompression" version="0" />
			</rt_info>
			<input>
				<port id="0" precision="FP16">
					<dim>1</dim>
					<dim>176</dim>
					<dim>1</dim>
					<dim>1</dim>
				</port>
			</input>
			<output>
				<port id="1" precision="FP32">
					<dim>1</dim>
					<dim>176</dim>
					<dim>1</dim>
					<dim>1</dim>
				</port>
			</output>
		</layer>
		<layer id="313" name="/backbone/stage3/stage3.3/branch2/branch2.3/Conv" type="Add" version="opset1">
			<data auto_broadcast="numpy" />
			<input>
				<port id="0" precision="FP32">
					<dim>1</dim>
					<dim>176</dim>
					<dim>26</dim>
					<dim>26</dim>
				</port>
				<port id="1" precision="FP32">
					<dim>1</dim>
					<dim>176</dim>
					<dim>1</dim>
					<dim>1</dim>
				</port>
			</input>
			<output>
				<port id="2" precision="FP32" names="/backbone/stage3/stage3.3/branch2/branch2.3/Conv_output_0">
					<dim>1</dim>
					<dim>176</dim>
					<dim>26</dim>
					<dim>26</dim>
				</port>
			</output>
		</layer>
		<layer id="314" name="onnx::Conv_1616_compressed" type="Const" version="opset1">
			<data element_type="f16" shape="176, 176, 1, 1" offset="643616" size="61952" />
			<output>
				<port id="0" precision="FP16">
					<dim>176</dim>
					<dim>176</dim>
					<dim>1</dim>
					<dim>1</dim>
				</port>
			</output>
		</layer>
		<layer id="315" name="onnx::Conv_1616" type="Convert" version="opset1">
			<data destination_type="f32" />
			<rt_info>
				<attribute name="decompression" version="0" />
			</rt_info>
			<input>
				<port id="0" precision="FP16">
					<dim>176</dim>
					<dim>176</dim>
					<dim>1</dim>
					<dim>1</dim>
				</port>
			</input>
			<output>
				<port id="1" precision="FP32" names="onnx::Conv_1616">
					<dim>176</dim>
					<dim>176</dim>
					<dim>1</dim>
					<dim>1</dim>
				</port>
			</output>
		</layer>
		<layer id="316" name="/backbone/stage3/stage3.3/branch2/branch2.5/Conv/WithoutBiases" type="Convolution" version="opset1">
			<data strides="1, 1" dilations="1, 1" pads_begin="0, 0" pads_end="0, 0" auto_pad="explicit" />
			<input>
				<port id="0" precision="FP32">
					<dim>1</dim>
					<dim>176</dim>
					<dim>26</dim>
					<dim>26</dim>
				</port>
				<port id="1" precision="FP32">
					<dim>176</dim>
					<dim>176</dim>
					<dim>1</dim>
					<dim>1</dim>
				</port>
			</input>
			<output>
				<port id="2" precision="FP32">
					<dim>1</dim>
					<dim>176</dim>
					<dim>26</dim>
					<dim>26</dim>
				</port>
			</output>
		</layer>
		<layer id="317" name="Reshape_2670_compressed" type="Const" version="opset1">
			<data element_type="f16" shape="1, 176, 1, 1" offset="705568" size="352" />
			<output>
				<port id="0" precision="FP16">
					<dim>1</dim>
					<dim>176</dim>
					<dim>1</dim>
					<dim>1</dim>
				</port>
			</output>
		</layer>
		<layer id="318" name="Reshape_2670" type="Convert" version="opset1">
			<data destination_type="f32" />
			<rt_info>
				<attribute name="decompression" version="0" />
			</rt_info>
			<input>
				<port id="0" precision="FP16">
					<dim>1</dim>
					<dim>176</dim>
					<dim>1</dim>
					<dim>1</dim>
				</port>
			</input>
			<output>
				<port id="1" precision="FP32">
					<dim>1</dim>
					<dim>176</dim>
					<dim>1</dim>
					<dim>1</dim>
				</port>
			</output>
		</layer>
		<layer id="319" name="/backbone/stage3/stage3.3/branch2/branch2.5/Conv" type="Add" version="opset1">
			<data auto_broadcast="numpy" />
			<input>
				<port id="0" precision="FP32">
					<dim>1</dim>
					<dim>176</dim>
					<dim>26</dim>
					<dim>26</dim>
				</port>
				<port id="1" precision="FP32">
					<dim>1</dim>
					<dim>176</dim>
					<dim>1</dim>
					<dim>1</dim>
				</port>
			</input>
			<output>
				<port id="2" precision="FP32" names="/backbone/stage3/stage3.3/branch2/branch2.5/Conv_output_0">
					<dim>1</dim>
					<dim>176</dim>
					<dim>26</dim>
					<dim>26</dim>
				</port>
			</output>
		</layer>
		<layer id="320" name="Constant_2698_compressed" type="Const" version="opset1">
			<data element_type="f16" shape="1" offset="1350" size="2" />
			<output>
				<port id="0" precision="FP16">
					<dim>1</dim>
				</port>
			</output>
		</layer>
		<layer id="321" name="Constant_2698" type="Convert" version="opset1">
			<data destination_type="f32" />
			<rt_info>
				<attribute name="decompression" version="0" />
			</rt_info>
			<input>
				<port id="0" precision="FP16">
					<dim>1</dim>
				</port>
			</input>
			<output>
				<port id="1" precision="FP32">
					<dim>1</dim>
				</port>
			</output>
		</layer>
		<layer id="322" name="/backbone/stage3/stage3.3/branch2/branch2.7/LeakyRelu" type="PReLU" version="opset1">
			<input>
				<port id="0" precision="FP32">
					<dim>1</dim>
					<dim>176</dim>
					<dim>26</dim>
					<dim>26</dim>
				</port>
				<port id="1" precision="FP32">
					<dim>1</dim>
				</port>
			</input>
			<output>
				<port id="2" precision="FP32" names="/backbone/stage3/stage3.3/branch2/branch2.7/LeakyRelu_output_0">
					<dim>1</dim>
					<dim>176</dim>
					<dim>26</dim>
					<dim>26</dim>
				</port>
			</output>
		</layer>
		<layer id="323" name="/backbone/stage3/stage3.3/Concat" type="Concat" version="opset1">
			<data axis="1" />
			<input>
				<port id="0" precision="FP32">
					<dim>1</dim>
					<dim>176</dim>
					<dim>26</dim>
					<dim>26</dim>
				</port>
				<port id="1" precision="FP32">
					<dim>1</dim>
					<dim>176</dim>
					<dim>26</dim>
					<dim>26</dim>
				</port>
			</input>
			<output>
				<port id="2" precision="FP32" names="/backbone/stage3/stage3.3/Concat_output_0">
					<dim>1</dim>
					<dim>352</dim>
					<dim>26</dim>
					<dim>26</dim>
				</port>
			</output>
		</layer>
		<layer id="324" name="/backbone/stage3/stage3.3/Reshape" type="Reshape" version="opset1">
			<data special_zero="true" />
			<input>
				<port id="0" precision="FP32">
					<dim>1</dim>
					<dim>352</dim>
					<dim>26</dim>
					<dim>26</dim>
				</port>
				<port id="1" precision="I64">
					<dim>5</dim>
				</port>
			</input>
			<output>
				<port id="2" precision="FP32" names="/backbone/stage3/stage3.3/Reshape_output_0">
					<dim>1</dim>
					<dim>2</dim>
					<dim>176</dim>
					<dim>26</dim>
					<dim>26</dim>
				</port>
			</output>
		</layer>
		<layer id="325" name="Constant_2704" type="Const" version="opset1">
			<data element_type="i64" shape="5" offset="28096" size="40" />
			<output>
				<port id="0" precision="I64">
					<dim>5</dim>
				</port>
			</output>
		</layer>
		<layer id="326" name="/backbone/stage3/stage3.3/Transpose" type="Transpose" version="opset1">
			<input>
				<port id="0" precision="FP32">
					<dim>1</dim>
					<dim>2</dim>
					<dim>176</dim>
					<dim>26</dim>
					<dim>26</dim>
				</port>
				<port id="1" precision="I64">
					<dim>5</dim>
				</port>
			</input>
			<output>
				<port id="2" precision="FP32" names="/backbone/stage3/stage3.3/Transpose_output_0">
					<dim>1</dim>
					<dim>176</dim>
					<dim>2</dim>
					<dim>26</dim>
					<dim>26</dim>
				</port>
			</output>
		</layer>
		<layer id="327" name="/backbone/stage3/stage3.3/Reshape_1" type="Reshape" version="opset1">
			<data special_zero="true" />
			<input>
				<port id="0" precision="FP32">
					<dim>1</dim>
					<dim>176</dim>
					<dim>2</dim>
					<dim>26</dim>
					<dim>26</dim>
				</port>
				<port id="1" precision="I64">
					<dim>4</dim>
				</port>
			</input>
			<output>
				<port id="2" precision="FP32" names="/backbone/stage3/stage3.3/Reshape_1_output_0">
					<dim>1</dim>
					<dim>352</dim>
					<dim>26</dim>
					<dim>26</dim>
				</port>
			</output>
		</layer>
		<layer id="328" name="Constant_26828" type="Const" version="opset1">
			<data element_type="i64" shape="2" offset="28168" size="16" />
			<output>
				<port id="0" precision="I64">
					<dim>2</dim>
				</port>
			</output>
		</layer>
		<layer id="329" name="Constant_26831" type="Const" version="opset1">
			<data element_type="i64" shape="2" offset="28216" size="16" />
			<output>
				<port id="0" precision="I64">
					<dim>2</dim>
				</port>
			</output>
		</layer>
		<layer id="330" name="Constant_26834" type="Const" version="opset1">
			<data element_type="i64" shape="2" offset="28200" size="16" />
			<output>
				<port id="0" precision="I64">
					<dim>2</dim>
				</port>
			</output>
		</layer>
		<layer id="331" name="/backbone/stage3/stage3.4/Slice" type="StridedSlice" version="opset1">
			<data begin_mask="1, 0" end_mask="1, 0" new_axis_mask="" shrink_axis_mask="" ellipsis_mask="" />
			<input>
				<port id="0" precision="FP32">
					<dim>1</dim>
					<dim>352</dim>
					<dim>26</dim>
					<dim>26</dim>
				</port>
				<port id="1" precision="I64">
					<dim>2</dim>
				</port>
				<port id="2" precision="I64">
					<dim>2</dim>
				</port>
				<port id="3" precision="I64">
					<dim>2</dim>
				</port>
			</input>
			<output>
				<port id="4" precision="FP32" names="/backbone/stage3/stage3.4/Slice_output_0">
					<dim>1</dim>
					<dim>176</dim>
					<dim>26</dim>
					<dim>26</dim>
				</port>
			</output>
		</layer>
		<layer id="332" name="Constant_26840" type="Const" version="opset1">
			<data element_type="i64" shape="2" offset="28216" size="16" />
			<output>
				<port id="0" precision="I64">
					<dim>2</dim>
				</port>
			</output>
		</layer>
…
		<edge from-layer="452" from-port="2" to-layer="455" to-port="0" />
		<edge from-layer="453" from-port="0" to-layer="454" to-port="0" />
		<edge from-layer="454" from-port="1" to-layer="455" to-port="1" />
		<edge from-layer="455" from-port="2" to-layer="458" to-port="0" />
		<edge from-layer="456" from-port="0" to-layer="457" to-port="0" />
		<edge from-layer="457" from-port="1" to-layer="458" to-port="1" />
		<edge from-layer="458" from-port="2" to-layer="461" to-port="0" />
		<edge from-layer="459" from-port="0" to-layer="460" to-port="0" />
		<edge from-layer="460" from-port="1" to-layer="461" to-port="1" />
		<edge from-layer="461" from-port="2" to-layer="464" to-port="0" />
		<edge from-layer="462" from-port="0" to-layer="463" to-port="0" />
		<edge from-layer="463" from-port="1" to-layer="464" to-port="1" />
		<edge from-layer="464" from-port="2" to-layer="467" to-port="0" />
		<edge from-layer="465" from-port="0" to-layer="466" to-port="0" />
		<edge from-layer="466" from-port="1" to-layer="467" to-port="1" />
		<edge from-layer="467" from-port="2" to-layer="470" to-port="0" />
		<edge from-layer="468" from-port="0" to-layer="469" to-port="0" />
		<edge from-layer="469" from-port="1" to-layer="470" to-port="1" />
		<edge from-layer="470" from-port="2" to-layer="471" to-port="1" />
		<edge from-layer="471" from-port="2" to-layer="472" to-port="0" />
		<edge from-layer="472" from-port="2" to-layer="474" to-port="0" />
		<edge from-layer="473" from-port="0" to-layer="474" to-port="1" />
		<edge from-layer="474" from-port="2" to-layer="475" to-port="0" />
		<edge from-layer="475" from-port="2" to-layer="478" to-port="0" />
		<edge from-layer="475" from-port="2" to-layer="650" to-port="0" />
		<edge from-layer="475" from-port="2" to-layer="493" to-port="0" />
		<edge from-layer="476" from-port="0" to-layer="477" to-port="0" />
		<edge from-layer="477" from-port="1" to-layer="478" to-port="1" />
		<edge from-layer="478" from-port="2" to-layer="481" to-port="0" />
		<edge from-layer="479" from-port="0" to-layer="480" to-port="0" />
		<edge from-layer="480" from-port="1" to-layer="481" to-port="1" />
		<edge from-layer="481" from-port="2" to-layer="484" to-port="0" />
		<edge from-layer="482" from-port="0" to-layer="483" to-port="0" />
		<edge from-layer="483" from-port="1" to-layer="484" to-port="1" />
		<edge from-layer="484" from-port="2" to-layer="487" to-port="0" />
		<edge from-layer="485" from-port="0" to-layer="486" to-port="0" />
		<edge from-layer="486" from-port="1" to-layer="487" to-port="1" />
		<edge from-layer="487" from-port="2" to-layer="490" to-port="0" />
		<edge from-layer="488" from-port="0" to-layer="489" to-port="0" />
		<edge from-layer="489" from-port="1" to-layer="490" to-port="1" />
		<edge from-layer="490" from-port="2" to-layer="515" to-port="0" />
		<edge from-layer="491" from-port="0" to-layer="492" to-port="0" />
		<edge from-layer="492" from-port="1" to-layer="493" to-port="1" />
		<edge from-layer="493" from-port="2" to-layer="496" to-port="0" />
		<edge from-layer="494" from-port="0" to-layer="495" to-port="0" />
		<edge from-layer="495" from-port="1" to-layer="496" to-port="1" />
		<edge from-layer="496" from-port="2" to-layer="499" to-port="0" />
		<edge from-layer="497" from-port="0" to-layer="498" to-port="0" />
		<edge from-layer="498" from-port="1" to-layer="499" to-port="1" />
		<edge from-layer="499" from-port="2" to-layer="502" to-port="0" />
		<edge from-layer="500" from-port="0" to-layer="501" to-port="0" />
		<edge from-layer="501" from-port="1" to-layer="502" to-port="1" />
		<edge from-layer="502" from-port="2" to-layer="505" to-port="0" />
		<edge from-layer="503" from-port="0" to-layer="504" to-port="0" />
		<edge from-layer="504" from-port="1" to-layer="505" to-port="1" />
		<edge from-layer="505" from-port="2" to-layer="508" to-port="0" />
		<edge from-layer="506" from-port="0" to-layer="507" to-port="0" />
		<edge from-layer="507" from-port="1" to-layer="508" to-port="1" />
		<edge from-layer="508" from-port="2" to-layer="511" to-port="0" />
		<edge from-layer="509" from-port="0" to-layer="510" to-port="0" />
		<edge from-layer="510" from-port="1" to-layer="511" to-port="1" />
		<edge from-layer="511" from-port="2" to-layer="514" to-port="0" />
		<edge from-layer="512" from-port="0" to-layer="513" to-port="0" />
		<edge from-layer="513" from-port="1" to-layer="514" to-port="1" />
		<edge from-layer="514" from-port="2" to-layer="515" to-port="1" />
		<edge from-layer="515" from-port="2" to-layer="517" to-port="0" />
		<edge from-layer="516" from-port="0" to-layer="517" to-port="1" />
		<edge from-layer="516" from-port="0" to-layer="592" to-port="1" />
		<edge from-layer="516" from-port="0" to-layer="629" to-port="1" />
		<edge from-layer="516" from-port="0" to-layer="555" to-port="1" />
		<edge from-layer="517" from-port="2" to-layer="519" to-port="0" />
		<edge from-layer="518" from-port="0" to-layer="519" to-port="1" />
		<edge from-layer="519" from-port="2" to-layer="521" to-port="0" />
		<edge from-layer="520" from-port="0" to-layer="521" to-port="1" />
		<edge from-layer="520" from-port="0" to-layer="595" to-port="1" />
		<edge from-layer="520" from-port="0" to-layer="632" to-port="1" />
		<edge from-layer="520" from-port="0" to-layer="558" to-port="1" />
		<edge from-layer="521" from-port="2" to-layer="529" to-port="0" />
		<edge from-layer="521" from-port="2" to-layer="525" to-port="0" />
		<edge from-layer="522" from-port="0" to-layer="525" to-port="1" />
		<edge from-layer="523" from-port="0" to-layer="525" to-port="2" />
		<edge from-layer="524" from-port="0" to-layer="525" to-port="3" />
		<edge from-layer="525" from-port="4" to-layer="554" to-port="0" />
		<edge from-layer="526" from-port="0" to-layer="529" to-port="1" />
		<edge from-layer="527" from-port="0" to-layer="529" to-port="2" />
		<edge from-layer="528" from-port="0" to-layer="529" to-port="3" />
		<edge from-layer="529" from-port="4" to-layer="532" to-port="0" />
		<edge from-layer="530" from-port="0" to-layer="531" to-port="0" />
		<edge from-layer="531" from-port="1" to-layer="532" to-port="1" />
		<edge from-layer="532" from-port="2" to-layer="535" to-port="0" />
		<edge from-layer="533" from-port="0" to-layer="534" to-port="0" />
		<edge from-layer="534" from-port="1" to-layer="535" to-port="1" />
		<edge from-layer="535" from-port="2" to-layer="538" to-port="0" />
		<edge from-layer="536" from-port="0" to-layer="537" to-port="0" />
		<edge from-layer="537" from-port="1" to-layer="538" to-port="1" />
		<edge from-layer="538" from-port="2" to-layer="541" to-port="0" />
		<edge from-layer="539" from-port="0" to-layer="540" to-port="0" />
		<edge from-layer="540" from-port="1" to-layer="541" to-port="1" />
		<edge from-layer="541" from-port="2" to-layer="544" to-port="0" />
		<edge from-layer="542" from-port="0" to-layer="543" to-port="0" />
		<edge from-layer="543" from-port="1" to-layer="544" to-port="1" />
		<edge from-layer="544" from-port="2" to-layer="547" to-port="0" />
		<edge from-layer="545" from-port="0" to-layer="546" to-port="0" />
		<edge from-layer="546" from-port="1" to-layer="547" to-port="1" />
		<edge from-layer="547" from-port="2" to-layer="550" to-port="0" />
		<edge from-layer="548" from-port="0" to-layer="549" to-port="0" />
		<edge from-layer="549" from-port="1" to-layer="550" to-port="1" />
		<edge from-layer="550" from-port="2" to-layer="553" to-port="0" />
		<edge from-layer="551" from-port="0" to-layer="552" to-port="0" />
		<edge from-layer="552" from-port="1" to-layer="553" to-port="1" />
		<edge from-layer="553" from-port="2" to-layer="554" to-port="1" />
		<edge from-layer="554" from-port="2" to-layer="555" to-port="0" />
		<edge from-layer="555" from-port="2" to-layer="557" to-port="0" />
		<edge from-layer="556" from-port="0" to-layer="557" to-port="1" />
		<edge from-layer="557" from-port="2" to-layer="558" to-port="0" />
		<edge from-layer="558" from-port="2" to-layer="562" to-port="0" />
		<edge from-layer="558" from-port="2" to-layer="566" to-port="0" />
		<edge from-layer="559" from-port="0" to-layer="562" to-port="1" />
		<edge from-layer="560" from-port="0" to-layer="562" to-port="2" />
		<edge from-layer="561" from-port="0" to-layer="562" to-port="3" />
		<edge from-layer="562" from-port="4" to-layer="591" to-port="0" />
		<edge from-layer="563" from-port="0" to-layer="566" to-port="1" />
		<edge from-layer="564" from-port="0" to-layer="566" to-port="2" />
		<edge from-layer="565" from-port="0" to-layer="566" to-port="3" />
		<edge from-layer="566" from-port="4" to-layer="569" to-port="0" />
		<edge from-layer="567" from-port="0" to-layer="568" to-port="0" />
		<edge from-layer="568" from-port="1" to-layer="569" to-port="1" />
		<edge from-layer="569" from-port="2" to-layer="572" to-port="0" />
		<edge from-layer="570" from-port="0" to-layer="571" to-port="0" />
		<edge from-layer="571" from-port="1" to-layer="572" to-port="1" />
		<edge from-layer="572" from-port="2" to-layer="575" to-port="0" />
		<edge from-layer="573" from-port="0" to-layer="574" to-port="0" />
		<edge from-layer="574" from-port="1" to-layer="575" to-port="1" />
		<edge from-layer="575" from-port="2" to-layer="578" to-port="0" />
		<edge from-layer="576" from-port="0" to-layer="577" to-port="0" />
		<edge from-layer="577" from-port="1" to-layer="578" to-port="1" />
		<edge from-layer="578" from-port="2" to-layer="581" to-port="0" />
		<edge from-layer="579" from-port="0" to-layer="580" to-port="0" />
		<edge from-layer="580" from-port="1" to-layer="581" to-port="1" />
		<edge from-layer="581" from-port="2" to-layer="584" to-port="0" />
		<edge from-layer="582" from-port="0" to-layer="583" to-port="0" />
		<edge from-layer="583" from-port="1" to-layer="584" to-port="1" />
		<edge from-layer="584" from-port="2" to-layer="587" to-port="0" />
		<edge from-layer="585" from-port="0" to-layer="586" to-port="0" />
		<edge from-layer="586" from-port="1" to-layer="587" to-port="1" />
		<edge from-layer="587" from-port="2" to-layer="590" to-port="0" />
		<edge from-layer="588" from-port="0" to-layer="589" to-port="0" />
		<edge from-layer="589" from-port="1" to-layer="590" to-port="1" />
		<edge from-layer="590" from-port="2" to-layer="591" to-port="1" />
		<edge from-layer="591" from-port="2" to-layer="592" to-port="0" />
		<edge from-layer="592" from-port="2" to-layer="594" to-port="0" />
		<edge from-layer="593" from-port="0" to-layer="594" to-port="1" />
		<edge from-layer="594" from-port="2" to-layer="595" to-port="0" />
		<edge from-layer="595" from-port="2" to-layer="599" to-port="0" />
		<edge from-layer="595" from-port="2" to-layer="603" to-port="0" />
		<edge from-layer="596" from-port="0" to-layer="599" to-port="1" />
		<edge from-layer="597" from-port="0" to-layer="599" to-port="2" />
		<edge from-layer="598" from-port="0" to-layer="599" to-port="3" />
		<edge from-layer="599" from-port="4" to-layer="628" to-port="0" />
		<edge from-layer="600" from-port="0" to-layer="603" to-port="1" />
		<edge from-layer="601" from-port="0" to-layer="603" to-port="2" />
		<edge from-layer="602" from-port="0" to-layer="603" to-port="3" />
		<edge from-layer="603" from-port="4" to-layer="606" to-port="0" />
		<edge from-layer="604" from-port="0" to-layer="605" to-port="0" />
		<edge from-layer="605" from-port="1" to-layer="606" to-port="1" />
		<edge from-layer="606" from-port="2" to-layer="609" to-port="0" />
		<edge from-layer="607" from-port="0" to-layer="608" to-port="0" />
		<edge from-layer="608" from-port="1" to-layer="609" to-port="1" />
		<edge from-layer="609" from-port="2" to-layer="612" to-port="0" />
		<edge from-layer="610" from-port="0" to-layer="611" to-port="0" />
		<edge from-layer="611" from-port="1" to-layer="612" to-port="1" />
		<edge from-layer="612" from-port="2" to-layer="615" to-port="0" />
		<edge from-layer="613" from-port="0" to-layer="614" to-port="0" />
		<edge from-layer="614" from-port="1" to-layer="615" to-port="1" />
		<edge from-layer="615" from-port="2" to-layer="618" to-port="0" />
		<edge from-layer="616" from-port="0" to-layer="617" to-port="0" />
		<edge from-layer="617" from-port="1" to-layer="618" to-port="1" />
		<edge from-layer="618" from-port="2" to-layer="621" to-port="0" />
		<edge from-layer="619" from-port="0" to-layer="620" to-port="0" />
		<edge from-layer="620" from-port="1" to-layer="621" to-port="1" />
		<edge from-layer="621" from-port="2" to-layer="624" to-port="0" />
		<edge from-layer="622" from-port="0" to-layer="623" to-port="0" />
		<edge from-layer="623" from-port="1" to-layer="624" to-port="1" />
		<edge from-layer="624" from-port="2" to-layer="627" to-port="0" />
		<edge from-layer="625" from-port="0" to-layer="626" to-port="0" />
		<edge from-layer="626" from-port="1" to-layer="627" to-port="1" />
		<edge from-layer="627" from-port="2" to-layer="628" to-port="1" />
		<edge from-layer="628" from-port="2" to-layer="629" to-port="0" />
		<edge from-layer="629" from-port="2" to-layer="631" to-port="0" />
		<edge from-layer="630" from-port="0" to-layer="631" to-port="1" />
		<edge from-layer="631" from-port="2" to-layer="632" to-port="0" />
		<edge from-layer="632" from-port="2" to-layer="635" to-port="0" />
		<edge from-layer="633" from-port="0" to-layer="634" to-port="0" />
		<edge from-layer="634" from-port="1" to-layer="635" to-port="1" />
		<edge from-layer="635" from-port="2" to-layer="638" to-port="0" />
		<edge from-layer="636" from-port="0" to-layer="637" to-port="0" />
		<edge from-layer="637" from-port="1" to-layer="638" to-port="1" />
		<edge from-layer="638" from-port="2" to-layer="641" to-port="0" />
		<edge from-layer="639" from-port="0" to-layer="640" to-port="0" />
		<edge from-layer="640" from-port="1" to-layer="641" to-port="1" />
		<edge from-layer="641" from-port="2" to-layer="647" to-port="0" />
		<edge from-layer="641" from-port="2" to-layer="642" to-port="0" />
		<edge from-layer="641" from-port="2" to-layer="1038" to-port="0" />
		<edge from-layer="641" from-port="2" to-layer="942" to-port="1" />
		<edge from-layer="642" from-port="1" to-layer="643" to-port="0" />
		<edge from-layer="643" from-port="1" to-layer="645" to-port="0" />
		<edge from-layer="644" from-port="0" to-layer="645" to-port="1" />
		<edge from-layer="644" from-port="0" to-layer="647" to-port="2" />
		<edge from-layer="644" from-port="0" to-layer="705" to-port="1" />
		<edge from-layer="644" from-port="0" to-layer="707" to-port="2" />
		<edge from-layer="645" from-port="2" to-layer="646" to-port="0" />
		<edge from-layer="646" from-port="1" to-layer="647" to-port="1" />
		<edge from-layer="647" from-port="3" to-layer="657" to-port="0" />
		<edge from-layer="648" from-port="0" to-layer="649" to-port="0" />
		<edge from-layer="649" from-port="1" to-layer="650" to-port="1" />
		<edge from-layer="650" from-port="2" to-layer="653" to-port="0" />
		<edge from-layer="651" from-port="0" to-layer="652" to-port="0" />
		<edge from-layer="652" from-port="1" to-layer="653" to-port="1" />
		<edge from-layer="653" from-port="2" to-layer="656" to-port="0" />
		<edge from-layer="654" from-port="0" to-layer="655" to-port="0" />
		<edge from-layer="655" from-port="1" to-layer="656" to-port="1" />
		<edge from-layer="656" from-port="2" to-layer="657" to-port="1" />
		<edge from-layer="657" from-port="2" to-layer="692" to-port="0" />
		<edge from-layer="657" from-port="2" to-layer="660" to-port="0" />
		<edge from-layer="658" from-port="0" to-layer="659" to-port="0" />
		<edge from-layer="659" from-port="1" to-layer="660" to-port="1" />
		<edge from-layer="660" from-port="2" to-layer="663" to-port="0" />
		<edge from-layer="661" from-port="0" to-layer="662" to-port="0" />
		<edge from-layer="662" from-port="1" to-layer="663" to-port="1" />
		<edge from-layer="663" from-port="2" to-layer="666" to-port="0" />
		<edge from-layer="664" from-port="0" to-layer="665" to-port="0" />
		<edge from-layer="665" from-port="1" to-layer="666" to-port="1" />
		<edge from-layer="666" from-port="2" to-layer="676" to-port="0" />
		<edge from-layer="666" from-port="2" to-layer="669" to-port="0" />
		<edge from-layer="667" from-port="0" to-layer="668" to-port="0" />
		<edge from-layer="668" from-port="1" to-layer="669" to-port="1" />
		<edge from-layer="669" from-port="2" to-layer="672" to-port="0" />
		<edge from-layer="670" from-port="0" to-layer="671" to-port="0" />
		<edge from-layer="671" from-port="1" to-layer="672" to-port="1" />
		<edge from-layer="672" from-port="2" to-layer="675" to-port="0" />
		<edge from-layer="673" from-port="0" to-layer="674" to-port="0" />
		<edge from-layer="674" from-port="1" to-layer="675" to-port="1" />
		<edge from-layer="675" from-port="2" to-layer="676" to-port="1" />
		<edge from-layer="676" from-port="2" to-layer="679" to-port="0" />
		<edge from-layer="677" from-port="0" to-layer="678" to-port="0" />
		<edge from-layer="678" from-port="1" to-layer="679" to-port="1" />
		<edge from-layer="679" from-port="2" to-layer="682" to-port="0" />
		<edge from-layer="680" from-port="0" to-layer="681" to-port="0" />
		<edge from-layer="681" from-port="1" to-layer="682" to-port="1" />
		<edge from-layer="682" from-port="2" to-layer="689" to-port="0" />
		<edge from-layer="682" from-port="2" to-layer="685" to-port="0" />
		<edge from-layer="683" from-port="0" to-layer="684" to-port="0" />
		<edge from-layer="684" from-port="1" to-layer="685" to-port="1" />
		<edge from-layer="685" from-port="2" to-layer="688" to-port="0" />
		<edge from-layer="686" from-port="0" to-layer="687" to-port="0" />
		<edge from-layer="687" from-port="1" to-layer="688" to-port="1" />
		<edge from-layer="688" from-port="2" to-layer="689" to-port="1" />
		<edge from-layer="689" from-port="2" to-layer="702" to-port="0" />
		<edge from-layer="690" from-port="0" to-layer="691" to-port="0" />
		<edge from-layer="691" from-port="1" to-layer="692" to-port="1" />
		<edge from-layer="692" from-port="2" to-layer="695" to-port="0" />
		<edge from-layer="693" from-port="0" to-layer="694" to-port="0" />
		<edge from-layer="694" from-port="1" to-layer="695" to-port="1" />
		<edge from-layer="695" from-port="2" to-layer="698" to-port="0" />
		<edge from-layer="696" from-port="0" to-layer="697" to-port="0" />
		<edge from-layer="697" from-port="1" to-layer="698" to-port="1" />
		<edge from-layer="698" from-port="2" to-layer="701" to-port="0" />
		<edge from-layer="699" from-port="0" to-layer="700" to-port="0" />
		<edge from-layer="700" from-port="1" to-layer="701" to-port="1" />
		<edge from-layer="701" from-port="2" to-layer="702" to-port="1" />
		<edge from-layer="702" from-port="2" to-layer="830" to-port="1" />
		<edge from-layer="702" from-port="2" to-layer="707" to-port="0" />
		<edge from-layer="702" from-port="2" to-layer="703" to-port="0" />
		<edge from-layer="703" from-port="1" to-layer="704" to-port="0" />
		<edge from-layer="704" from-port="1" to-layer="705" to-port="0" />
		<edge from-layer="705" from-port="2" to-layer="706" to-port="0" />
		<edge from-layer="706" from-port="1" to-layer="707" to-port="1" />
		<edge from-layer="707" from-port="3" to-layer="717" to-port="0" />
		<edge from-layer="708" from-port="0" to-layer="709" to-port="0" />
		<edge from-layer="709" from-port="1" to-layer="710" to-port="1" />
		<edge from-layer="710" from-port="2" to-layer="713" to-port="0" />
		<edge from-layer="711" from-port="0" to-layer="712" to-port="0" />
		<edge from-layer="712" from-port="1" to-layer="713" to-port="1" />
		<edge from-layer="713" from-port="2" to-layer="716" to-port="0" />
		<edge from-layer="714" from-port="0" to-layer="715" to-port="0" />
		<edge from-layer="715" from-port="1" to-layer="716" to-port="1" />
		<edge from-layer="716" from-port="2" to-layer="717" to-port="1" />
		<edge from-layer="717" from-port="2" to-layer="752" to-port="0" />
		<edge from-layer="717" from-port="2" to-layer="720" to-port="0" />
		<edge from-layer="718" from-port="0" to-layer="719" to-port="0" />
		<edge from-layer="719" from-port="1" to-layer="720" to-port="1" />
		<edge from-layer="720" from-port="2" to-layer="723" to-port="0" />
		<edge from-layer="721" from-port="0" to-layer="722" to-port="0" />
		<edge from-layer="722" from-port="1" to-layer="723" to-port="1" />
		<edge from-layer="723" from-port="2" to-layer="726" to-port="0" />
		<edge from-layer="724" from-port="0" to-layer="725" to-port="0" />
		<edge from-layer="725" from-port="1" to-layer="726" to-port="1" />
		<edge from-layer="726" from-port="2" to-layer="729" to-port="0" />
		<edge from-layer="726" from-port="2" to-layer="736" to-port="0" />
		<edge from-layer="727" from-port="0" to-layer="728" to-port="0" />
		<edge from-layer="728" from-port="1" to-layer="729" to-port="1" />
		<edge from-layer="729" from-port="2" to-layer="732" to-port="0" />
		<edge from-layer="730" from-port="0" to-layer="731" to-port="0" />
		<edge from-layer="731" from-port="1" to-layer="732" to-port="1" />
		<edge from-layer="732" from-port="2" to-layer="735" to-port="0" />
		<edge from-layer="733" from-port="0" to-layer="734" to-port="0" />
		<edge from-layer="734" from-port="1" to-layer="735" to-port="1" />
		<edge from-layer="735" from-port="2" to-layer="736" to-port="1" />
		<edge from-layer="736" from-port="2" to-layer="739" to-port="0" />
		<edge from-layer="737" from-port="0" to-layer="738" to-port="0" />
		<edge from-layer="738" from-port="1" to-layer="739" to-port="1" />
		<edge from-layer="739" from-port="2" to-layer="742" to-port="0" />
		<edge from-layer="740" from-port="0" to-layer="741" to-port="0" />
		<edge from-layer="741" from-port="1" to-layer="742" to-port="1" />
		<edge from-layer="742" from-port="2" to-layer="745" to-port="0" />
		<edge from-layer="742" from-port="2" to-layer="749" to-port="0" />
		<edge from-layer="743" from-port="0" to-layer="744" to-port="0" />
		<edge from-layer="744" from-port="1" to-layer="745" to-port="1" />
		<edge from-layer="745" from-port="2" to-layer="748" to-port="0" />
		<edge from-layer="746" from-port="0" to-layer="747" to-port="0" />
		<edge from-layer="747" from-port="1" to-layer="748" to-port="1" />
		<edge from-layer="748" from-port="2" to-layer="749" to-port="1" />
		<edge from-layer="749" from-port="2" to-layer="762" to-port="0" />
		<edge from-layer="750" from-port="0" to-layer="751" to-port="0" />
		<edge from-layer="751" from-port="1" to-layer="752" to-port="1" />
		<edge from-layer="752" from-port="2" to-layer="755" to-port="0" />
		<edge from-layer="753" from-port="0" to-layer="754" to-port="0" />
		<edge from-layer="754" from-port="1" to-layer="755" to-port="1" />
		<edge from-layer="755" from-port="2" to-layer="758" to-port="0" />
		<edge from-layer="756" from-port="0" to-layer="757" to-port="0" />
		<edge from-layer="757" from-port="1" to-layer="758" to-port="1" />
		<edge from-layer="758" from-port="2" to-layer="761" to-port="0" />
		<edge from-layer="759" from-port="0" to-layer="760" to-port="0" />
		<edge from-layer="760" from-port="1" to-layer="761" to-port="1" />
		<edge from-layer="761" from-port="2" to-layer="762" to-port="1" />
		<edge from-layer="762" from-port="2" to-layer="814" to-port="0" />
		<edge from-layer="762" from-port="2" to-layer="765" to-port="0" />
		<edge from-layer="763" from-port="0" to-layer="764" to-port="0" />
		<edge from-layer="764" from-port="1" to-layer="765" to-port="1" />
		<edge from-layer="765" from-port="2" to-layer="768" to-port="0" />
		<edge from-layer="766" from-port="0" to-layer="767" to-port="0" />
		<edge from-layer="767" from-port="1" to-layer="768" to-port="1" />
		<edge from-layer="768" from-port="2" to-layer="771" to-port="0" />
		<edge from-layer="769" from-port="0" to-layer="770" to-port="0" />
		<edge from-layer="770" from-port="1" to-layer="771" to-port="1" />
		<edge from-layer="771" from-port="2" to-layer="774" to-port="0" />
		<edge from-layer="772" from-port="0" to-layer="773" to-port="0" />
		<edge from-layer="773" from-port="1" to-layer="774" to-port="1" />
		<edge from-layer="774" from-port="2" to-layer="777" to-port="0" />
		<edge from-layer="775" from-port="0" to-layer="776" to-port="0" />
		<edge from-layer="776" from-port="1" to-layer="777" to-port="1" />
		<edge from-layer="777" from-port="2" to-layer="780" to-port="0" />
		<edge from-layer="778" from-port="0" to-layer="779" to-port="0" />
		<edge from-layer="779" from-port="1" to-layer="780" to-port="1" />
		<edge from-layer="780" from-port="2" to-layer="783" to-port="0" />
		<edge from-layer="781" from-port="0" to-layer="782" to-port="0" />
		<edge from-layer="782" from-port="1" to-layer="783" to-port="1" />
		<edge from-layer="783" from-port="2" to-layer="786" to-port="0" />
		<edge from-layer="784" from-port="0" to-layer="785" to-port="0" />
		<edge from-layer="785" from-port="1" to-layer="786" to-port="1" />
		<edge from-layer="786" from-port="2" to-layer="789" to-port="0" />
		<edge from-layer="787" from-port="0" to-layer="788" to-port="0" />
		<edge from-layer="788" from-port="1" to-layer="789" to-port="1" />
		<edge from-layer="789" from-port="2" to-layer="792" to-port="0" />
		<edge from-layer="790" from-port="0" to-layer="791" to-port="0" />
		<edge from-layer="791" from-port="1" to-layer="792" to-port="1" />
		<edge from-layer="792" from-port="2" to-layer="795" to-port="0" />
		<edge from-layer="793" from-port="0" to-layer="794" to-port="0" />
		<edge from-layer="794" from-port="1" to-layer="795" to-port="1" />
		<edge from-layer="795" from-port="2" to-layer="798" to-port="0" />
		<edge from-layer="796" from-port="0" to-layer="797" to-port="0" />
		<edge from-layer="797" from-port="1" to-layer="798" to-port="1" />
		<edge from-layer="798" from-port="2" to-layer="801" to-port="0" />
		<edge from-layer="799" from-port="0" to-layer="800" to-port="0" />
		<edge from-layer="800" from-port="1" to-layer="801" to-port="1" />
		<edge from-layer="801" from-port="2" to-layer="804" to-port="0" />
		<edge from-layer="802" from-port="0" to-layer="803" to-port="0" />
		<edge from-layer="803" from-port="1" to-layer="804" to-port="1" />
		<edge from-layer="804" from-port="2" to-layer="807" to-port="0" />
		<edge from-layer="805" from-port="0" to-layer="807" to-port="1" />
		<edge from-layer="806" from-port="0" to-layer="807" to-port="2" />
		<edge from-layer="807" from-port="4" to-layer="809" to-port="1" />
		<edge from-layer="807" from-port="3" to-layer="808" to-port="0" />
		<edge from-layer="808" from-port="1" to-layer="809" to-port="0" />
		<edge from-layer="809" from-port="2" to-layer="811" to-port="0" />
		<edge from-layer="810" from-port="0" to-layer="811" to-port="1" />
		<edge from-layer="810" from-port="0" to-layer="1120" to-port="1" />
		<edge from-layer="810" from-port="0" to-layer="1035" to-port="1" />
		<edge from-layer="810" from-port="0" to-layer="923" to-port="1" />
		<edge from-layer="811" from-port="2" to-layer="1121" to-port="0" />
		<edge from-layer="812" from-port="0" to-layer="813" to-port="0" />
		<edge from-layer="813" from-port="1" to-layer="814" to-port="1" />
		<edge from-layer="814" from-port="2" to-layer="817" to-port="0" />
		<edge from-layer="815" from-port="0" to-layer="816" to-port="0" />
		<edge from-layer="816" from-port="1" to-layer="817" to-port="1" />
		<edge from-layer="817" from-port="2" to-layer="820" to-port="0" />
		<edge from-layer="818" from-port="0" to-layer="819" to-port="0" />
		<edge from-layer="819" from-port="1" to-layer="820" to-port="1" />
		<edge from-layer="820" from-port="2" to-layer="823" to-port="0" />
		<edge from-layer="821" from-port="0" to-layer="822" to-port="0" />
		<edge from-layer="822" from-port="1" to-layer="823" to-port="1" />
		<edge from-layer="823" from-port="2" to-layer="826" to-port="0" />
		<edge from-layer="824" from-port="0" to-layer="825" to-port="0" />
		<edge from-layer="825" from-port="1" to-layer="826" to-port="1" />
		<edge from-layer="826" from-port="2" to-layer="829" to-port="0" />
		<edge from-layer="827" from-port="0" to-layer="828" to-port="0" />
		<edge from-layer="828" from-port="1" to-layer="829" to-port="1" />
		<edge from-layer="829" from-port="2" to-layer="830" to-port="0" />
		<edge from-layer="830" from-port="2" to-layer="833" to-port="0" />
		<edge from-layer="830" from-port="2" to-layer="865" to-port="0" />
		<edge from-layer="831" from-port="0" to-layer="832" to-port="0" />
		<edge from-layer="832" from-port="1" to-layer="833" to-port="1" />
		<edge from-layer="833" from-port="2" to-layer="836" to-port="0" />
		<edge from-layer="834" from-port="0" to-layer="835" to-port="0" />
		<edge from-layer="835" from-port="1" to-layer="836" to-port="1" />
		<edge from-layer="836" from-port="2" to-layer="839" to-port="0" />
		<edge from-layer="837" from-port="0" to-layer="838" to-port="0" />
		<edge from-layer="838" from-port="1" to-layer="839" to-port="1" />
		<edge from-layer="839" from-port="2" to-layer="842" to-port="0" />
		<edge from-layer="839" from-port="2" to-layer="849" to-port="0" />
		<edge from-layer="840" from-port="0" to-layer="841" to-port="0" />
		<edge from-layer="841" from-port="1" to-layer="842" to-port="1" />
		<edge from-layer="842" from-port="2" to-layer="845" to-port="0" />
		<edge from-layer="843" from-port="0" to-layer="844" to-port="0" />
		<edge from-layer="844" from-port="1" to-layer="845" to-port="1" />
		<edge from-layer="845" from-port="2" to-layer="848" to-port="0" />
		<edge from-layer="846" from-port="0" to-layer="847" to-port="0" />
		<edge from-layer="847" from-port="1" to-layer="848" to-port="1" />
		<edge from-layer="848" from-port="2" to-layer="849" to-port="1" />
		<edge from-layer="849" from-port="2" to-layer="852" to-port="0" />
		<edge from-layer="850" from-port="0" to-layer="851" to-port="0" />
		<edge from-layer="851" from-port="1" to-layer="852" to-port="1" />
		<edge from-layer="852" from-port="2" to-layer="855" to-port="0" />
		<edge from-layer="853" from-port="0" to-layer="854" to-port="0" />
		<edge from-layer="854" from-port="1" to-layer="855" to-port="1" />
		<edge from-layer="855" from-port="2" to-layer="858" to-port="0" />
		<edge from-layer="855" from-port="2" to-layer="862" to-port="0" />
		<edge from-layer="856" from-port="0" to-layer="857" to-port="0" />
		<edge from-layer="857" from-port="1" to-layer="858" to-port="1" />
		<edge from-layer="858" from-port="2" to-layer="861" to-port="0" />
		<edge from-layer="859" from-port="0" to-layer="860" to-port="0" />
		<edge from-layer="860" from-port="1" to-layer="861" to-port="1" />
		<edge from-layer="861" from-port="2" to-layer="862" to-port="1" />
		<edge from-layer="862" from-port="2" to-layer="875" to-port="0" />
		<edge from-layer="863" from-port="0" to-layer="864" to-port="0" />
		<edge from-layer="864" from-port="1" to-layer="865" to-port="1" />
		<edge from-layer="865" from-port="2" to-layer="868" to-port="0" />
		<edge from-layer="866" from-port="0" to-layer="867" to-port="0" />
		<edge from-layer="867" from-port="1" to-layer="868" to-port="1" />
		<edge from-layer="868" from-port="2" to-layer="871" to-port="0" />
		<edge from-layer="869" from-port="0" to-layer="870" to-port="0" />
		<edge from-layer="870" from-port="1" to-layer="871" to-port="1" />
		<edge from-layer="871" from-port="2" to-layer="874" to-port="0" />
		<edge from-layer="872" from-port="0" to-layer="873" to-port="0" />
		<edge from-layer="873" from-port="1" to-layer="874" to-port="1" />
		<edge from-layer="874" from-port="2" to-layer="875" to-port="1" />
		<edge from-layer="875" from-port="2" to-layer="878" to-port="0" />
		<edge from-layer="875" from-port="2" to-layer="926" to-port="0" />
		<edge from-layer="876" from-port="0" to-layer="877" to-port="0" />
		<edge from-layer="877" from-port="1" to-layer="878" to-port="1" />
		<edge from-layer="878" from-port="2" to-layer="881" to-port="0" />
		<edge from-layer="879" from-port="0" to-layer="880" to-port="0" />
		<edge from-layer="880" from-port="1" to-layer="881" to-port="1" />
		<edge from-layer="881" from-port="2" to-layer="884" to-port="0" />
		<edge from-layer="882" from-port="0" to-layer="883" to-port="0" />
		<edge from-layer="883" from-port="1" to-layer="884" to-port="1" />
		<edge from-layer="884" from-port="2" to-layer="887" to-port="0" />
		<edge from-layer="885" from-port="0" to-layer="886" to-port="0" />
		<edge from-layer="886" from-port="1" to-layer="887" to-port="1" />
		<edge from-layer="887" from-port="2" to-layer="890" to-port="0" />
		<edge from-layer="888" from-port="0" to-layer="889" to-port="0" />
		<edge from-layer="889" from-port="1" to-layer="890" to-port="1" />
		<edge from-layer="890" from-port="2" to-layer="893" to-port="0" />
		<edge from-layer="891" from-port="0" to-layer="892" to-port="0" />
		<edge from-layer="892" from-port="1" to-layer="893" to-port="1" />
		<edge from-layer="893" from-port="2" to-layer="896" to-port="0" />
		<edge from-layer="894" from-port="0" to-layer="895" to-port="0" />
		<edge from-layer="895" from-port="1" to-layer="896" to-port="1" />
		<edge from-layer="896" from-port="2" to-layer="899" to-port="0" />
		<edge from-layer="897" from-port="0" to-layer="898" to-port="0" />
		<edge from-layer="898" from-port="1" to-layer="899" to-port="1" />
		<edge from-layer="899" from-port="2" to-layer="902" to-port="0" />
		<edge from-layer="900" from-port="0" to-layer="901" to-port="0" />
		<edge from-layer="901" from-port="1" to-layer="902" to-port="1" />
		<edge from-layer="902" from-port="2" to-layer="905" to-port="0" />
		<edge from-layer="903" from-port="0" to-layer="904" to-port="0" />
		<edge from-layer="904" from-port="1" to-layer="905" to-port="1" />
		<edge from-layer="905" from-port="2" to-layer="908" to-port="0" />
		<edge from-layer="906" from-port="0" to-layer="907" to-port="0" />
		<edge from-layer="907" from-port="1" to-layer="908" to-port="1" />
		<edge from-layer="908" from-port="2" to-layer="911" to-port="0" />
		<edge from-layer="909" from-port="0" to-layer="910" to-port="0" />
		<edge from-layer="910" from-port="1" to-layer="911" to-port="1" />
		<edge from-layer="911" from-port="2" to-layer="914" to-port="0" />
		<edge from-layer="912" from-port="0" to-layer="913" to-port="0" />
		<edge from-layer="913" from-port="1" to-layer="914" to-port="1" />
		<edge from-layer="914" from-port="2" to-layer="917" to-port="0" />
		<edge from-layer="915" from-port="0" to-layer="916" to-port="0" />
		<edge from-layer="916" from-port="1" to-layer="917" to-port="1" />
		<edge from-layer="917" from-port="2" to-layer="920" to-port="0" />
		<edge from-layer="918" from-port="0" to-layer="920" to-port="1" />
		<edge from-layer="919" from-port="0" to-layer="920" to-port="2" />
		<edge from-layer="920" from-port="4" to-layer="922" to-port="1" />
		<edge from-layer="920" from-port="3" to-layer="921" to-port="0" />
		<edge from-layer="921" from-port="1" to-layer="922" to-port="0" />
		<edge from-layer="922" from-port="2" to-layer="923" to-port="0" />
		<edge from-layer="923" from-port="2" to-layer="1121" to-port="1" />
		<edge from-layer="924" from-port="0" to-layer="925" to-port="0" />
		<edge from-layer="925" from-port="1" to-layer="926" to-port="1" />
		<edge from-layer="926" from-port="2" to-layer="929" to-port="0" />
		<edge from-layer="927" from-port="0" to-layer="928" to-port="0" />
		<edge from-layer="928" from-port="1" to-layer="929" to-port="1" />
		<edge from-layer="929" from-port="2" to-layer="932" to-port="0" />
		<edge from-layer="930" from-port="0" to-layer="931" to-port="0" />
		<edge from-layer="931" from-port="1" to-layer="932" to-port="1" />
		<edge from-layer="932" from-port="2" to-layer="935" to-port="0" />
		<edge from-layer="933" from-port="0" to-layer="934" to-port="0" />
		<edge from-layer="934" from-port="1" to-layer="935" to-port="1" />
		<edge from-layer="935" from-port="2" to-layer="938" to-port="0" />
		<edge from-layer="936" from-port="0" to-layer="937" to-port="0" />
		<edge from-layer="937" from-port="1" to-layer="938" to-port="1" />
		<edge from-layer="938" from-port="2" to-layer="941" to-port="0" />
		<edge from-layer="939" from-port="0" to-layer="940" to-port="0" />
		<edge from-layer="940" from-port="1" to-layer="941" to-port="1" />
		<edge from-layer="941" from-port="2" to-layer="942" to-port="0" />
		<edge from-layer="942" from-port="2" to-layer="977" to-port="0" />
		<edge from-layer="942" from-port="2" to-layer="945" to-port="0" />
		<edge from-layer="943" from-port="0" to-layer="944" to-port="0" />
		<edge from-layer="944" from-port="1" to-layer="945" to-port="1" />
		<edge from-layer="945" from-port="2" to-layer="948" to-port="0" />
		<edge from-layer="946" from-port="0" to-layer="947" to-port="0" />
		<edge from-layer="947" from-port="1" to-layer="948" to-port="1" />
		<edge from-layer="948" from-port="2" to-layer="951" to-port="0" />
		<edge from-layer="949" from-port="0" to-layer="950" to-port="0" />
		<edge from-layer="950" from-port="1" to-layer="951" to-port="1" />
		<edge from-layer="951" from-port="2" to-layer="961" to-port="0" />
		<edge from-layer="951" from-port="2" to-layer="954" to-port="0" />
		<edge from-layer="952" from-port="0" to-layer="953" to-port="0" />
		<edge from-layer="953" from-port="1" to-layer="954" to-port="1" />
		<edge from-layer="954" from-port="2" to-layer="957" to-port="0" />
		<edge from-layer="955" from-port="0" to-layer="956" to-port="0" />
		<edge from-layer="956" from-port="1" to-layer="957" to-port="1" />
		<edge from-layer="957" from-port="2" to-layer="960" to-port="0" />
		<edge from-layer="958" from-port="0" to-layer="959" to-port="0" />
		<edge from-layer="959" from-port="1" to-layer="960" to-port="1" />
		<edge from-layer="960" from-port="2" to-layer="961" to-port="1" />
		<edge from-layer="961" from-port="2" to-layer="964" to-port="0" />
		<edge from-layer="962" from-port="0" to-layer="963" to-port="0" />
		<edge from-layer="963" from-port="1" to-layer="964" to-port="1" />
		<edge from-layer="964" from-port="2" to-layer="967" to-port="0" />
		<edge from-layer="965" from-port="0" to-layer="966" to-port="0" />
		<edge from-layer="966" from-port="1" to-layer="967" to-port="1" />
		<edge from-layer="967" from-port="2" to-layer="970" to-port="0" />
		<edge from-layer="967" from-port="2" to-layer="974" to-port="0" />
		<edge from-layer="968" from-port="0" to-layer="969" to-port="0" />
		<edge from-layer="969" from-port="1" to-layer="970" to-port="1" />
		<edge from-layer="970" from-port="2" to-layer="973" to-port="0" />
		<edge from-layer="971" from-port="0" to-layer="972" to-port="0" />
		<edge from-layer="972" from-port="1" to-layer="973" to-port="1" />
		<edge from-layer="973" from-port="2" to-layer="974" to-port="1" />
		<edge from-layer="974" from-port="2" to-layer="987" to-port="0" />
		<edge from-layer="975" from-port="0" to-layer="976" to-port="0" />
		<edge from-layer="976" from-port="1" to-layer="977" to-port="1" />
		<edge from-layer="977" from-port="2" to-layer="980" to-port="0" />
		<edge from-layer="978" from-port="0" to-layer="979" to-port="0" />
		<edge from-layer="979" from-port="1" to-layer="980" to-port="1" />
		<edge from-layer="980" from-port="2" to-layer="983" to-port="0" />
		<edge from-layer="981" from-port="0" to-layer="982" to-port="0" />
		<edge from-layer="982" from-port="1" to-layer="983" to-port="1" />
		<edge from-layer="983" from-port="2" to-layer="986" to-port="0" />
		<edge from-layer="984" from-port="0" to-layer="985" to-port="0" />
		<edge from-layer="985" from-port="1" to-layer="986" to-port="1" />
		<edge from-layer="986" from-port="2" to-layer="987" to-port="1" />
		<edge from-layer="987" from-port="2" to-layer="990" to-port="0" />
		<edge from-layer="987" from-port="2" to-layer="1056" to-port="0" />
		<edge from-layer="988" from-port="0" to-layer="989" to-port="0" />
		<edge from-layer="989" from-port="1" to-layer="990" to-port="1" />
		<edge from-layer="990" from-port="2" to-layer="993" to-port="0" />
		<edge from-layer="991" from-port="0" to-layer="992" to-port="0" />
		<edge from-layer="992" from-port="1" to-layer="993" to-port="1" />
		<edge from-layer="993" from-port="2" to-layer="996" to-port="0" />
		<edge from-layer="994" from-port="0" to-layer="995" to-port="0" />
		<edge from-layer="995" from-port="1" to-layer="996" to-port="1" />
		<edge from-layer="996" from-port="2" to-layer="999" to-port="0" />
		<edge from-layer="997" from-port="0" to-layer="998" to-port="0" />
		<edge from-layer="998" from-port="1" to-layer="999" to-port="1" />
		<edge from-layer="999" from-port="2" to-layer="1002" to-port="0" />
		<edge from-layer="1000" from-port="0" to-layer="1001" to-port="0" />
		<edge from-layer="1001" from-port="1" to-layer="1002" to-port="1" />
		<edge from-layer="1002" from-port="2" to-layer="1005" to-port="0" />
		<edge from-layer="1003" from-port="0" to-layer="1004" to-port="0" />
		<edge from-layer="1004" from-port="1" to-layer="1005" to-port="1" />
		<edge from-layer="1005" from-port="2" to-layer="1008" to-port="0" />
		<edge from-layer="1006" from-port="0" to-layer="1007" to-port="0" />
		<edge from-layer="1007" from-port="1" to-layer="1008" to-port="1" />
		<edge from-layer="1008" from-port="2" to-layer="1011" to-port="0" />
		<edge from-layer="1009" from-port="0" to-layer="1010" to-port="0" />
		<edge from-layer="1010" from-port="1" to-layer="1011" to-port="1" />
		<edge from-layer="1011" from-port="2" to-layer="1014" to-port="0" />
		<edge from-layer="1012" from-port="0" to-layer="1013" to-port="0" />
		<edge from-layer="1013" from-port="1" to-layer="1014" to-port="1" />
		<edge from-layer="1014" from-port="2" to-layer="1017" to-port="0" />
		<edge from-layer="1015" from-port="0" to-layer="1016" to-port="0" />
		<edge from-layer="1016" from-port="1" to-layer="1017" to-port="1" />
		<edge from-layer="1017" from-port="2" to-layer="1020" to-port="0" />
		<edge from-layer="1018" from-port="0" to-layer="1019" to-port="0" />
		<edge from-layer="1019" from-port="1" to-layer="1020" to-port="1" />
		<edge from-layer="1020" from-port="2" to-layer="1023" to-port="0" />
		<edge from-layer="1021" from-port="0" to-layer="1022" to-port="0" />
		<edge from-layer="1022" from-port="1" to-layer="1023" to-port="1" />
		<edge from-layer="1023" from-port="2" to-layer="1026" to-port="0" />
		<edge from-layer="1024" from-port="0" to-layer="1025" to-port="0" />
		<edge from-layer="1025" from-port="1" to-layer="1026" to-port="1" />
		<edge from-layer="1026" from-port="2" to-layer="1029" to-port="0" />
		<edge from-layer="1027" from-port="0" to-layer="1028" to-port="0" />
		<edge from-layer="1028" from-port="1" to-layer="1029" to-port="1" />
		<edge from-layer="1029" from-port="2" to-layer="1032" to-port="0" />
		<edge from-layer="1030" from-port="0" to-layer="1032" to-port="1" />
		<edge from-layer="1031" from-port="0" to-layer="1032" to-port="2" />
		<edge from-layer="1032" from-port="3" to-layer="1033" to-port="0" />
		<edge from-layer="1032" from-port="4" to-layer="1034" to-port="1" />
		<edge from-layer="1033" from-port="1" to-layer="1034" to-port="0" />
		<edge from-layer="1034" from-port="2" to-layer="1035" to-port="0" />
		<edge from-layer="1035" from-port="2" to-layer="1121" to-port="2" />
		<edge from-layer="1036" from-port="0" to-layer="1037" to-port="0" />
		<edge from-layer="1037" from-port="1" to-layer="1038" to-port="1" />
		<edge from-layer="1038" from-port="2" to-layer="1041" to-port="0" />
		<edge from-layer="1039" from-port="0" to-layer="1040" to-port="0" />
		<edge from-layer="1040" from-port="1" to-layer="1041" to-port="1" />
		<edge from-layer="1041" from-port="2" to-layer="1044" to-port="0" />
		<edge from-layer="1042" from-port="0" to-layer="1043" to-port="0" />
		<edge from-layer="1043" from-port="1" to-layer="1044" to-port="1" />
		<edge from-layer="1044" from-port="2" to-layer="1047" to-port="0" />
		<edge from-layer="1045" from-port="0" to-layer="1046" to-port="0" />
		<edge from-layer="1046" from-port="1" to-layer="1047" to-port="1" />
		<edge from-layer="1047" from-port="2" to-layer="1050" to-port="0" />
		<edge from-layer="1048" from-port="0" to-layer="1049" to-port="0" />
		<edge from-layer="1049" from-port="1" to-layer="1050" to-port="1" />
		<edge from-layer="1050" from-port="2" to-layer="1053" to-port="0" />
		<edge from-layer="1051" from-port="0" to-layer="1052" to-port="0" />
		<edge from-layer="1052" from-port="1" to-layer="1053" to-port="1" />
		<edge from-layer="1053" from-port="2" to-layer="1072" to-port="0" />
		<edge from-layer="1054" from-port="0" to-layer="1055" to-port="0" />
		<edge from-layer="1055" from-port="1" to-layer="1056" to-port="1" />
		<edge from-layer="1056" from-port="2" to-layer="1059" to-port="0" />
		<edge from-layer="1057" from-port="0" to-layer="1058" to-port="0" />
		<edge from-layer="1058" from-port="1" to-layer="1059" to-port="1" />
		<edge from-layer="1059" from-port="2" to-layer="1062" to-port="0" />
		<edge from-layer="1060" from-port="0" to-layer="1061" to-port="0" />
		<edge from-layer="1061" from-port="1" to-layer="1062" to-port="1" />
		<edge from-layer="1062" from-port="2" to-layer="1065" to-port="0" />
		<edge from-layer="1063" from-port="0" to-layer="1064" to-port="0" />
		<edge from-layer="1064" from-port="1" to-layer="1065" to-port="1" />
		<edge from-layer="1065" from-port="2" to-layer="1068" to-port="0" />
		<edge from-layer="1066" from-port="0" to-layer="1067" to-port="0" />
		<edge from-layer="1067" from-port="1" to-layer="1068" to-port="1" />
		<edge from-layer="1068" from-port="2" to-layer="1071" to-port="0" />
		<edge from-layer="1069" from-port="0" to-layer="1070" to-port="0" />
		<edge from-layer="1070" from-port="1" to-layer="1071" to-port="1" />
		<edge from-layer="1071" from-port="2" to-layer="1072" to-port="1" />
		<edge from-layer="1072" from-port="2" to-layer="1075" to-port="0" />
		<edge from-layer="1073" from-port="0" to-layer="1074" to-port="0" />
		<edge from-layer="1074" from-port="1" to-layer="1075" to-port="1" />
		<edge from-layer="1075" from-port="2" to-layer="1078" to-port="0" />
		<edge from-layer="1076" from-port="0" to-layer="1077" to-port="0" />
		<edge from-layer="1077" from-port="1" to-layer="1078" to-port="1" />
		<edge from-layer="1078" from-port="2" to-layer="1081" to-port="0" />
		<edge from-layer="1079" from-port="0" to-layer="1080" to-port="0" />
		<edge from-layer="1080" from-port="1" to-layer="1081" to-port="1" />
		<edge from-layer="1081" from-port="2" to-layer="1084" to-port="0" />
		<edge from-layer="1082" from-port="0" to-layer="1083" to-port="0" />
		<edge from-layer="1083" from-port="1" to-layer="1084" to-port="1" />
		<edge from-layer="1084" from-port="2" to-layer="1087" to-port="0" />
		<edge from-layer="1085" from-port="0" to-layer="1086" to-port="0" />
		<edge from-layer="1086" from-port="1" to-layer="1087" to-port="1" />
		<edge from-layer="1087" from-port="2" to-layer="1090" to-port="0" />
		<edge from-layer="1088" from-port="0" to-layer="1089" to-port="0" />
		<edge from-layer="1089" from-port="1" to-layer="1090" to-port="1" />
		<edge from-layer="1090" from-port="2" to-layer="1093" to-port="0" />
		<edge from-layer="1091" from-port="0" to-layer="1092" to-port="0" />
		<edge from-layer="1092" from-port="1" to-layer="1093" to-port="1" />
		<edge from-layer="1093" from-port="2" to-layer="1096" to-port="0" />
		<edge from-layer="1094" from-port="0" to-layer="1095" to-port="0" />
		<edge from-layer="1095" from-port="1" to-layer="1096" to-port="1" />
		<edge from-layer="1096" from-port="2" to-layer="1099" to-port="0" />
		<edge from-layer="1097" from-port="0" to-layer="1098" to-port="0" />
		<edge from-layer="1098" from-port="1" to-layer="1099" to-port="1" />
		<edge from-layer="1099" from-port="2" to-layer="1102" to-port="0" />
		<edge from-layer="1100" from-port="0" to-layer="1101" to-port="0" />
		<edge from-layer="1101" from-port="1" to-layer="1102" to-port="1" />
		<edge from-layer="1102" from-port="2" to-layer="1105" to-port="0" />
		<edge from-layer="1103" from-port="0" to-layer="1104" to-port="0" />
		<edge from-layer="1104" from-port="1" to-layer="1105" to-port="1" />
		<edge from-layer="1105" from-port="2" to-layer="1108" to-port="0" />
		<edge from-layer="1106" from-port="0" to-layer="1107" to-port="0" />
		<edge from-layer="1107" from-port="1" to-layer="1108" to-port="1" />
		<edge from-layer="1108" from-port="2" to-layer="1111" to-port="0" />
		<edge from-layer="1109" from-port="0" to-layer="1110" to-port="0" />
		<edge from-layer="1110" from-port="1" to-layer="1111" to-port="1" />
		<edge from-layer="1111" from-port="2" to-layer="1114" to-port="0" />
		<edge from-layer="1112" from-port="0" to-layer="1113" to-port="0" />
		<edge from-layer="1113" from-port="1" to-layer="1114" to-port="1" />
		<edge from-layer="1114" from-port="2" to-layer="1117" to-port="0" />
		<edge from-layer="1115" from-port="0" to-layer="1117" to-port="1" />
		<edge from-layer="1116" from-port="0" to-layer="1117" to-port="2" />
		<edge from-layer="1117" from-port="4" to-layer="1119" to-port="1" />
		<edge from-layer="1117" from-port="3" to-layer="1118" to-port="0" />
		<edge from-layer="1118" from-port="1" to-layer="1119" to-port="0" />
		<edge from-layer="1119" from-port="2" to-layer="1120" to-port="0" />
		<edge from-layer="1120" from-port="2" to-layer="1121" to-port="3" />
		<edge from-layer="1121" from-port="4" to-layer="1123" to-port="0" />
		<edge from-layer="1122" from-port="0" to-layer="1123" to-port="1" />
		<edge from-layer="1123" from-port="2" to-layer="1124" to-port="0" />
	</edges>
	<rt_info>
		<MO_version value="2022.3.2-9279-e2c7e4d7b4d-releases/2022/3" />
		<Runtime_version value="2022.3.2-9279-e2c7e4d7b4d-releases/2022/3" />
		<conversion_parameters>
			<data_type value="FP16" />
			<framework value="onnx" />
			<input_model value="DIR/nanodet.onnx" />
			<mean_values value="[103.53,116.28,123.675]" />
			<model_name value="nanodet" />
			<output value="output" />
			<output_dir value="DIR" />
			<scale_values value="[57.375,57.12,58.395]" />
		</conversion_parameters>
		<legacy_frontend value="False" />
	</rt_info>
</net>
