<?xml version="1.0"?>
<net name="main_graph" version="11">
	<layers>
		<layer id="0" name="data" type="Parameter" version="opset1">
			<data shape="1,3,416,416" element_type="f32" />
			<output>
				<port id="0" precision="FP32" names="data">
					<dim>1</dim>
					<dim>3</dim>
					<dim>416</dim>
					<dim>416</dim>
				</port>
			</output>
		</layer>
		<layer id="1" name="onnx::Conv_1532" type="Const" version="opset1">
			<data element_type="f32" shape="24, 3, 3, 3" offset="0" size="2592" />
			<output>
				<port id="0" precision="FP32" names="onnx::Conv_1532">
					<dim>24</dim>
					<dim>3</dim>
					<dim>3</dim>
					<dim>3</dim>
				</port>
			</output>
		</layer>
		<layer id="2" name="/backbone/conv1/conv1.0/Conv/WithoutBiases" type="Convolution" version="opset1">
			<data strides="2, 2" dilations="1, 1" pads_begin="1, 1" pads_end="1, 1" auto_pad="explicit" />
			<input>
				<port id="0" precision="FP32">
					<dim>1</dim>
					<dim>3</dim>
					<dim>416</dim>
					<dim>416</dim>
				</port>
				<port id="1" precision="FP32">
					<dim>24</dim>
					<dim>3</dim>
					<dim>3</dim>
					<dim>3</dim>
				</port>
			</input>
			<output>
				<port id="2" precision="FP32">
					<dim>1</dim>
					<dim>24</dim>
					<dim>208</dim>
					<dim>208</dim>
				</port>
			</output>
		</layer>
		<layer id="3" name="onnx::Conv_1533" type="Const" version="opset1">
			<data element_type="f32" shape="24" offset="2592" size="96" />
			<output>
				<port id="0" precision="FP32" names="onnx::Conv_1533">
					<dim>24</dim>
				</port>
			</output>
		</layer>
		<layer id="4" name="Constant_239" type="Const" version="opset1">
			<data element_type="i64" shape="1" offset="2688" size="8" />
			<output>
				<port id="0" precision="I64">
					<dim>1</dim>
				</port>
			</output>
		</layer>
		<layer id="5" name="ShapeOf_254" type="ShapeOf" version="opset3">
			<data output_type="i64" />
			<input>
				<port id="0" precision="FP32">
					<dim>24</dim>
				</port>
			</input>
			<output>
				<port id="1" precision="I64">
					<dim>1</dim>
				</port>
			</output>
		</layer>
		<layer id="6" name="ShapeOf_237" type="ShapeOf" version="opset3">
			<data output_type="i64" />
			<input>
				<port id="0" precision="FP32">
					<dim>1</dim>
					<dim>24</dim>
					<dim>208</dim>
					<dim>208</dim>
				</port>
			</input>
			<output>
				<port id="1" precision="I64">
					<dim>4</dim>
				</port>
			</output>
		</layer>
		<layer id="7" name="ShapeOf_238" type="ShapeOf" version="opset3">
			<data output_type="i64" />
			<input>
				<port id="0" precision="I64">
					<dim>4</dim>
				</port>
			</input>
			<output>
				<port id="1" precision="I64">
					<dim>1</dim>
				</port>
			</output>
		</layer>
		<layer id="8" name="Constant_240" type="Const" version="opset1">
			<data element_type="i64" shape="1" offset="2696" size="8" />
			<output>
				<port id="0" precision="I64">
					<dim>1</dim>
				</port>
			</output>
		</layer>
		<layer id="9" name="Subtract_241" type="Subtract" version="opset1">
			<data auto_broadcast="numpy" />
			<input>
				<port id="0" precision="I64">
					<dim>1</dim>
				</port>
				<port id="1" precision="I64">
					<dim>1</dim>
				</port>
			</input>
			<output>
				<port id="2" precision="I64">
					<dim>1</dim>
				</port>
			</output>
		</layer>
		<layer id="10" name="Broadcast_242" type="Broadcast" version="opset3">
			<data mode="numpy" />
			<input>
				<port id="0" precision="I64">
					<dim>1</dim>
				</port>
				<port id="1" precision="I64">
					<dim>1</dim>
				</port>
			</input>
			<output>
				<port id="2" precision="I64">
					<dim>2</dim>
				</port>
			</output>
		</layer>
		<layer id="11" name="Concat_255" type="Concat" version="opset1">
			<data axis="0" />
			<input>
				<port id="0" precision="I64">
					<dim>1</dim>
				</port>
				<port id="1" precision="I64">
					<dim>1</dim>
				</port>
				<port id="2" precision="I64">
					<dim>2</dim>
				</port>
			</input>
			<output>
				<port id="3" precision="I64">
					<dim>4</dim>
				</port>
			</output>
		</layer>
		<layer id="12" name="Reshape_256" type="Reshape" version="opset1">
			<data special_zero="false" />
			<input>
				<port id="0" precision="FP32">
					<dim>24</dim>
				</port>
				<port id="1" precision="I64">
					<dim>4</dim>
				</port>
			</input>
			<output>
				<port id="2" precision="FP32">
					<dim>1</dim>
					<dim>24</dim>
					<dim>1</dim>
					<dim>1</dim>
				</port>
			</output>
		</layer>
		<layer id="13" name="/backbone/conv1/conv1.0/Conv" type="Add" version="opset1">
			<data auto_broadcast="numpy" />
			<input>
				<port id="0" precision="FP32">
					<dim>1</dim>
					<dim>24</dim>
					<dim>208</dim>
					<dim>208</dim>
				</port>
				<port id="1" precision="FP32">
					<dim>1</dim>
					<dim>24</dim>
					<dim>1</dim>
					<dim>1</dim>
				</port>
			</input>
			<output>
				<port id="2" precision="FP32" names="/backbone/conv1/conv1.0/Conv_output_0">
					<dim>1</dim>
					<dim>24</dim>
					<dim>208</dim>
					<dim>208</dim>
				</port>
			</output>
		</layer>
		<layer id="14" name="Constant_284" type="Const" version="opset1">
			<data element_type="f32" shape="1" offset="2704" size="4" />
			<output>
				<port id="0" precision="FP32">
					<dim>1</dim>
				</port>
			</output>
		</layer>
		<layer id="15" name="/backbone/conv1/conv1.2/LeakyRelu" type="PReLU" version="opset1">
			<input>
				<port id="0" precision="FP32">
					<dim>1</dim>
					<dim>24</dim>
					<dim>208</dim>
					<dim>208</dim>
				</port>
				<port id="1" precision="FP32">
					<dim>1</dim>
				</port>
			</input>
			<output>
				<port id="2" precision="FP32" names="/backbone/conv1/conv1.2/LeakyRelu_output_0">
					<dim>1</dim>
					<dim>24</dim>
					<dim>208</dim>
					<dim>208</dim>
				</port>
			</output>
		</layer>
		<layer id="16" name="/backbone/maxpool/MaxPool" type="MaxPool" version="opset8">
			<data strides="2, 2" dilations="1, 1" pads_begin="1, 1" pads_end="1, 1" kernel="3, 3" rounding_type="floor" auto_pad="explicit" index_element_type="i64" axis="0" />
			<input>
				<port id="0" precision="FP32">
					<dim>1</dim>
					<dim>24</dim>
					<dim>208</dim>
					<dim>208</dim>
				</port>
			</input>
			<output>
				<port id="1" precision="FP32" names="/backbone/maxpool/MaxPool_output_0">
					<dim>1</dim>
					<dim>24</dim>
					<dim>104</dim>
					<dim>104</dim>
				</port>
				<port id="2" precision="I64">
					<dim>1</dim>
					<dim>24</dim>
					<dim>104</dim>
					<dim>104</dim>
				</port>
			</output>
		</layer>
		<layer id="17" name="onnx::Conv_1535" type="Const" version="opset1">
			<data element_type="f32" shape="24, 1, 3, 3" offset="2708" size="864" />
			<output>
				<port id="0" precision="FP32" names="onnx::Conv_1535">
					<dim>24</dim>
					<dim>1</dim>
					<dim>3</dim>
					<dim>3</dim>
				</port>
			</output>
		</layer>
		<layer id="18" name="Constant_289" type="Const" version="opset1">
			<data element_type="i64" shape="1" offset="3572" size="8" />
			<output>
				<port id="0" precision="I64">
					<dim>1</dim>
				</port>
			</output>
		</layer>
		<layer id="19" name="ShapeOf_290" type="ShapeOf" version="opset3">
			<data output_type="i64" />
			<input>
				<port id="0" precision="FP32">
					<dim>24</dim>
					<dim>1</dim>
					<dim>3</dim>
					<dim>3</dim>
				</port>
			</input>
			<output>
				<port id="1" precision="I64">
					<dim>4</dim>
				</port>
			</output>
		</layer>
		<layer id="20" name="Constant_287" type="Const" version="opset1">
			<data element_type="i64" shape="" offset="3580" size="8" />
			<output>
				<port id="0" precision="I64" />
			</output>
		</layer>
		<layer id="21" name="Constant_288" type="Const" version="opset1">
			<data element_type="i64" shape="2" offset="3588" size="16" />
			<output>
				<port id="0" precision="I64">
					<dim>2</dim>
				</port>
			</output>
		</layer>
		<layer id="22" name="VariadicSplit_291" type="VariadicSplit" version="opset1">
			<input>
				<port id="0" precision="I64">
					<dim>4</dim>
				</port>
				<port id="1" precision="I64" />
				<port id="2" precision="I64">
					<dim>2</dim>
				</port>
			</input>
			<output>
				<port id="3" precision="I64">
					<dim>1</dim>
				</port>
				<port id="4" precision="I64">
					<dim>3</dim>
				</port>
			</output>
		</layer>
		<layer id="23" name="Divide_292" type="Divide" version="opset1">
			<data auto_broadcast="numpy" m_pythondiv="true" />
			<input>
				<port id="0" precision="I64">
					<dim>1</dim>
				</port>
				<port id="1" precision="I64">
					<dim>1</dim>
				</port>
			</input>
			<output>
				<port id="2" precision="I64">
					<dim>1</dim>
				</port>
			</output>
		</layer>
		<layer id="24" name="Concat_293" type="Concat" version="opset1">
			<data axis="0" />
			<input>
				<port id="0" precision="I64">
					<dim>1</dim>
				</port>
				<port id="1" precision="I64">
					<dim>1</dim>
				</port>
				<port id="2" precision="I64">
					<dim>3</dim>
				</port>
			</input>
			<output>
				<port id="3" precision="I64">
					<dim>5</dim>
				</port>
			</output>
		</layer>
		<layer id="25" name="Reshape_294" type="Reshape" version="opset1">
			<data special_zero="false" />
			<input>
				<port id="0" precision="FP32">
					<dim>24</dim>
					<dim>1</dim>
					<dim>3</dim>
					<dim>3</dim>
				</port>
				<port id="1" precision="I64">
					<dim>5</dim>
				</port>
			</input>
			<output>
				<port id="2" precision="FP32">
					<dim>24</dim>
					<dim>1</dim>
					<dim>1</dim>
					<dim>3</dim>
					<dim>3</dim>
				</port>
			</output>
		</layer>
		<layer id="26" name="/backbone/stage2/stage2.0/branch1/branch1.0/Conv/WithoutBiases" type="GroupConvolution" version="opset1">
			<data strides="2, 2" pads_begin="1, 1" pads_end="1, 1" dilations="1, 1" auto_pad="explicit" />
			<input>
				<port id="0" precision="FP32">
					<dim>1</dim>
					<dim>24</dim>
					<dim>104</dim>
					<dim>104</dim>
				</port>
				<port id="1" precision="FP32">
					<dim>24</dim>
					<dim>1</dim>
					<dim>1</dim>
					<dim>3</dim>
					<dim>3</dim>
				</port>
			</input>
			<output>
				<port id="2" precision="FP32">
					<dim>1</dim>
					<dim>24</dim>
					<dim>52</dim>
					<dim>52</dim>
				</port>
			</output>
		</layer>
		<layer id="27" name="onnx::Conv_1536" type="Const" version="opset1">
			<data element_type="f32" shape="24" offset="3604" size="96" />
			<output>
				<port id="0" precision="FP32" names="onnx::Conv_1536">
					<dim>24</dim>
				</port>
			</output>
		</layer>
		<layer id="28" name="Constant_363" type="Const" version="opset1">
			<data element_type="i64" shape="1" offset="2688" size="8" />
			<output>
				<port id="0" precision="I64">
					<dim>1</dim>
				</port>
			</output>
		</layer>
		<layer id="29" name="ShapeOf_378" type="ShapeOf" version="opset3">
			<data output_type="i64" />
			<input>
				<port id="0" precision="FP32">
					<dim>24</dim>
				</port>
			</input>
			<output>
				<port id="1" precision="I64">
					<dim>1</dim>
				</port>
			</output>
		</layer>
		<layer id="30" name="ShapeOf_361" type="ShapeOf" version="opset3">
			<data output_type="i64" />
			<input>
				<port id="0" precision="FP32">
					<dim>1</dim>
					<dim>24</dim>
					<dim>52</dim>
					<dim>52</dim>
				</port>
			</input>
			<output>
				<port id="1" precision="I64">
					<dim>4</dim>
				</port>
			</output>
		</layer>
		<layer id="31" name="ShapeOf_362" type="ShapeOf" version="opset3">
			<data output_type="i64" />
			<input>
				<port id="0" precision="I64">
					<dim>4</dim>
				</port>
			</input>
			<output>
				<port id="1" precision="I64">
					<dim>1</dim>
				</port>
			</output>
		</layer>
		<layer id="32" name="Constant_364" type="Const" version="opset1">
			<data element_type="i64" shape="1" offset="2696" size="8" />
			<output>
				<port id="0" precision="I64">
					<dim>1</dim>
				</port>
			</output>
		</layer>
		<layer id="33" name="Subtract_365" type="Subtract" version="opset1">
			<data auto_broadcast="numpy" />
			<input>
				<port id="0" precision="I64">
					<dim>1</dim>
				</port>
				<port id="1" precision="I64">
					<dim>1</dim>
				</port>
			</input>
			<output>
				<port id="2" precision="I64">
					<dim>1</dim>
				</port>
			</output>
		</layer>
		<layer id="34" name="Broadcast_366" type="Broadcast" version="opset3">
			<data mode="numpy" />
			<input>
				<port id="0" precision="I64">
					<dim>1</dim>
				</port>
				<port id="1" precision="I64">
					<dim>1</dim>
				</port>
			</input>
			<output>
				<port id="2" precision="I64">
					<dim>2</dim>
				</port>
			</output>
		</layer>
		<layer id="35" name="Concat_379" type="Concat" version="opset1">
			<data axis="0" />
			<input>
				<port id="0" precision="I64">
					<dim>1</dim>
				</port>
				<port id="1" precision="I64">
					<dim>1</dim>
				</port>
				<port id="2" precision="I64">
					<dim>2</dim>
				</port>
			</input>
			<output>
				<port id="3" precision="I64">
					<dim>4</dim>
				</port>
			</output>
		</layer>
		<layer id="36" name="Reshape_380" type="Reshape" version="opset1">
			<data special_zero="false" />
			<input>
				<port id="0" precision="FP32">
					<dim>24</dim>
				</port>
				<port id="1" precision="I64">
					<dim>4</dim>
				</port>
			</input>
			<output>
				<port id="2" precision="FP32">
					<dim>1</dim>
					<dim>24</dim>
					<dim>1</dim>
					<dim>1</dim>
				</port>
			</output>
		</layer>
		<layer id="37" name="/backbone/stage2/stage2.0/branch1/branch1.0/Conv" type="Add" version="opset1">
			<data auto_broadcast="numpy" />
			<input>
				<port id="0" precision="FP32">
					<dim>1</dim>
					<dim>24</dim>
					<dim>52</dim>
					<dim>52</dim>
				</port>
				<port id="1" precision="FP32">
					<dim>1</dim>
					<dim>24</dim>
					<dim>1</dim>
					<dim>1</dim>
				</port>
			</input>
			<output>
				<port id="2" precision="FP32" names="/backbone/stage2/stage2.0/branch1/branch1.0/Conv_output_0">
					<dim>1</dim>
					<dim>24</dim>
					<dim>52</dim>
					<dim>52</dim>
				</port>
			</output>
		</layer>
		<layer id="38" name="onnx::Conv_1538" type="Const" version="opset1">
			<data element_type="f32" shape="88, 24, 1, 1" offset="3700" size="8448" />
			<output>
				<port id="0" precision="FP32" names="onnx::Conv_1538">
					<dim>88</dim>
					<dim>24</dim>
					<dim>1</dim>
					<dim>1</dim>
				</port>
			</output>
		</layer>
		<layer id="39" name="/backbone/stage2/stage2.0/branch1/branch1.2/Conv/WithoutBiases" type="Convolution" version="opset1">
			<data strides="1, 1" dilations="1, 1" pads_begin="0, 0" pads_end="0, 0" auto_pad="explicit" />
			<input>
				<port id="0" precision="FP32">
					<dim>1</dim>
					<dim>24</dim>
					<dim>52</dim>
					<dim>52</dim>
				</port>
				<port id="1" precision="FP32">
					<dim>88</dim>
					<dim>24</dim>
					<dim>1</dim>
					<dim>1</dim>
				</port>
			</input>
			<output>
				<port id="2" precision="FP32">
					<dim>1</dim>
					<dim>88</dim>
					<dim>52</dim>
					<dim>52</dim>
				</port>
			</output>
		</layer>
		<layer id="40" name="onnx::Conv_1539" type="Const" version="opset1">
			<data element_type="f32" shape="88" offset="12148" size="352" />
			<output>
				<port id="0" precision="FP32" names="onnx::Conv_1539">
					<dim>88</dim>
				</port>
			</output>
		</layer>
		<layer id="41" name="Constant_411" type="Const" version="opset1">
			<data element_type="i64" shape="1" offset="2688" size="8" />
			<output>
				<port id="0" precision="I64">
					<dim>1</dim>
				</port>
			</output>
		</layer>
		<layer id="42" name="ShapeOf_426" type="ShapeOf" version="opset3">
			<data output_type="i64" />
			<input>
				<port id="0" precision="FP32">
					<dim>88</dim>
				</port>
			</input>
			<output>
				<port id="1" precision="I64">
					<dim>1</dim>
				</port>
			</output>
		</layer>
		<layer id="43" name="ShapeOf_409" type="ShapeOf" version="opset3">
			<data output_type="i64" />
			<input>
				<port id="0" precision="FP32">
					<dim>1</dim>
					<dim>88</dim>
					<dim>52</dim>
					<dim>52</dim>
				</port>
			</input>
			<output>
				<port id="1" precision="I64">
					<dim>4</dim>
				</port>
			</output>
		</layer>
		<layer id="44" name="ShapeOf_410" type="ShapeOf" version="opset3">
			<data output_type="i64" />
			<input>
				<port id="0" precision="I64">
					<dim>4</dim>
				</port>
			</input>
			<output>
				<port id="1" precision="I64">
					<dim>1</dim>
				</port>
			</output>
		</layer>
		<layer id="45" name="Constant_412" type="Const" version="opset1">
			<data element_type="i64" shape="1" offset="2696" size="8" />
			<output>
				<port id="0" precision="I64">
					<dim>1</dim>
				</port>
			</output>
		</layer>
		<layer id="46" name="Subtract_413" type="Subtract" version="opset1">
			<data auto_broadcast="numpy" />
			<input>
				<port id="0" precision="I64">
					<dim>1</dim>
				</port>
				<port id="1" precision="I64">
					<dim>1</dim>
				</port>
			</input>
			<output>
				<port id="2" precision="I64">
					<dim>1</dim>
				</port>
			</output>
		</layer>
		<layer id="47" name="Broadcast_414" type="Broadcast" version="opset3">
			<data mode="numpy" />
			<input>
				<port id="0" precision="I64">
					<dim>1</dim>
				</port>
				<port id="1" precision="I64">
					<dim>1</dim>
				</port>
			</input>
			<output>
				<port id="2" precision="I64">
					<dim>2</dim>
				</port>
			</output>
		</layer>
		<layer id="48" name="Concat_427" type="Concat" version="opset1">
			<data axis="0" />
			<input>
				<port id="0" precision="I64">
					<dim>1</dim>
				</port>
				<port id="1" precision="I64">
					<dim>1</dim>
				</port>
				<port id="2" precision="I64">
					<dim>2</dim>
				</port>
			</input>
			<output>
				<port id="3" precision="I64">
					<dim>4</dim>
				</port>
			</output>
		</layer>
		<layer id="49" name="Reshape_428" type="Reshape" version="opset1">
			<data special_zero="false" />
			<input>
				<port id="0" precision="FP32">
					<dim>88</dim>
				</port>
				<port id="1" precision="I64">
					<dim>4</dim>
				</port>
			</input>
			<output>
				<port id="2" precision="FP32">
					<dim>1</dim>
					<dim>88</dim>
					<dim>1</dim>
					<dim>1</dim>
				</port>
			</output>
		</layer>
		<layer id="50" name="/backbone/stage2/stage2.0/branch1/branch1.2/Conv" type="Add" version="opset1">
			<data auto_broadcast="numpy" />
			<input>
				<port id="0" precision="FP32">
					<dim>1</dim>
					<dim>88</dim>
					<dim>52</dim>
					<dim>52</dim>
				</port>
				<port id="1" precision="FP32">
					<dim>1</dim>
					<dim>88</dim>
					<dim>1</dim>
					<dim>1</dim>
				</port>
			</input>
			<output>
				<port id="2" precision="FP32" names="/backbone/stage2/stage2.0/branch1/branch1.2/Conv_output_0">
					<dim>1</dim>
					<dim>88</dim>
					<dim>52</dim>
					<dim>52</dim>
				</port>
			</output>
		</layer>
		<layer id="51" name="Constant_456" type="Const" version="opset1">
			<data element_type="f32" shape="1" offset="2704" size="4" />
			<output>
				<port id="0" precision="FP32">
					<dim>1</dim>
				</port>
			</output>
		</layer>
		<layer id="52" name="/backbone/stage2/stage2.0/branch1/branch1.4/LeakyRelu" type="PReLU" version="opset1">
			<input>
				<port id="0" precision="FP32">
					<dim>1</dim>
					<dim>88</dim>
					<dim>52</dim>
					<dim>52</dim>
				</port>
				<port id="1" precision="FP32">
					<dim>1</dim>
				</port>
			</input>
			<output>
				<port id="2" precision="FP32" names="/backbone/stage2/stage2.0/branch1/branch1.4/LeakyRelu_output_0">
					<dim>1</dim>
					<dim>88</dim>
					<dim>52</dim>
					<dim>52</dim>
				</port>
			</output>
		</layer>
		<layer id="53" name="onnx::Conv_1541" type="Const" version="opset1">
			<data element_type="f32" shape="88, 24, 1, 1" offset="12500" size="8448" />
			<output>
				<port id="0" precision="FP32" names="onnx::Conv_1541">
					<dim>88</dim>
					<dim>24</dim>
					<dim>1</dim>
					<dim>1</dim>
				</port>
			</output>
		</layer>
		<layer id="54" name="/backbone/stage2/stage2.0/branch2/branch2.0/Conv/WithoutBiases" type="Convolution" version="opset1">
			<data strides="1, 1" dilations="1, 1" pads_begin="0, 0" pads_end="0, 0" auto_pad="explicit" />
			<input>
				<port id="0" precision="FP32">
					<dim>1</dim>
					<dim>24</dim>
					<dim>104</dim>
					<dim>104</dim>
				</port>
				<port id="1" precision="FP32">
					<dim>88</dim>
					<dim>24</dim>
					<dim>1</dim>
					<dim>1</dim>
				</port>
			</input>
			<output>
				<port id="2" precision="FP32">
					<dim>1</dim>
					<dim>88</dim>
					<dim>104</dim>
					<dim>104</dim>
				</port>
			</output>
		</layer>
		<layer id="55" name="onnx::Conv_1542" type="Const" version="opset1">
			<data element_type="f32" shape="88" offset="20948" size="352" />
			<output>
				<port id="0" precision="FP32" names="onnx::Conv_1542">
					<dim>88</dim>
				</port>
			</output>
		</layer>
		<layer id="56" name="Constant_461" type="Const" version="opset1">
			<data element_type="i64" shape="1" offset="2688" size="8" />
			<output>
				<port id="0" precision="I64">
					<dim>1</dim>
				</port>
			</output>
		</layer>
		<layer id="57" name="ShapeOf_476" type="ShapeOf" version="opset3">
			<data output_type="i64" />
			<input>
				<port id="0" precision="FP32">
					<dim>88</dim>
				</port>
			</input>
			<output>
				<port id="1" precision="I64">
					<dim>1</dim>
				</port>
			</output>
		</layer>
		<layer id="58" name="ShapeOf_459" type="ShapeOf" version="opset3">
			<data output_type="i64" />
			<input>
				<port id="0" precision="FP32">
					<dim>1</dim>
					<dim>88</dim>
					<dim>104</dim>
					<dim>104</dim>
				</port>
			</input>
			<output>
				<port id="1" precision="I64">
					<dim>4</dim>
				</port>
			</output>
		</layer>
		<layer id="59" name="ShapeOf_460" type="ShapeOf" version="opset3">
			<data output_type="i64" />
			<input>
				<port id="0" precision="I64">
					<dim>4</dim>
				</port>
			</input>
			<output>
				<port id="1" precision="I64">
					<dim>1</dim>
				</port>
			</output>
		</layer>
		<layer id="60" name="Constant_462" type="Const" version="opset1">
			<data element_type="i64" shape="1" offset="2696" size="8" />
			<output>
				<port id="0" precision="I64">
					<dim>1</dim>
				</port>
			</output>
		</layer>
		<layer id="61" name="Subtract_463" type="Subtract" version="opset1">
			<data auto_broadcast="numpy" />
			<input>
				<port id="0" precision="I64">
					<dim>1</dim>
				</port>
				<port id="1" precision="I64">
					<dim>1</dim>
				</port>
			</input>
			<output>
				<port id="2" precision="I64">
					<dim>1</dim>
				</port>
			</output>
		</layer>
		<layer id="62" name="Broadcast_464" type="Broadcast" version="opset3">
			<data mode="numpy" />
			<input>
				<port id="0" precision="I64">
					<dim>1</dim>
				</port>
				<port id="1" precision="I64">
					<dim>1</dim>
				</port>
			</input>
			<output>
				<port id="2" precision="I64">
					<dim>2</dim>
				</port>
			</output>
		</layer>
		<layer id="63" name="Concat_477" type="Concat" version="opset1">
			<data axis="0" />
			<input>
				<port id="0" precision="I64">
					<dim>1</dim>
				</port>
				<port id="1" precision="I64">
					<dim>1</dim>
				</port>
				<port id="2" precision="I64">
					<dim>2</dim>
				</port>
			</input>
			<output>
				<port id="3" precision="I64">
					<dim>4</dim>
				</port>
			</output>
		</layer>
		<layer id="64" name="Reshape_478" type="Reshape" version="opset1">
			<data special_zero="false" />
			<input>
				<port id="0" precision="FP32">
					<dim>88</dim>
				</port>
				<port id="1" precision="I64">
					<dim>4</dim>
				</port>
			</input>
			<output>
				<port id="2" precision="FP32">
					<dim>1</dim>
					<dim>88</dim>
					<dim>1</dim>
					<dim>1</dim>
				</port>
			</output>
		</layer>
		<layer id="65" name="/backbone/stage2/stage2.0/branch2/branch2.0/Conv" type="Add" version="opset1">
			<data auto_broadcast="numpy" />
			<input>
				<port id="0" precision="FP32">
					<dim>1</dim>
					<dim>88</dim>
					<dim>104</dim>
					<dim>104</dim>
				</port>
				<port id="1" precision="FP32">
					<dim>1</dim>
					<dim>88</dim>
					<dim>1</dim>
					<dim>1</dim>
				</port>
			</input>
			<output>
				<port id="2" precision="FP32" names="/backbone/stage2/stage2.0/branch2/branch2.0/Conv_output_0">
					<dim>1</dim>
					<dim>88</dim>
					<dim>104</dim>
					<dim>104</dim>
				</port>
			</output>
		</layer>
		<layer id="66" name="Constant_506" type="Const" version="opset1">
			<data element_type="f32" shape="1" offset="2704" size="4" />
			<output>
				<port id="0" precision="FP32">
					<dim>1</dim>
				</port>
			</output>
		</layer>
		<layer id="67" name="/backbone/stage2/stage2.0/branch2/branch2.2/LeakyRelu" type="PReLU" version="opset1">
			<input>
				<port id="0" precision="FP32">
					<dim>1</dim>
					<dim>88</dim>
					<dim>104</dim>
					<dim>104</dim>
				</port>
				<port id="1" precision="FP32">
					<dim>1</dim>
				</port>
			</input>
			<output>
				<port id="2" precision="FP32" names="/backbone/stage2/stage2.0/branch2/branch2.2/LeakyRelu_output_0">
					<dim>1</dim>
					<dim>88</dim>
					<dim>104</dim>
					<dim>104</dim>
				</port>
			</output>
		</layer>
		<layer id="68" name="onnx::Conv_1544" type="Const" version="opset1">
			<data element_type="f32" shape="88, 1, 3, 3" offset="21300" size="3168" />
			<output>
				<port id="0" precision="FP32" names="onnx::Conv_1544">
					<dim>88</dim>
					<dim>1</dim>
					<dim>3</dim>
					<dim>3</dim>
				</port>
			</output>
		</layer>
		<layer id="69" name="Constant_510" type="Const" version="opset1">
			<data element_type="i64" shape="1" offset="24468" size="8" />
			<output>
				<port id="0" precision="I64">
					<dim>1</dim>
				</port>
			</output>
		</layer>
		<layer id="70" name="ShapeOf_511" type="ShapeOf" version="opset3">
			<data output_type="i64" />
			<input>
				<port id="0" precision="FP32">
					<dim>88</dim>
					<dim>1</dim>
					<dim>3</dim>
					<dim>3</dim>
				</port>
			</input>
			<output>
				<port id="1" precision="I64">
					<dim>4</dim>
				</port>
			</output>
		</layer>
		<layer id="71" name="Constant_508" type="Const" version="opset1">
			<data element_type="i64" shape="" offset="3580" size="8" />
			<output>
				<port id="0" precision="I64" />
			</output>
		</layer>
		<layer id="72" name="Constant_509" type="Const" version="opset1">
			<data element_type="i64" shape="2" offset="3588" size="16" />
			<output>
				<port id="0" precision="I64">
					<dim>2</dim>
				</port>
			</output>
		</layer>
		<layer id="73" name="VariadicSplit_512" type="VariadicSplit" version="opset1">
			<input>
				<port id="0" precision="I64">
					<dim>4</dim>
				</port>
				<port id="1" precision="I64" />
				<port id="2" precision="I64">
					<dim>2</dim>
				</port>
			</input>
			<output>
				<port id="3" precision="I64">
					<dim>1</dim>
				</port>
				<port id="4" precision="I64">
					<dim>3</dim>
				</port>
			</output>
		</layer>
		<layer id="74" name="Divide_513" type="Divide" version="opset1">
			<data auto_broadcast="numpy" m_pythondiv="true" />
			<input>
				<port id="0" precision="I64">
					<dim>1</dim>
				</port>
				<port id="1" precision="I64">
					<dim>1</dim>
				</port>
			</input>
			<output>
				<port id="2" precision="I64">
					<dim>1</dim>
				</port>
			</output>
		</layer>
		<layer id="75" name="Concat_514" type="Concat" version="opset1">
			<data axis="0" />
			<input>
				<port id="0" precision="I64">
					<dim>1</dim>
				</port>
				<port id="1" precision="I64">
					<dim>1</dim>
				</port>
				<port id="2" precision="I64">
					<dim>3</dim>
				</port>
			</input>
			<output>
				<port id="3" precision="I64">
					<dim>5</dim>
				</port>
			</output>
		</layer>
		<layer id="76" name="Reshape_515" type="Reshape" version="opset1">
			<data special_zero="false" />
			<input>
				<port id="0" precision="FP32">
					<dim>88</dim>
					<dim>1</dim>
					<dim>3</dim>
					<dim>3</dim>
				</port>
				<port id="1" precision="I64">
					<dim>5</dim>
				</port>
			</input>
			<output>
				<port id="2" precision="FP32">
					<dim>88</dim>
					<dim>1</dim>
					<dim>1</dim>
					<dim>3</dim>
					<dim>3</dim>
				</port>
			</output>
		</layer>
		<layer id="77" name="/backbone/stage2/stage2.0/branch2/branch2.3/Conv/WithoutBiases" type="GroupConvolution" version="opset1">
			<data strides="2, 2" pads_begin="1, 1" pads_end="1, 1" dilations="1, 1" auto_pad="explicit" />
			<input>
				<port id="0" precision="FP32">
					<dim>1</dim>
					<dim>88</dim>
					<dim>104</dim>
					<dim>104</dim>
				</port>
				<port id="1" precision="FP32">
					<dim>88</dim>
					<dim>1</dim>
					<dim>1</dim>
					<dim>3</dim>
					<dim>3</dim>
				</port>
			</input>
			<output>
				<port id="2" precision="FP32">
					<dim>1</dim>
					<dim>88</dim>
					<dim>52</dim>
					<dim>52</dim>
				</port>
			</output>
		</layer>
		<layer id="78" name="onnx::Conv_1545" type="Const" version="opset1">
			<data element_type="f32" shape="88" offset="24476" size="352" />
			<output>
				<port id="0" precision="FP32" names="onnx::Conv_1545">
					<dim>88</dim>
				</port>
			</output>
		</layer>
		<layer id="79" name="Constant_584" type="Const" version="opset1">
			<data element_type="i64" shape="1" offset="2688" size="8" />
			<output>
				<port id="0" precision="I64">
					<dim>1</dim>
				</port>
			</output>
		</layer>
		<layer id="80" name="ShapeOf_599" type="ShapeOf" version="opset3">
			<data output_type="i64" />
			<input>
				<port id="0" precision="FP32">
					<dim>88</dim>
				</port>
			</input>
			<output>
				<port id="1" precision="I64">
					<dim>1</dim>
				</port>
			</output>
		</layer>
		<layer id="81" name="ShapeOf_582" type="ShapeOf" version="opset3">
			<data output_type="i64" />
			<input>
				<port id="0" precision="FP32">
					<dim>1</dim>
					<dim>88</dim>
					<dim>52</dim>
					<dim>52</dim>
				</port>
			</input>
			<output>
				<port id="1" precision="I64">
					<dim>4</dim>
				</port>
			</output>
		</layer>
		<layer id="82" name="ShapeOf_583" type="ShapeOf" version="opset3">
			<data output_type="i64" />
			<input>
				<port id="0" precision="I64">
					<dim>4</dim>
				</port>
			</input>
			<output>
				<port id="1" precision="I64">
					<dim>1</dim>
				</port>
			</output>
		</layer>
		<layer id="83" name="Constant_585" type="Const" version="opset1">
			<data element_type="i64" shape="1" offset="2696" size="8" />
			<output>
				<port id="0" precision="I64">
					<dim>1</dim>
				</port>
			</output>
		</layer>
		<layer id="84" name="Subtract_586" type="Subtract" version="opset1">
			<data auto_broadcast="numpy" />
			<input>
				<port id="0" precision="I64">
					<dim>1</dim>
				</port>
				<port id="1" precision="I64">
					<dim>1</dim>
				</port>
			</input>
			<output>
				<port id="2" precision="I64">
					<dim>1</dim>
				</port>
			</output>
		</layer>
		<layer id="85" name="Broadcast_587" type="Broadcast" version="opset3">
			<data mode="numpy" />
			<input>
				<port id="0" precision="I64">
					<dim>1</dim>
				</port>
				<port id="1" precision="I64">
					<dim>1</dim>
				</port>
			</input>
			<output>
				<port id="2" precision="I64">
					<dim>2</dim>
				</port>
			</output>
		</layer>
		<layer id="86" name="Concat_600" type="Concat" version="opset1">
			<data axis="0" />
			<input>
				<port id="0" precision="I64">
					<dim>1</dim>
				</port>
				<port id="1" precision="I64">
					<dim>1</dim>
				</port>
				<port id="2" precision="I64">
					<dim>2</dim>
				</port>
			</input>
			<output>
				<port id="3" precision="I64">
					<dim>4</dim>
				</port>
			</output>
		</layer>
		<layer id="87" name="Reshape_601" type="Reshape" version="opset1">
			<data special_zero="false" />
			<input>
				<port id="0" precision="FP32">
					<dim>88</dim>
				</port>
				<port id="1" precision="I64">
					<dim>4</dim>
				</port>
			</input>
			<output>
				<port id="2" precision="FP32">
					<dim>1</dim>
					<dim>88</dim>
					<dim>1</dim>
					<dim>1</dim>
				</port>
			</output>
		</layer>
		<layer id="88" name="/backbone/stage2/stage2.0/branch2/branch2.3/Conv" type="Add" version="opset1">
			<data auto_broadcast="numpy" />
			<input>
				<port id="0" precision="FP32">
					<dim>1</dim>
					<dim>88</dim>
					<dim>52</dim>
					<dim>52</dim>
				</port>
				<port id="1" precision="FP32">
					<dim>1</dim>
					<dim>88</dim>
					<dim>1</dim>
					<dim>1</dim>
				</port>
			</input>
			<output>
				<port id="2" precision="FP32" names="/backbone/stage2/stage2.0/branch2/branch2.3/Conv_output_0">
					<dim>1</dim>
					<dim>88</dim>
					<dim>52</dim>
					<dim>52</dim>
				</port>
			</output>
		</layer>
		<layer id="89" name="onnx::Conv_1547" type="Const" version="opset1">
			<data element_type="f32" shape="88, 88, 1, 1" offset="24828" size="30976" />
			<output>
				<port id="0" precision="FP32" names="onnx::Conv_1547">
					<dim>88</dim>
					<dim>88</dim>
					<dim>1</dim>
					<dim>1</dim>
				</port>
			</output>
		</layer>
		<layer id="90" name="/backbone/stage2/stage2.0/branch2/branch2.5/Conv/WithoutBiases" type="Convolution" version="opset1">
			<data strides="1, 1" dilations="1, 1" pads_begin="0, 0" pads_end="0, 0" auto_pad="explicit" />
			<input>
				<port id="0" precision="FP32">
					<dim>1</dim>
					<dim>88</dim>
					<dim>52</dim>
					<dim>52</dim>
				</port>
				<port id="1" precision="FP32">
					<dim>88</dim>
					<dim>88</dim>
					<dim>1</dim>
					<dim>1</dim>
				</port>
			</input>
			<output>
				<port id="2" precision="FP32">
					<dim>1</dim>
					<dim>88</dim>
					<dim>52</dim>
					<dim>52</dim>
				</port>
			</output>
		</layer>
		<layer id="91" name="onnx::Conv_1548" type="Const" version="opset1">
			<data element_type="f32" shape="88" offset="55804" size="352" />
			<output>
				<port id="0" precision="FP32" names="onnx::Conv_1548">
					<dim>88</dim>
				</port>
			</output>
		</layer>
		<layer id="92" name="Constant_632" type="Const" version="opset1">
			<data element_type="i64" shape="1" offset="2688" size="8" />
			<output>
				<port id="0" precision="I64">
					<dim>1</dim>
				</port>
			</output>
		</layer>
		<layer id="93" name="ShapeOf_647" type="ShapeOf" version="opset3">
			<data output_type="i64" />
			<input>
				<port id="0" precision="FP32">
					<dim>88</dim>
				</port>
			</input>
			<output>
				<port id="1" precision="I64">
					<dim>1</dim>
				</port>
			</output>
		</layer>
		<layer id="94" name="ShapeOf_630" type="ShapeOf" version="opset3">
			<data output_type="i64" />
			<input>
				<port id="0" precision="FP32">
					<dim>1</dim>
					<dim>88</dim>
					<dim>52</dim>
					<dim>52</dim>
				</port>
			</input>
			<output>
				<port id="1" precision="I64">
					<dim>4</dim>
				</port>
			</output>
		</layer>
		<layer id="95" name="ShapeOf_631" type="ShapeOf" version="opset3">
			<data output_type="i64" />
			<input>
				<port id="0" precision="I64">
					<dim>4</dim>
				</port>
			</input>
			<output>
				<port id="1" precision="I64">
					<dim>1</dim>
				</port>
			</output>
		</layer>
		<layer id="96" name="Constant_633" type="Const" version="opset1">
			<data element_type="i64" shape="1" offset="2696" size="8" />
			<output>
				<port id="0" precision="I64">
					<dim>1</dim>
				</port>
			</output>
		</layer>
		<layer id="97" name="Subtract_634" type="Subtract" version="opset1">
			<data auto_broadcast="numpy" />
			<input>
				<port id="0" precision="I64">
					<dim>1</dim>
				</port>
				<port id="1" precision="I64">
					<dim>1</dim>
				</port>
			</input>
			<output>
				<port id="2" precision="I64">
					<dim>1</dim>
				</port>
			</output>
		</layer>
		<layer id="98" name="Broadcast_635" type="Broadcast" version="opset3">
			<data mode="numpy" />
			<input>
				<port id="0" precision="I64">
					<dim>1</dim>
				</port>
				<port id="1" precision="I64">
					<dim>1</dim>
				</port>
			</input>
			<output>
				<port id="2" precision="I64">
					<dim>2</dim>
				</port>
			</output>
		</layer>
		<layer id="99" name="Concat_648" type="Concat" version="opset1">
			<data axis="0" />
			<input>
				<port id="0" precision="I64">
					<dim>1</dim>
				</port>
				<port id="1" precision="I64">
					<dim>1</dim>
				</port>
				<port id="2" precision="I64">
					<dim>2</dim>
				</port>
			</input>
			<output>
				<port id="3" precision="I64">
					<dim>4</dim>
				</port>
			</output>
		</layer>
		<layer id="100" name="Reshape_649" type="Reshape" version="opset1">
			<data special_zero="false" />
			<input>
				<port id="0" precision="FP32">
					<dim>88</dim>
				</port>
				<port id="1" precision="I64">
					<dim>4</dim>
				</port>
			</input>
			<output>
				<port id="2" precision="FP32">
					<dim>1</dim>
					<dim>88</dim>
					<dim>1</dim>
					<dim>1</dim>
				</port>
			</output>
		</layer>
		<layer id="101" name="/backbone/stage2/stage2.0/branch2/branch2.5/Conv" type="Add" version="opset1">
			<data auto_broadcast="numpy" />
			<input>
				<port id="0" precision="FP32">
					<dim>1</dim>
					<dim>88</dim>
					<dim>52</dim>
					<dim>52</dim>
				</port>
				<port id="1" precision="FP32">
					<dim>1</dim>
					<dim>88</dim>
					<dim>1</dim>
					<dim>1</dim>
				</port>
			</input>
			<output>
				<port id="2" precision="FP32" names="/backbone/stage2/stage2.0/branch2/branch2.5/Conv_output_0">
					<dim>1</dim>
					<dim>88</dim>
					<dim>52</dim>
					<dim>52</dim>
				</port>
			</output>
		</layer>
		<layer id="102" name="Constant_677" type="Const" version="opset1">
			<data element_type="f32" shape="1" offset="2704" size="4" />
			<output>
				<port id="0" precision="FP32">
					<dim>1</dim>
				</port>
			</output>
		</layer>
		<layer id="103" name="/backbone/stage2/stage2.0/branch2/branch2.7/LeakyRelu" type="PReLU" version="opset1">
			<input>
				<port id="0" precision="FP32">
					<dim>1</dim>
					<dim>88</dim>
					<dim>52</dim>
					<dim>52</dim>
				</port>
				<port id="1" precision="FP32">
					<dim>1</dim>
				</port>
			</input>
			<output>
				<port id="2" precision="FP32" names="/backbone/stage2/stage2.0/branch2/branch2.7/LeakyRelu_output_0">
					<dim>1</dim>
					<dim>88</dim>
					<dim>52</dim>
					<dim>52</dim>
				</port>
			</output>
		</layer>
		<layer id="104" name="/backbone/stage2/stage2.0/Concat" type="Concat" version="opset1">
			<data axis="1" />
			<input>
				<port id="0" precision="FP32">
					<dim>1</dim>
					<dim>88</dim>
					<dim>52</dim>
					<dim>52</dim>
				</port>
				<port id="1" precision="FP32">
					<dim>1</dim>
					<dim>88</dim>
					<dim>52</dim>
					<dim>52</dim>
				</port>
			</input>
			<output>
				<port id="2" precision="FP32" names="/backbone/stage2/stage2.0/Concat_output_0">
					<dim>1</dim>
					<dim>176</dim>
					<dim>52</dim>
					<dim>52</dim>
				</port>
			</output>
		</layer>
		<layer id="105" name="/backbone/stage2/stage2.0/Constant_output_0" type="Const" version="opset1">
			<data element_type="i64" shape="5" offset="56156" size="40" />
			<output>
				<port id="0" precision="I64" names="/backbone/stage2/stage2.0/Constant_output_0">
					<dim>5</dim>
				</port>
			</output>
		</layer>
		<layer id="106" name="/backbone/stage2/stage2.0/Reshape" type="Reshape" version="opset1">
			<data special_zero="true" />
			<input>
				<port id="0" precision="FP32">
					<dim>1</dim>
					<dim>176</dim>
					<dim>52</dim>
					<dim>52</dim>
				</port>
				<port id="1" precision="I64">
					<dim>5</dim>
				</port>
			</input>
			<output>
				<port id="2" precision="FP32" names="/backbone/stage2/stage2.0/Reshape_output_0">
					<dim>1</dim>
					<dim>2</dim>
					<dim>88</dim>
					<dim>52</dim>
					<dim>52</dim>
				</port>
			</output>
		</layer>
		<layer id="107" name="Constant_686" type="Const" version="opset1">
			<data element_type="i64" shape="5" offset="56196" size="40" />
			<output>
				<port id="0" precision="I64">
					<dim>5</dim>
				</port>
			</output>
		</layer>
		<layer id="108" name="/backbone/stage2/stage2.0/Transpose" type="Transpose" version="opset1">
			<input>
				<port id="0" precision="FP32">
					<dim>1</dim>
					<dim>2</dim>
					<dim>88</dim>
					<dim>52</dim>
					<dim>52</dim>
				</port>
				<port id="1" precision="I64">
					<dim>5</dim>
				</port>
			</input>
			<output>
				<port id="2" precision="FP32" names="/backbone/stage2/stage2.0/Transpose_output_0">
					<dim>1</dim>
					<dim>88</dim>
					<dim>2</dim>
					<dim>52</dim>
					<dim>52</dim>
				</port>
			</output>
		</layer>
		<layer id="109" name="/backbone/stage2/stage2.0/Constant_1_output_0" type="Const" version="opset1">
			<data element_type="i64" shape="4" offset="56236" size="32" />
			<output>
				<port id="0" precision="I64" names="/backbone/stage2/stage2.0/Constant_1_output_0">
					<dim>4</dim>
				</port>
			</output>
		</layer>
		<layer id="110" name="/backbone/stage2/stage2.0/Reshape_1" type="Reshape" version="opset1">
			<data special_zero="true" />
			<input>
				<port id="0" precision="FP32">
					<dim>1</dim>
					<dim>88</dim>
					<dim>2</dim>
					<dim>52</dim>
					<dim>52</dim>
				</port>
				<port id="1" precision="I64">
					<dim>4</dim>
				</port>
			</input>
			<output>
				<port id="2" precision="FP32" names="/backbone/stage2/stage2.0/Reshape_1_output_0">
					<dim>1</dim>
					<dim>176</dim>
					<dim>52</dim>
					<dim>52</dim>
				</port>
			</output>
		</layer>
		<layer id="111" name="/backbone/stage2/stage2.1/Constant_1_output_0" type="Const" version="opset1">
			<data element_type="i64" shape="1" offset="3580" size="8" />
			<output>
				<port id="0" precision="I64" names="/backbone/stage2/stage2.1/Constant_1_output_0">
					<dim>1</dim>
				</port>
			</output>
		</layer>
		<layer id="112" name="/backbone/stage2/stage2.1/Div_output_0" type="Const" version="opset1">
			<data element_type="i64" shape="1" offset="24468" size="8" />
			<output>
				<port id="0" precision="I64" names="/backbone/stage2/stage2.1/Div_output_0">
					<dim>1</dim>
				</port>
			</output>
		</layer>
		<layer id="113" name="Constant_694" type="Const" version="opset1">
			<data element_type="i64" shape="1" offset="2688" size="8" />
			<output>
				<port id="0" precision="I64">
					<dim>1</dim>
				</port>
			</output>
		</layer>
		<layer id="114" name="ShapeOf_695" type="ShapeOf" version="opset3">
			<data output_type="i64" />
			<input>
				<port id="0" precision="I64">
					<dim>1</dim>
				</port>
			</input>
			<output>
				<port id="1" precision="I64">
					<dim>1</dim>
				</port>
			</output>
		</layer>
		<layer id="115" name="Broadcast_696" type="Broadcast" version="opset3">
			<data mode="numpy" />
			<input>
				<port id="0" precision="I64">
					<dim>1</dim>
				</port>
				<port id="1" precision="I64">
					<dim>1</dim>
				</port>
			</input>
			<output>
				<port id="2" precision="I64">
					<dim>1</dim>
				</port>
			</output>
		</layer>
		<layer id="116" name="/backbone/stage2/stage2.1/Constant_output_0" type="Const" version="opset1">
			<data element_type="i64" shape="1" offset="2688" size="8" />
			<output>
				<port id="0" precision="I64" names="/backbone/stage2/stage2.1/Constant_output_0">
					<dim>1</dim>
				</port>
			</output>
		</layer>
		<layer id="117" name="/backbone/stage2/stage2.1/Slice" type="Slice" version="opset8">
			<input>
				<port id="0" precision="FP32">
					<dim>1</dim>
					<dim>176</dim>
					<dim>52</dim>
					<dim>52</dim>
				</port>
				<port id="1" precision="I64">
					<dim>1</dim>
				</port>
				<port id="2" precision="I64">
					<dim>1</dim>
				</port>
				<port id="3" precision="I64">
					<dim>1</dim>
				</port>
				<port id="4" precision="I64">
					<dim>1</dim>
				</port>
			</input>
			<output>
				<port id="5" precision="FP32" names="/backbone/stage2/stage2.1/Slice_output_0">
					<dim>1</dim>
					<dim>88</dim>
					<dim>52</dim>
					<dim>52</dim>
				</port>
			</output>
		</layer>
		<layer id="118" name="/backbone/stage2/stage2.1/Mul_1_output_0" type="Const" version="opset1">
			<data element_type="i64" shape="1" offset="56268" size="8" />
			<output>
				<port id="0" precision="I64" names="/backbone/stage2/stage2.1/Mul_1_output_0">
					<dim>1</dim>
				</port>
			</output>
		</layer>
		<layer id="119" name="Constant_713" type="Const" version="opset1">
			<data element_type="i64" shape="1" offset="2688" size="8" />
			<output>
				<port id="0" precision="I64">
					<dim>1</dim>
				</port>
			</output>
		</layer>
		<layer id="120" name="ShapeOf_714" type="ShapeOf" version="opset3">
			<data output_type="i64" />
			<input>
				<port id="0" precision="I64">
					<dim>1</dim>
				</port>
			</input>
			<output>
				<port id="1" precision="I64">
					<dim>1</dim>
				</port>
			</output>
		</layer>
		<layer id="121" name="Broadcast_715" type="Broadcast" version="opset3">
			<data mode="numpy" />
			<input>
				<port id="0" precision="I64">
					<dim>1</dim>
				</port>
				<port id="1" precision="I64">
					<dim>1</dim>
				</port>
			</input>
			<output>
				<port id="2" precision="I64">
					<dim>1</dim>
				</port>
			</output>
		</layer>
		<layer id="122" name="/backbone/stage2/stage2.1/Slice_1" type="Slice" version="opset8">
			<input>
				<port id="0" precision="FP32">
					<dim>1</dim>
					<dim>176</dim>
					<dim>52</dim>
					<dim>52</dim>
				</port>
				<port id="1" precision="I64">
					<dim>1</dim>
				</port>
				<port id="2" precision="I64">
					<dim>1</dim>
				</port>
				<port id="3" precision="I64">
					<dim>1</dim>
				</port>
				<port id="4" precision="I64">
					<dim>1</dim>
				</port>
			</input>
			<output>
				<port id="5" precision="FP32" names="/backbone/stage2/stage2.1/Slice_1_output_0">
					<dim>1</dim>
					<dim>88</dim>
					<dim>52</dim>
					<dim>52</dim>
				</port>
			</output>
		</layer>
		<layer id="123" name="onnx::Conv_1550" type="Const" version="opset1">
			<data element_type="f32" shape="88, 88, 1, 1" offset="56276" size="30976" />
			<output>
				<port id="0" precision="FP32" names="onnx::Conv_1550">
					<dim>88</dim>
					<dim>88</dim>
					<dim>1</dim>
					<dim>1</dim>
				</port>
			</output>
		</layer>
		<layer id="124" name="/backbone/stage2/stage2.1/branch2/branch2.0/Conv/WithoutBiases" type="Convolution" version="opset1">
			<data strides="1, 1" dilations="1, 1" pads_begin="0, 0" pads_end="0, 0" auto_pad="explicit" />
			<input>
				<port id="0" precision="FP32">
					<dim>1</dim>
					<dim>88</dim>
					<dim>52</dim>
					<dim>52</dim>
				</port>
				<port id="1" precision="FP32">
					<dim>88</dim>
					<dim>88</dim>
					<dim>1</dim>
					<dim>1</dim>
				</port>
			</input>
			<output>
				<port id="2" precision="FP32">
					<dim>1</dim>
					<dim>88</dim>
					<dim>52</dim>
					<dim>52</dim>
				</port>
			</output>
		</layer>
		<layer id="125" name="onnx::Conv_1551" type="Const" version="opset1">
			<data element_type="f32" shape="88" offset="87252" size="352" />
			<output>
				<port id="0" precision="FP32" names="onnx::Conv_1551">
					<dim>88</dim>
				</port>
			</output>
		</layer>
		<layer id="126" name="Constant_735" type="Const" version="opset1">
			<data element_type="i64" shape="1" offset="2688" size="8" />
			<output>
				<port id="0" precision="I64">
					<dim>1</dim>
				</port>
			</output>
		</layer>
		<layer id="127" name="ShapeOf_750" type="ShapeOf" version="opset3">
			<data output_type="i64" />
			<input>
				<port id="0" precision="FP32">
					<dim>88</dim>
				</port>
			</input>
			<output>
				<port id="1" precision="I64">
					<dim>1</dim>
				</port>
			</output>
		</layer>
		<layer id="128" name="ShapeOf_733" type="ShapeOf" version="opset3">
			<data output_type="i64" />
			<input>
				<port id="0" precision="FP32">
					<dim>1</dim>
					<dim>88</dim>
					<dim>52</dim>
					<dim>52</dim>
				</port>
			</input>
			<output>
				<port id="1" precision="I64">
					<dim>4</dim>
				</port>
			</output>
		</layer>
		<layer id="129" name="ShapeOf_734" type="ShapeOf" version="opset3">
			<data output_type="i64" />
			<input>
				<port id="0" precision="I64">
					<dim>4</dim>
				</port>
			</input>
			<output>
				<port id="1" precision="I64">
					<dim>1</dim>
				</port>
			</output>
		</layer>
		<layer id="130" name="Constant_736" type="Const" version="opset1">
			<data element_type="i64" shape="1" offset="2696" size="8" />
			<output>
				<port id="0" precision="I64">
					<dim>1</dim>
				</port>
			</output>
		</layer>
		<layer id="131" name="Subtract_737" type="Subtract" version="opset1">
			<data auto_broadcast="numpy" />
			<input>
				<port id="0" precision="I64">
					<dim>1</dim>
				</port>
				<port id="1" precision="I64">
					<dim>1</dim>
				</port>
			</input>
			<output>
				<port id="2" precision="I64">
					<dim>1</dim>
				</port>
			</output>
		</layer>
		<layer id="132" name="Broadcast_738" type="Broadcast" version="opset3">
			<data mode="numpy" />
			<input>
				<port id="0" precision="I64">
					<dim>1</dim>
				</port>
				<port id="1" precision="I64">
					<dim>1</dim>
				</port>
			</input>
			<output>
				<port id="2" precision="I64">
					<dim>2</dim>
				</port>
			</output>
		</layer>
		<layer id="133" name="Concat_751" type="Concat" version="opset1">
			<data axis="0" />
			<input>
				<port id="0" precision="I64">
					<dim>1</dim>
				</port>
				<port id="1" precision="I64">
					<dim>1</dim>
				</port>
				<port id="2" precision="I64">
					<dim>2</dim>
				</port>
			</input>
			<output>
				<port id="3" precision="I64">
					<dim>4</dim>
				</port>
			</output>
		</layer>
		<layer id="134" name="Reshape_752" type="Reshape" version="opset1">
			<data special_zero="false" />
			<input>
				<port id="0" precision="FP32">
					<dim>88</dim>
				</port>
				<port id="1" precision="I64">
					<dim>4</dim>
				</port>
			</input>
			<output>
				<port id="2" precision="FP32">
					<dim>1</dim>
					<dim>88</dim>
					<dim>1</dim>
					<dim>1</dim>
				</port>
			</output>
		</layer>
		<layer id="135" name="/backbone/stage2/stage2.1/branch2/branch2.0/Conv" type="Add" version="opset1">
			<data auto_broadcast="numpy" />
			<input>
				<port id="0" precision="FP32">
					<dim>1</dim>
					<dim>88</dim>
					<dim>52</dim>
					<dim>52</dim>
				</port>
				<port id="1" precision="FP32">
					<dim>1</dim>
					<dim>88</dim>
					<dim>1</dim>
					<dim>1</dim>
				</port>
			</input>
			<output>
				<port id="2" precision="FP32" names="/backbone/stage2/stage2.1/branch2/branch2.0/Conv_output_0">
					<dim>1</dim>
					<dim>88</dim>
					<dim>52</dim>
					<dim>52</dim>
				</port>
			</output>
		</layer>
		<layer id="136" name="Constant_780" type="Const" version="opset1">
			<data element_type="f32" shape="1" offset="2704" size="4" />
			<output>
				<port id="0" precision="FP32">
					<dim>1</dim>
				</port>
			</output>
		</layer>
		<layer id="137" name="/backbone/stage2/stage2.1/branch2/branch2.2/LeakyRelu" type="PReLU" version="opset1">
			<input>
				<port id="0" precision="FP32">
					<dim>1</dim>
					<dim>88</dim>
					<dim>52</dim>
					<dim>52</dim>
				</port>
				<port id="1" precision="FP32">
					<dim>1</dim>
				</port>
			</input>
			<output>
				<port id="2" precision="FP32" names="/backbone/stage2/stage2.1/branch2/branch2.2/LeakyRelu_output_0">
					<dim>1</dim>
					<dim>88</dim>
					<dim>52</dim>
					<dim>52</dim>
				</port>
			</output>
		</layer>
		<layer id="138" name="onnx::Conv_1553" type="Const" version="opset1">
			<data element_type="f32" shape="88, 1, 3, 3" offset="87604" size="3168" />
			<output>
				<port id="0" precision="FP32" names="onnx::Conv_1553">
					<dim>88</dim>
					<dim>1</dim>
					<dim>3</dim>
					<dim>3</dim>
				</port>
			</output>
		</layer>
		<layer id="139" name="Constant_784" type="Const" version="opset1">
			<data element_type="i64" shape="1" offset="24468" size="8" />
			<output>
				<port id="0" precision="I64">
					<dim>1</dim>
				</port>
			</output>
		</layer>
		<layer id="140" name="ShapeOf_785" type="ShapeOf" version="opset3">
			<data output_type="i64" />
			<input>
				<port id="0" precision="FP32">
					<dim>88</dim>
					<dim>1</dim>
					<dim>3</dim>
					<dim>3</dim>
				</port>
			</input>
			<output>
				<port id="1" precision="I64">
					<dim>4</dim>
				</port>
			</output>
		</layer>
		<layer id="141" name="Constant_782" type="Const" version="opset1">
			<data element_type="i64" shape="" offset="3580" size="8" />
			<output>
				<port id="0" precision="I64" />
			</output>
		</layer>
		<layer id="142" name="Constant_783" type="Const" version="opset1">
			<data element_type="i64" shape="2" offset="3588" size="16" />
			<output>
				<port id="0" precision="I64">
					<dim>2</dim>
				</port>
			</output>
		</layer>
		<layer id="143" name="VariadicSplit_786" type="VariadicSplit" version="opset1">
			<input>
				<port id="0" precision="I64">
					<dim>4</dim>
				</port>
				<port id="1" precision="I64" />
				<port id="2" precision="I64">
					<dim>2</dim>
				</port>
			</input>
			<output>
				<port id="3" precision="I64">
					<dim>1</dim>
				</port>
				<port id="4" precision="I64">
					<dim>3</dim>
				</port>
			</output>
		</layer>
		<layer id="144" name="Divide_787" type="Divide" version="opset1">
			<data auto_broadcast="numpy" m_pythondiv="true" />
			<input>
				<port id="0" precision="I64">
					<dim>1</dim>
				</port>
				<port id="1" precision="I64">
					<dim>1</dim>
				</port>
			</input>
			<output>
				<port id="2" precision="I64">
					<dim>1</dim>
				</port>
			</output>
		</layer>
		<layer id="145" name="Concat_788" type="Concat" version="opset1">
			<data axis="0" />
			<input>
				<port id="0" precision="I64">
					<dim>1</dim>
				</port>
				<port id="1" precision="I64">
					<dim>1</dim>
				</port>
				<port id="2" precision="I64">
					<dim>3</dim>
				</port>
			</input>
			<output>
				<port id="3" precision="I64">
					<dim>5</dim>
				</port>
			</output>
		</layer>
		<layer id="146" name="Reshape_789" type="Reshape" version="opset1">
			<data special_zero="false" />
			<input>
				<port id="0" precision="FP32">
					<dim>88</dim>
					<dim>1</dim>
					<dim>3</dim>
					<dim>3</dim>
				</port>
				<port id="1" precision="I64">
					<dim>5</dim>
				</port>
			</input>
			<output>
				<port id="2" precision="FP32">
					<dim>88</dim>
					<dim>1</dim>
					<dim>1</dim>
					<dim>3</dim>
					<dim>3</dim>
				</port>
			</output>
		</layer>
		<layer id="147" name="/backbone/stage2/stage2.1/branch2/branch2.3/Conv/WithoutBiases" type="GroupConvolution" version="opset1">
			<data strides="1, 1" pads_begin="1, 1" pads_end="1, 1" dilations="1, 1" auto_pad="explicit" />
			<input>
				<port id="0" precision="FP32">
					<dim>1</dim>
					<dim>88</dim>
					<dim>52</dim>
					<dim>52</dim>
				</port>
				<port id="1" precision="FP32">
					<dim>88</dim>
					<dim>1</dim>
					<dim>1</dim>
					<dim>3</dim>
					<dim>3</dim>
				</port>
			</input>
			<output>
				<port id="2" precision="FP32">
					<dim>1</dim>
					<dim>88</dim>
					<dim>52</dim>
					<dim>52</dim>
				</port>
			</output>
		</layer>
		<layer id="148" name="onnx::Conv_1554" type="Const" version="opset1">
			<data element_type="f32" shape="88" offset="90772" size="352" />
			<output>
				<port id="0" precision="FP32" names="onnx::Conv_1554">
					<dim>88</dim>
				</port>
			</output>
		</layer>
		<layer id="149" name="Constant_858" type="Const" version="opset1">
			<data element_type="i64" shape="1" offset="2688" size="8" />
			<output>
				<port id="0" precision="I64">
					<dim>1</dim>
				</port>
			</output>
		</layer>
		<layer id="150" name="ShapeOf_873" type="ShapeOf" version="opset3">
			<data output_type="i64" />
			<input>
				<port id="0" precision="FP32">
					<dim>88</dim>
				</port>
			</input>
			<output>
				<port id="1" precision="I64">
					<dim>1</dim>
				</port>
			</output>
		</layer>
		<layer id="151" name="ShapeOf_856" type="ShapeOf" version="opset3">
			<data output_type="i64" />
			<input>
				<port id="0" precision="FP32">
					<dim>1</dim>
					<dim>88</dim>
					<dim>52</dim>
					<dim>52</dim>
				</port>
			</input>
			<output>
				<port id="1" precision="I64">
					<dim>4</dim>
				</port>
			</output>
		</layer>
		<layer id="152" name="ShapeOf_857" type="ShapeOf" version="opset3">
			<data output_type="i64" />
			<input>
				<port id="0" precision="I64">
					<dim>4</dim>
				</port>
			</input>
			<output>
				<port id="1" precision="I64">
					<dim>1</dim>
				</port>
			</output>
		</layer>
		<layer id="153" name="Constant_859" type="Const" version="opset1">
			<data element_type="i64" shape="1" offset="2696" size="8" />
			<output>
				<port id="0" precision="I64">
					<dim>1</dim>
				</port>
			</output>
		</layer>
		<layer id="154" name="Subtract_860" type="Subtract" version="opset1">
			<data auto_broadcast="numpy" />
			<input>
				<port id="0" precision="I64">
					<dim>1</dim>
				</port>
				<port id="1" precision="I64">
					<dim>1</dim>
				</port>
			</input>
			<output>
				<port id="2" precision="I64">
					<dim>1</dim>
				</port>
			</output>
		</layer>
		<layer id="155" name="Broadcast_861" type="Broadcast" version="opset3">
			<data mode="numpy" />
			<input>
				<port id="0" precision="I64">
					<dim>1</dim>
				</port>
				<port id="1" precision="I64">
					<dim>1</dim>
				</port>
			</input>
			<output>
				<port id="2" precision="I64">
					<dim>2</dim>
				</port>
			</output>
		</layer>
		<layer id="156" name="Concat_874" type="Concat" version="opset1">
			<data axis="0" />
			<input>
				<port id="0" precision="I64">
					<dim>1</dim>
				</port>
				<port id="1" precision="I64">
					<dim>1</dim>
				</port>
				<port id="2" precision="I64">
					<dim>2</dim>
				</port>
			</input>
			<output>
				<port id="3" precision="I64">
					<dim>4</dim>
				</port>
			</output>
		</layer>
		<layer id="157" name="Reshape_875" type="Reshape" version="opset1">
			<data special_zero="false" />
			<input>
				<port id="0" precision="FP32">
					<dim>88</dim>
				</port>
				<port id="1" precision="I64">
					<dim>4</dim>
				</port>
			</input>
			<output>
				<port id="2" precision="FP32">
					<dim>1</dim>
					<dim>88</dim>
					<dim>1</dim>
					<dim>1</dim>
				</port>
			</output>
		</layer>
		<layer id="158" name="/backbone/stage2/stage2.1/branch2/branch2.3/Conv" type="Add" version="opset1">
			<data auto_broadcast="numpy" />
			<input>
				<port id="0" precision="FP32">
					<dim>1</dim>
					<dim>88</dim>
					<dim>52</dim>
					<dim>52</dim>
				</port>
				<port id="1" precision="FP32">
					<dim>1</dim>
					<dim>88</dim>
					<dim>1</dim>
					<dim>1</dim>
				</port>
			</input>
			<output>
				<port id="2" precision="FP32" names="/backbone/stage2/stage2.1/branch2/branch2.3/Conv_output_0">
					<dim>1</dim>
					<dim>88</dim>
					<dim>52</dim>
					<dim>52</dim>
				</port>
			</output>
		</layer>
		<layer id="159" name="onnx::Conv_1556" type="Const" version="opset1">
			<data element_type="f32" shape="88, 88, 1, 1" offset="91124" size="30976" />
			<output>
				<port id="0" precision="FP32" names="onnx::Conv_1556">
					<dim>88</dim>
					<dim>88</dim>
					<dim>1</dim>
					<dim>1</dim>
				</port>
			</output>
		</layer>
		<layer id="160" name="/backbone/stage2/stage2.1/branch2/branch2.5/Conv/WithoutBiases" type="Convolution" version="opset1">
			<data strides="1, 1" dilations="1, 1" pads_begin="0, 0" pads_end="0, 0" auto_pad="explicit" />
			<input>
				<port id="0" precision="FP32">
					<dim>1</dim>
					<dim>88</dim>
					<dim>52</dim>
					<dim>52</dim>
				</port>
				<port id="1" precision="FP32">
					<dim>88</dim>
					<dim>88</dim>
					<dim>1</dim>
					<dim>1</dim>
				</port>
			</input>
			<output>
				<port id="2" precision="FP32">
					<dim>1</dim>
					<dim>88</dim>
					<dim>52</dim>
					<dim>52</dim>
				</port>
			</output>
		</layer>
		<layer id="161" name="onnx::Conv_1557" type="Const" version="opset1">
			<data element_type="f32" shape="88" offset="122100" size="352" />
			<output>
				<port id="0" precision="FP32" names="onnx::Conv_1557">
					<dim>88</dim>
				</port>
			</output>
		</layer>
		<layer id="162" name="Constant_906" type="Const" version="opset1">
			<data element_type="i64" shape="1" offset="2688" size="8" />
			<output>
				<port id="0" precision="I64">
					<dim>1</dim>
				</port>
			</output>
		</layer>
		<layer id="163" name="ShapeOf_921" type="ShapeOf" version="opset3">
			<data output_type="i64" />
			<input>
				<port id="0" precision="FP32">
					<dim>88</dim>
				</port>
			</input>
			<output>
				<port id="1" precision="I64">
					<dim>1</dim>
				</port>
			</output>
		</layer>
		<layer id="164" name="ShapeOf_904" type="ShapeOf" version="opset3">
			<data output_type="i64" />
			<input>
				<port id="0" precision="FP32">
					<dim>1</dim>
					<dim>88</dim>
					<dim>52</dim>
					<dim>52</dim>
				</port>
			</input>
			<output>
				<port id="1" precision="I64">
					<dim>4</dim>
				</port>
			</output>
		</layer>
		<layer id="165" name="ShapeOf_905" type="ShapeOf" version="opset3">
			<data output_type="i64" />
			<input>
				<port id="0" precision="I64">
					<dim>4</dim>
				</port>
			</input>
			<output>
				<port id="1" precision="I64">
					<dim>1</dim>
				</port>
			</output>
		</layer>
		<layer id="166" name="Constant_907" type="Const" version="opset1">
			<data element_type="i64" shape="1" offset="2696" size="8" />
			<output>
				<port id="0" precision="I64">
					<dim>1</dim>
				</port>
			</output>
		</layer>
		<layer id="167" name="Subtract_908" type="Subtract" version="opset1">
			<data auto_broadcast="numpy" />
			<input>
				<port id="0" precision="I64">
					<dim>1</dim>
				</port>
				<port id="1" precision="I64">
					<dim>1</dim>
				</port>
			</input>
			<output>
				<port id="2" precision="I64">
					<dim>1</dim>
				</port>
			</output>
		</layer>
		<layer id="168" name="Broadcast_909" type="Broadcast" version="opset3">
			<data mode="numpy" />
			<input>
				<port id="0" precision="I64">
					<dim>1</dim>
				</port>
				<port id="1" precision="I64">
					<dim>1</dim>
				</port>
			</input>
			<output>
				<port id="2" precision="I64">
					<dim>2</dim>
				</port>
			</output>
		</layer>
		<layer id="169" name="Concat_922" type="Concat" version="opset1">
			<data axis="0" />
			<input>
				<port id="0" precision="I64">
					<dim>1</dim>
				</port>
				<port id="1" precision="I64">
					<dim>1</dim>
				</port>
				<port id="2" precision="I64">
					<dim>2</dim>
				</port>
			</input>
			<output>
				<port id="3" precision="I64">
					<dim>4</dim>
				</port>
			</output>
		</layer>
		<layer id="170" name="Reshape_923" type="Reshape" version="opset1">
			<data special_zero="false" />
			<input>
				<port id="0" precision="FP32">
					<dim>88</dim>
				</port>
				<port id="1" precision="I64">
					<dim>4</dim>
				</port>
			</input>
			<output>
				<port id="2" precision="FP32">
					<dim>1</dim>
					<dim>88</dim>
					<dim>1</dim>
					<dim>1</dim>
				</port>
			</output>
		</layer>
		<layer id="171" name="/backbone/stage2/stage2.1/branch2/branch2.5/Conv" type="Add" version="opset1">
			<data auto_broadcast="numpy" />
			<input>
				<port id="0" precision="FP32">
					<dim>1</dim>
					<dim>88</dim>
					<dim>52</dim>
					<dim>52</dim>
				</port>
				<port id="1" precision="FP32">
					<dim>1</dim>
					<dim>88</dim>
					<dim>1</dim>
					<dim>1</dim>
				</port>
			</input>
			<output>
				<port id="2" precision="FP32" names="/backbone/stage2/stage2.1/branch2/branch2.5/Conv_output_0">
					<dim>1</dim>
					<dim>88</dim>
					<dim>52</dim>
					<dim>52</dim>
				</port>
			</output>
		</layer>
		<layer id="172" name="Constant_951" type="Const" version="opset1">
			<data element_type="f32" shape="1" offset="2704" size="4" />
			<output>
				<port id="0" precision="FP32">
					<dim>1</dim>
				</port>
			</output>
		</layer>
		<layer id="173" name="/backbone/stage2/stage2.1/branch2/branch2.7/LeakyRelu" type="PReLU" version="opset1">
			<input>
				<port id="0" precision="FP32">
					<dim>1</dim>
					<dim>88</dim>
					<dim>52</dim>
					<dim>52</dim>
				</port>
				<port id="1" precision="FP32">
					<dim>1</dim>
				</port>
			</input>
			<output>
				<port id="2" precision="FP32" names="/backbone/stage2/stage2.1/branch2/branch2.7/LeakyRelu_output_0">
					<dim>1</dim>
					<dim>88</dim>
					<dim>52</dim>
					<dim>52</dim>
				</port>
			</output>
		</layer>
		<layer id="174" name="/backbone/stage2/stage2.1/Concat" type="Concat" version="opset1">
			<data axis="1" />
			<input>
				<port id="0" precision="FP32">
					<dim>1</dim>
					<dim>88</dim>
					<dim>52</dim>
					<dim>52</dim>
				</port>
				<port id="1" precision="FP32">
					<dim>1</dim>
					<dim>88</dim>
					<dim>52</dim>
					<dim>52</dim>
				</port>
			</input>
			<output>
				<port id="2" precision="FP32" names="/backbone/stage2/stage2.1/Concat_output_0">
					<dim>1</dim>
					<dim>176</dim>
					<dim>52</dim>
					<dim>52</dim>
				</port>
			</output>
		</layer>
		<layer id="175" name="/backbone/stage2/stage2.1/Reshape" type="Reshape" version="opset1">
			<data special_zero="true" />
			<input>
				<port id="0" precision="FP32">
					<dim>1</dim>
					<dim>176</dim>
					<dim>52</dim>
					<dim>52</dim>
				</port>
				<port id="1" precision="I64">
					<dim>5</dim>
				</port>
			</input>
			<output>
				<port id="2" precision="FP32" names="/backbone/stage2/stage2.1/Reshape_output_0">
					<dim>1</dim>
					<dim>2</dim>
					<dim>88</dim>
					<dim>52</dim>
					<dim>52</dim>
				</port>
			</output>
		</layer>
		<layer id="176" name="Constant_957" type="Const" version="opset1">
			<data element_type="i64" shape="5" offset="56196" size="40" />
			<output>
				<port id="0" precision="I64">
					<dim>5</dim>
				</port>
			</output>
		</layer>
		<layer id="177" name="/backbone/stage2/stage2.1/Transpose" type="Transpose" version="opset1">
			<input>
				<port id="0" precision="FP32">
					<dim>1</dim>
					<dim>2</dim>
					<dim>88</dim>
					<dim>52</dim>
					<dim>52</dim>
				</port>
				<port id="1" precision="I64">
					<dim>5</dim>
				</port>
			</input>
			<output>
				<port id="2" precision="FP32" names="/backbone/stage2/stage2.1/Transpose_output_0">
					<dim>1</dim>
					<dim>88</dim>
					<dim>2</dim>
					<dim>52</dim>
					<dim>52</dim>
				</port>
			</output>
		</layer>
		<layer id="178" name="/backbone/stage2/stage2.1/Reshape_1" type="Reshape" version="opset1">
			<data special_zero="true" />
			<input>
				<port id="0" precision="FP32">
					<dim>1</dim>
					<dim>88</dim>
					<dim>2</dim>
					<dim>52</dim>
					<dim>52</dim>
				</port>
				<port id="1" precision="I64">
					<dim>4</dim>
				</port>
			</input>
			<output>
				<port id="2" precision="FP32" names="/backbone/stage2/stage2.1/Reshape_1_output_0">
					<dim>1</dim>
					<dim>176</dim>
					<dim>52</dim>
					<dim>52</dim>
				</port>
			</output>
		</layer>
		<layer id="179" name="Constant_962" type="Const" version="opset1">
			<data element_type="i64" shape="1" offset="2688" size="8" />
			<output>
				<port id="0" precision="I64">
					<dim>1</dim>
				</port>
			</output>
		</layer>
		<layer id="180" name="ShapeOf_963" type="ShapeOf" version="opset3">
			<data output_type="i64" />
			<input>
				<port id="0" precision="I64">
					<dim>1</dim>
				</port>
			</input>
			<output>
				<port id="1" precision="I64">
					<dim>1</dim>
				</port>
			</output>
		</layer>
		<layer id="181" name="Broadcast_964" type="Broadcast" version="opset3">
			<data mode="numpy" />
			<input>
				<port id="0" precision="I64">
					<dim>1</dim>
				</port>
				<port id="1" precision="I64">
					<dim>1</dim>
				</port>
			</input>
			<output>
				<port id="2" precision="I64">
					<dim>1</dim>
				</port>
			</output>
		</layer>
		<layer id="182" name="/backbone/stage2/stage2.2/Slice" type="Slice" version="opset8">
			<input>
				<port id="0" precision="FP32">
					<dim>1</dim>
					<dim>176</dim>
					<dim>52</dim>
					<dim>52</dim>
				</port>
				<port id="1" precision="I64">
					<dim>1</dim>
				</port>
				<port id="2" precision="I64">
					<dim>1</dim>
				</port>
				<port id="3" precision="I64">
					<dim>1</dim>
				</port>
				<port id="4" precision="I64">
					<dim>1</dim>
				</port>
			</input>
			<output>
				<port id="5" precision="FP32" names="/backbone/stage2/stage2.2/Slice_output_0">
					<dim>1</dim>
					<dim>88</dim>
					<dim>52</dim>
					<dim>52</dim>
				</port>
			</output>
		</layer>
		<layer id="183" name="Constant_981" type="Const" version="opset1">
			<data element_type="i64" shape="1" offset="2688" size="8" />
			<output>
				<port id="0" precision="I64">
					<dim>1</dim>
				</port>
			</output>
		</layer>
		<layer id="184" name="ShapeOf_982" type="ShapeOf" version="opset3">
			<data output_type="i64" />
			<input>
				<port id="0" precision="I64">
					<dim>1</dim>
				</port>
			</input>
			<output>
				<port id="1" precision="I64">
					<dim>1</dim>
				</port>
			</output>
		</layer>
		<layer id="185" name="Broadcast_983" type="Broadcast" version="opset3">
			<data mode="numpy" />
			<input>
				<port id="0" precision="I64">
					<dim>1</dim>
				</port>
				<port id="1" precision="I64">
					<dim>1</dim>
				</port>
			</input>
			<output>
				<port id="2" precision="I64">
					<dim>1</dim>
				</port>
			</output>
		</layer>
		<layer id="186" name="/backbone/stage2/stage2.2/Slice_1" type="Slice" version="opset8">
			<input>
				<port id="0" precision="FP32">
					<dim>1</dim>
					<dim>176</dim>
					<dim>52</dim>
					<dim>52</dim>
				</port>
				<port id="1" precision="I64">
					<dim>1</dim>
				</port>
				<port id="2" precision="I64">
					<dim>1</dim>
				</port>
				<port id="3" precision="I64">
					<dim>1</dim>
				</port>
				<port id="4" precision="I64">
					<dim>1</dim>
				</port>
			</input>
			<output>
				<port id="5" precision="FP32" names="/backbone/stage2/stage2.2/Slice_1_output_0">
					<dim>1</dim>
					<dim>88</dim>
					<dim>52</dim>
					<dim>52</dim>
				</port>
			</output>
		</layer>
		<layer id="187" name="onnx::Conv_1559" type="Const" version="opset1">
			<data element_type="f32" shape="88, 88, 1, 1" offset="122452" size="30976" />
			<output>
				<port id="0" precision="FP32" names="onnx::Conv_1559">
					<dim>88</dim>
					<dim>88</dim>
					<dim>1</dim>
					<dim>1</dim>
				</port>
			</output>
		</layer>
		<layer id="188" name="/backbone/stage2/stage2.2/branch2/branch2.0/Conv/WithoutBiases" type="Convolution" version="opset1">
			<data strides="1, 1" dilations="1, 1" pads_begin="0, 0" pads_end="0, 0" auto_pad="explicit" />
			<input>
				<port id="0" precision="FP32">
					<dim>1</dim>
					<dim>88</dim>
					<dim>52</dim>
					<dim>52</dim>
				</port>
				<port id="1" precision="FP32">
					<dim>88</dim>
					<dim>88</dim>
					<dim>1</dim>
					<dim>1</dim>
				</port>
			</input>
			<output>
				<port id="2" precision="FP32">
					<dim>1</dim>
					<dim>88</dim>
					<dim>52</dim>
					<dim>52</dim>
				</port>
			</output>
		</layer>
		<layer id="189" name="onnx::Conv_1560" type="Const" version="opset1">
			<data element_type="f32" shape="88" offset="153428" size="352" />
			<output>
				<port id="0" precision="FP32" names="onnx::Conv_1560">
					<dim>88</dim>
				</port>
			</output>
		</layer>
		<layer id="190" name="Constant_1003" type="Const" version="opset1">
			<data element_type="i64" shape="1" offset="2688" size="8" />
			<output>
				<port id="0" precision="I64">
					<dim>1</dim>
				</port>
			</output>
		</layer>
		<layer id="191" name="ShapeOf_1018" type="ShapeOf" version="opset3">
			<data output_type="i64" />
			<input>
				<port id="0" precision="FP32">
					<dim>88</dim>
				</port>
			</input>
			<output>
				<port id="1" precision="I64">
					<dim>1</dim>
				</port>
			</output>
		</layer>
		<layer id="192" name="ShapeOf_1001" type="ShapeOf" version="opset3">
			<data output_type="i64" />
			<input>
				<port id="0" precision="FP32">
					<dim>1</dim>
					<dim>88</dim>
					<dim>52</dim>
					<dim>52</dim>
				</port>
			</input>
			<output>
				<port id="1" precision="I64">
					<dim>4</dim>
				</port>
			</output>
		</layer>
		<layer id="193" name="ShapeOf_1002" type="ShapeOf" version="opset3">
			<data output_type="i64" />
			<input>
				<port id="0" precision="I64">
					<dim>4</dim>
				</port>
			</input>
			<output>
				<port id="1" precision="I64">
					<dim>1</dim>
				</port>
			</output>
		</layer>
		<layer id="194" name="Constant_1004" type="Const" version="opset1">
			<data element_type="i64" shape="1" offset="2696" size="8" />
			<output>
				<port id="0" precision="I64">
					<dim>1</dim>
				</port>
			</output>
		</layer>
		<layer id="195" name="Subtract_1005" type="Subtract" version="opset1">
			<data auto_broadcast="numpy" />
			<input>
				<port id="0" precision="I64">
					<dim>1</dim>
				</port>
				<port id="1" precision="I64">
					<dim>1</dim>
				</port>
			</input>
			<output>
				<port id="2" precision="I64">
					<dim>1</dim>
				</port>
			</output>
		</layer>
		<layer id="196" name="Broadcast_1006" type="Broadcast" version="opset3">
			<data mode="numpy" />
			<input>
				<port id="0" precision="I64">
					<dim>1</dim>
				</port>
				<port id="1" precision="I64">
					<dim>1</dim>
				</port>
			</input>
			<output>
				<port id="2" precision="I64">
					<dim>2</dim>
				</port>
			</output>
		</layer>
		<layer id="197" name="Concat_1019" type="Concat" version="opset1">
			<data axis="0" />
			<input>
				<port id="0" precision="I64">
					<dim>1</dim>
				</port>
				<port id="1" precision="I64">
					<dim>1</dim>
				</port>
				<port id="2" precision="I64">
					<dim>2</dim>
				</port>
			</input>
			<output>
				<port id="3" precision="I64">
					<dim>4</dim>
				</port>
			</output>
		</layer>
		<layer id="198" name="Reshape_1020" type="Reshape" version="opset1">
			<data special_zero="false" />
			<input>
				<port id="0" precision="FP32">
					<dim>88</dim>
				</port>
				<port id="1" precision="I64">
					<dim>4</dim>
				</port>
			</input>
			<output>
				<port id="2" precision="FP32">
					<dim>1</dim>
					<dim>88</dim>
					<dim>1</dim>
					<dim>1</dim>
				</port>
			</output>
		</layer>
		<layer id="199" name="/backbone/stage2/stage2.2/branch2/branch2.0/Conv" type="Add" version="opset1">
			<data auto_broadcast="numpy" />
			<input>
				<port id="0" precision="FP32">
					<dim>1</dim>
					<dim>88</dim>
					<dim>52</dim>
					<dim>52</dim>
				</port>
				<port id="1" precision="FP32">
					<dim>1</dim>
					<dim>88</dim>
					<dim>1</dim>
					<dim>1</dim>
				</port>
			</input>
			<output>
				<port id="2" precision="FP32" names="/backbone/stage2/stage2.2/branch2/branch2.0/Conv_output_0">
					<dim>1</dim>
					<dim>88</dim>
					<dim>52</dim>
					<dim>52</dim>
				</port>
			</output>
		</layer>
		<layer id="200" name="Constant_1048" type="Const" version="opset1">
			<data element_type="f32" shape="1" offset="2704" size="4" />
			<output>
				<port id="0" precision="FP32">
					<dim>1</dim>
				</port>
			</output>
		</layer>
		<layer id="201" name="/backbone/stage2/stage2.2/branch2/branch2.2/LeakyRelu" type="PReLU" version="opset1">
			<input>
				<port id="0" precision="FP32">
					<dim>1</dim>
					<dim>88</dim>
					<dim>52</dim>
					<dim>52</dim>
				</port>
				<port id="1" precision="FP32">
					<dim>1</dim>
				</port>
			</input>
			<output>
				<port id="2" precision="FP32" names="/backbone/stage2/stage2.2/branch2/branch2.2/LeakyRelu_output_0">
					<dim>1</dim>
					<dim>88</dim>
					<dim>52</dim>
					<dim>52</dim>
				</port>
			</output>
		</layer>
		<layer id="202" name="onnx::Conv_1562" type="Const" version="opset1">
			<data element_type="f32" shape="88, 1, 3, 3" offset="153780" size="3168" />
			<output>
				<port id="0" precision="FP32" names="onnx::Conv_1562">
					<dim>88</dim>
					<dim>1</dim>
					<dim>3</dim>
					<dim>3</dim>
				</port>
			</output>
		</layer>
		<layer id="203" name="Constant_1052" type="Const" version="opset1">
			<data element_type="i64" shape="1" offset="24468" size="8" />
			<output>
				<port id="0" precision="I64">
					<dim>1</dim>
				</port>
			</output>
		</layer>
		<layer id="204" name="ShapeOf_1053" type="ShapeOf" version="opset3">
			<data output_type="i64" />
			<input>
				<port id="0" precision="FP32">
					<dim>88</dim>
					<dim>1</dim>
					<dim>3</dim>
					<dim>3</dim>
				</port>
			</input>
			<output>
				<port id="1" precision="I64">
					<dim>4</dim>
				</port>
			</output>
		</layer>
		<layer id="205" name="Constant_1050" type="Const" version="opset1">
			<data element_type="i64" shape="" offset="3580" size="8" />
			<output>
				<port id="0" precision="I64" />
			</output>
		</layer>
		<layer id="206" name="Constant_1051" type="Const" version="opset1">
			<data element_type="i64" shape="2" offset="3588" size="16" />
			<output>
				<port id="0" precision="I64">
					<dim>2</dim>
				</port>
			</output>
		</layer>
		<layer id="207" name="VariadicSplit_1054" type="VariadicSplit" version="opset1">
			<input>
				<port id="0" precision="I64">
					<dim>4</dim>
				</port>
				<port id="1" precision="I64" />
				<port id="2" precision="I64">
					<dim>2</dim>
				</port>
			</input>
			<output>
				<port id="3" precision="I64">
					<dim>1</dim>
				</port>
				<port id="4" precision="I64">
					<dim>3</dim>
				</port>
			</output>
		</layer>
		<layer id="208" name="Divide_1055" type="Divide" version="opset1">
			<data auto_broadcast="numpy" m_pythondiv="true" />
			<input>
				<port id="0" precision="I64">
					<dim>1</dim>
				</port>
				<port id="1" precision="I64">
					<dim>1</dim>
				</port>
			</input>
			<output>
				<port id="2" precision="I64">
					<dim>1</dim>
				</port>
			</output>
		</layer>
		<layer id="209" name="Concat_1056" type="Concat" version="opset1">
			<data axis="0" />
			<input>
				<port id="0" precision="I64">
					<dim>1</dim>
				</port>
				<port id="1" precision="I64">
					<dim>1</dim>
				</port>
				<port id="2" precision="I64">
					<dim>3</dim>
				</port>
			</input>
			<output>
				<port id="3" precision="I64">
					<dim>5</dim>
				</port>
			</output>
		</layer>
		<layer id="210" name="Reshape_1057" type="Reshape" version="opset1">
			<data special_zero="false" />
			<input>
				<port id="0" precision="FP32">
					<dim>88</dim>
					<dim>1</dim>
					<dim>3</dim>
					<dim>3</dim>
				</port>
				<port id="1" precision="I64">
					<dim>5</dim>
				</port>
			</input>
			<output>
				<port id="2" precision="FP32">
					<dim>88</dim>
					<dim>1</dim>
					<dim>1</dim>
					<dim>3</dim>
					<dim>3</dim>
				</port>
			</output>
		</layer>
		<layer id="211" name="/backbone/stage2/stage2.2/branch2/branch2.3/Conv/WithoutBiases" type="GroupConvolution" version="opset1">
			<data strides="1, 1" pads_begin="1, 1" pads_end="1, 1" dilations="1, 1" auto_pad="explicit" />
			<input>
				<port id="0" precision="FP32">
					<dim>1</dim>
					<dim>88</dim>
					<dim>52</dim>
					<dim>52</dim>
				</port>
				<port id="1" precision="FP32">
					<dim>88</dim>
					<dim>1</dim>
					<dim>1</dim>
					<dim>3</dim>
					<dim>3</dim>
				</port>
			</input>
			<output>
				<port id="2" precision="FP32">
					<dim>1</dim>
					<dim>88</dim>
					<dim>52</dim>
					<dim>52</dim>
				</port>
			</output>
		</layer>
		<layer id="212" name="onnx::Conv_1563" type="Const" version="opset1">
			<data element_type="f32" shape="88" offset="156948" size="352" />
			<output>
				<port id="0" precision="FP32" names="onnx::Conv_1563">
					<dim>88</dim>
				</port>
			</output>
		</layer>
		<layer id="213" name="Constant_1126" type="Const" version="opset1">
			<data element_type="i64" shape="1" offset="2688" size="8" />
			<output>
				<port id="0" precision="I64">
					<dim>1</dim>
				</port>
			</output>
		</layer>
		<layer id="214" name="ShapeOf_1141" type="ShapeOf" version="opset3">
			<data output_type="i64" />
			<input>
				<port id="0" precision="FP32">
					<dim>88</dim>
				</port>
			</input>
			<output>
				<port id="1" precision="I64">
					<dim>1</dim>
				</port>
			</output>
		</layer>
		<layer id="215" name="ShapeOf_1124" type="ShapeOf" version="opset3">
			<data output_type="i64" />
			<input>
				<port id="0" precision="FP32">
					<dim>1</dim>
					<dim>88</dim>
					<dim>52</dim>
					<dim>52</dim>
				</port>
			</input>
			<output>
				<port id="1" precision="I64">
					<dim>4</dim>
				</port>
			</output>
		</layer>
		<layer id="216" name="ShapeOf_1125" type="ShapeOf" version="opset3">
			<data output_type="i64" />
			<input>
				<port id="0" precision="I64">
					<dim>4</dim>
				</port>
			</input>
			<output>
				<port id="1" precision="I64">
					<dim>1</dim>
				</port>
			</output>
		</layer>
		<layer id="217" name="Constant_1127" type="Const" version="opset1">
			<data element_type="i64" shape="1" offset="2696" size="8" />
			<output>
				<port id="0" precision="I64">
					<dim>1</dim>
				</port>
			</output>
		</layer>
		<layer id="218" name="Subtract_1128" type="Subtract" version="opset1">
			<data auto_broadcast="numpy" />
			<input>
				<port id="0" precision="I64">
					<dim>1</dim>
				</port>
				<port id="1" precision="I64">
					<dim>1</dim>
				</port>
			</input>
			<output>
				<port id="2" precision="I64">
					<dim>1</dim>
				</port>
			</output>
		</layer>
		<layer id="219" name="Broadcast_1129" type="Broadcast" version="opset3">
			<data mode="numpy" />
			<input>
				<port id="0" precision="I64">
					<dim>1</dim>
				</port>
				<port id="1" precision="I64">
					<dim>1</dim>
				</port>
			</input>
			<output>
				<port id="2" precision="I64">
					<dim>2</dim>
				</port>
			</output>
		</layer>
		<layer id="220" name="Concat_1142" type="Concat" version="opset1">
			<data axis="0" />
			<input>
				<port id="0" precision="I64">
					<dim>1</dim>
				</port>
				<port id="1" precision="I64">
					<dim>1</dim>
				</port>
				<port id="2" precision="I64">
					<dim>2</dim>
				</port>
			</input>
			<output>
				<port id="3" precision="I64">
					<dim>4</dim>
				</port>
			</output>
		</layer>
		<layer id="221" name="Reshape_1143" type="Reshape" version="opset1">
			<data special_zero="false" />
			<input>
				<port id="0" precision="FP32">
					<dim>88</dim>
				</port>
				<port id="1" precision="I64">
					<dim>4</dim>
				</port>
			</input>
			<output>
				<port id="2" precision="FP32">
					<dim>1</dim>
					<dim>88</dim>
					<dim>1</dim>
					<dim>1</dim>
				</port>
			</output>
		</layer>
		<layer id="222" name="/backbone/stage2/stage2.2/branch2/branch2.3/Conv" type="Add" version="opset1">
			<data auto_broadcast="numpy" />
			<input>
				<port id="0" precision="FP32">
					<dim>1</dim>
					<dim>88</dim>
					<dim>52</dim>
					<dim>52</dim>
				</port>
				<port id="1" precision="FP32">
					<dim>1</dim>
					<dim>88</dim>
					<dim>1</dim>
					<dim>1</dim>
				</port>
			</input>
			<output>
				<port id="2" precision="FP32" names="/backbone/stage2/stage2.2/branch2/branch2.3/Conv_output_0">
					<dim>1</dim>
					<dim>88</dim>
					<dim>52</dim>
					<dim>52</dim>
				</port>
			</output>
		</layer>
		<layer id="223" name="onnx::Conv_1565" type="Const" version="opset1">
			<data element_type="f32" shape="88, 88, 1, 1" offset="157300" size="30976" />
			<output>
				<port id="0" precision="FP32" names="onnx::Conv_1565">
					<dim>88</dim>
					<dim>88</dim>
					<dim>1</dim>
					<dim>1</dim>
				</port>
			</output>
		</layer>
		<layer id="224" name="/backbone/stage2/stage2.2/branch2/branch2.5/Conv/WithoutBiases" type="Convolution" version="opset1">
			<data strides="1, 1" dilations="1, 1" pads_begin="0, 0" pads_end="0, 0" auto_pad="explicit" />
			<input>
				<port id="0" precision="FP32">
					<dim>1</dim>
					<dim>88</dim>
					<dim>52</dim>
					<dim>52</dim>
				</port>
				<port id="1" precision="FP32">
					<dim>88</dim>
					<dim>88</dim>
					<dim>1</dim>
					<dim>1</dim>
				</port>
			</input>
			<output>
				<port id="2" precision="FP32">
					<dim>1</dim>
					<dim>88</dim>
					<dim>52</dim>
					<dim>52</dim>
				</port>
			</output>
		</layer>
		<layer id="225" name="onnx::Conv_1566" type="Const" version="opset1">
			<data element_type="f32" shape="88" offset="188276" size="352" />
			<output>
				<port id="0" precision="FP32" names="onnx::Conv_1566">
					<dim>88</dim>
				</port>
			</output>
		</layer>
		<layer id="226" name="Constant_1174" type="Const" version="opset1">
			<data element_type="i64" shape="1" offset="2688" size="8" />
			<output>
				<port id="0" precision="I64">
					<dim>1</dim>
				</port>
			</output>
		</layer>
		<layer id="227" name="ShapeOf_1189" type="ShapeOf" version="opset3">
			<data output_type="i64" />
			<input>
				<port id="0" precision="FP32">
					<dim>88</dim>
				</port>
			</input>
			<output>
				<port id="1" precision="I64">
					<dim>1</dim>
				</port>
			</output>
		</layer>
		<layer id="228" name="ShapeOf_1172" type="ShapeOf" version="opset3">
			<data output_type="i64" />
			<input>
				<port id="0" precision="FP32">
					<dim>1</dim>
					<dim>88</dim>
					<dim>52</dim>
					<dim>52</dim>
				</port>
			</input>
			<output>
				<port id="1" precision="I64">
					<dim>4</dim>
				</port>
			</output>
		</layer>
		<layer id="229" name="ShapeOf_1173" type="ShapeOf" version="opset3">
			<data output_type="i64" />
			<input>
				<port id="0" precision="I64">
					<dim>4</dim>
				</port>
			</input>
			<output>
				<port id="1" precision="I64">
					<dim>1</dim>
				</port>
			</output>
		</layer>
		<layer id="230" name="Constant_1175" type="Const" version="opset1">
			<data element_type="i64" shape="1" offset="2696" size="8" />
			<output>
				<port id="0" precision="I64">
					<dim>1</dim>
				</port>
			</output>
		</layer>
		<layer id="231" name="Subtract_1176" type="Subtract" version="opset1">
			<data auto_broadcast="numpy" />
			<input>
				<port id="0" precision="I64">
					<dim>1</dim>
				</port>
				<port id="1" precision="I64">
					<dim>1</dim>
				</port>
			</input>
			<output>
				<port id="2" precision="I64">
					<dim>1</dim>
				</port>
			</output>
		</layer>
		<layer id="232" name="Broadcast_1177" type="Broadcast" version="opset3">
			<data mode="numpy" />
			<input>
				<port id="0" precision="I64">
					<dim>1</dim>
				</port>
				<port id="1" precision="I64">
					<dim>1</dim>
				</port>
			</input>
			<output>
				<port id="2" precision="I64">
					<dim>2</dim>
				</port>
			</output>
		</layer>
		<layer id="233" name="Concat_1190" type="Concat" version="opset1">
			<data axis="0" />
			<input>
				<port id="0" precision="I64">
					<dim>1</dim>
				</port>
				<port id="1" precision="I64">
					<dim>1</dim>
				</port>
				<port id="2" precision="I64">
					<dim>2</dim>
				</port>
			</input>
			<output>
				<port id="3" precision="I64">
					<dim>4</dim>
				</port>
			</output>
		</layer>
		<layer id="234" name="Reshape_1191" type="Reshape" version="opset1">
			<data special_zero="false" />
			<input>
				<port id="0" precision="FP32">
					<dim>88</dim>
				</port>
				<port id="1" precision="I64">
					<dim>4</dim>
				</port>
			</input>
			<output>
				<port id="2" precision="FP32">
					<dim>1</dim>
					<dim>88</dim>
					<dim>1</dim>
					<dim>1</dim>
				</port>
			</output>
		</layer>
		<layer id="235" name="/backbone/stage2/stage2.2/branch2/branch2.5/Conv" type="Add" version="opset1">
			<data auto_broadcast="numpy" />
			<input>
				<port id="0" precision="FP32">
					<dim>1</dim>
					<dim>88</dim>
					<dim>52</dim>
					<dim>52</dim>
				</port>
				<port id="1" precision="FP32">
					<dim>1</dim>
					<dim>88</dim>
					<dim>1</dim>
					<dim>1</dim>
				</port>
			</input>
			<output>
				<port id="2" precision="FP32" names="/backbone/stage2/stage2.2/branch2/branch2.5/Conv_output_0">
					<dim>1</dim>
					<dim>88</dim>
					<dim>52</dim>
					<dim>52</dim>
				</port>
			</output>
		</layer>
		<layer id="236" name="Constant_1219" type="Const" version="opset1">
			<data element_type="f32" shape="1" offset="2704" size="4" />
			<output>
				<port id="0" precision="FP32">
					<dim>1</dim>
				</port>
			</output>
		</layer>
		<layer id="237" name="/backbone/stage2/stage2.2/branch2/branch2.7/LeakyRelu" type="PReLU" version="opset1">
			<input>
				<port id="0" precision="FP32">
					<dim>1</dim>
					<dim>88</dim>
					<dim>52</dim>
					<dim>52</dim>
				</port>
				<port id="1" precision="FP32">
					<dim>1</dim>
				</port>
			</input>
			<output>
				<port id="2" precision="FP32" names="/backbone/stage2/stage2.2/branch2/branch2.7/LeakyRelu_output_0">
					<dim>1</dim>
					<dim>88</dim>
					<dim>52</dim>
					<dim>52</dim>
				</port>
			</output>
		</layer>
		<layer id="238" name="/backbone/stage2/stage2.2/Concat" type="Concat" version="opset1">
			<data axis="1" />
			<input>
				<port id="0" precision="FP32">
					<dim>1</dim>
					<dim>88</dim>
					<dim>52</dim>
					<dim>52</dim>
				</port>
				<port id="1" precision="FP32">
					<dim>1</dim>
					<dim>88</dim>
					<dim>52</dim>
					<dim>52</dim>
				</port>
			</input>
			<output>
				<port id="2" precision="FP32" names="/backbone/stage2/stage2.2/Concat_output_0">
					<dim>1</dim>
					<dim>176</dim>
					<dim>52</dim>
					<dim>52</dim>
				</port>
			</output>
		</layer>
		<layer id="239" name="/backbone/stage2/stage2.2/Reshape" type="Reshape" version="opset1">
			<data special_zero="true" />
			<input>
				<port id="0" precision="FP32">
					<dim>1</dim>
					<dim>176</dim>
					<dim>52</dim>
					<dim>52</dim>
				</port>
				<port id="1" precision="I64">
					<dim>5</dim>
				</port>
			</input>
			<output>
				<port id="2" precision="FP32" names="/backbone/stage2/stage2.2/Reshape_output_0">
					<dim>1</dim>
					<dim>2</dim>
					<dim>88</dim>
					<dim>52</dim>
					<dim>52</dim>
				</port>
			</output>
		</layer>
		<layer id="240" name="Constant_1225" type="Const" version="opset1">
			<data element_type="i64" shape="5" offset="56196" size="40" />
			<output>
				<port id="0" precision="I64">
					<dim>5</dim>
				</port>
			</output>
		</layer>
		<layer id="241" name="/backbone/stage2/stage2.2/Transpose" type="Transpose" version="opset1">
			<input>
				<port id="0" precision="FP32">
					<dim>1</dim>
					<dim>2</dim>
					<dim>88</dim>
					<dim>52</dim>
					<dim>52</dim>
				</port>
				<port id="1" precision="I64">
					<dim>5</dim>
				</port>
			</input>
			<output>
				<port id="2" precision="FP32" names="/backbone/stage2/stage2.2/Transpose_output_0">
					<dim>1</dim>
					<dim>88</dim>
					<dim>2</dim>
					<dim>52</dim>
					<dim>52</dim>
				</port>
			</output>
		</layer>
		<layer id="242" name="/backbone/stage2/stage2.2/Reshape_1" type="Reshape" version="opset1">
			<data special_zero="true" />
			<input>
				<port id="0" precision="FP32">
					<dim>1</dim>
					<dim>88</dim>
					<dim>2</dim>
					<dim>52</dim>
					<dim>52</dim>
				</port>
				<port id="1" precision="I64">
					<dim>4</dim>
				</port>
			</input>
			<output>
				<port id="2" precision="FP32" names="/backbone/stage2/stage2.2/Reshape_1_output_0">
					<dim>1</dim>
					<dim>176</dim>
					<dim>52</dim>
					<dim>52</dim>
				</port>
			</output>
		</layer>
		<layer id="243" name="Constant_1230" type="Const" version="opset1">
			<data element_type="i64" shape="1" offset="2688" size="8" />
			<output>
				<port id="0" precision="I64">
					<dim>1</dim>
				</port>
			</output>
		</layer>
		<layer id="244" name="ShapeOf_1231" type="ShapeOf" version="opset3">
			<data output_type="i64" />
			<input>
				<port id="0" precision="I64">
					<dim>1</dim>
				</port>
			</input>
			<output>
				<port id="1" precision="I64">
					<dim>1</dim>
				</port>
			</output>
		</layer>
		<layer id="245" name="Broadcast_1232" type="Broadcast" version="opset3">
			<data mode="numpy" />
			<input>
				<port id="0" precision="I64">
					<dim>1</dim>
				</port>
				<port id="1" precision="I64">
					<dim>1</dim>
				</port>
			</input>
			<output>
				<port id="2" precision="I64">
					<dim>1</dim>
				</port>
			</output>
		</layer>
		<layer id="246" name="/backbone/stage2/stage2.3/Slice" type="Slice" version="opset8">
			<input>
				<port id="0" precision="FP32">
					<dim>1</dim>
					<dim>176</dim>
					<dim>52</dim>
					<dim>52</dim>
				</port>
				<port id="1" precision="I64">
					<dim>1</dim>
				</port>
				<port id="2" precision="I64">
					<dim>1</dim>
				</port>
				<port id="3" precision="I64">
					<dim>1</dim>
				</port>
				<port id="4" precision="I64">
					<dim>1</dim>
				</port>
			</input>
			<output>
				<port id="5" precision="FP32" names="/backbone/stage2/stage2.3/Slice_output_0">
					<dim>1</dim>
					<dim>88</dim>
					<dim>52</dim>
					<dim>52</dim>
				</port>
			</output>
		</layer>
		<layer id="247" name="Constant_1249" type="Const" version="opset1">
			<data element_type="i64" shape="1" offset="2688" size="8" />
			<output>
				<port id="0" precision="I64">
					<dim>1</dim>
				</port>
			</output>
		</layer>
		<layer id="248" name="ShapeOf_1250" type="ShapeOf" version="opset3">
			<data output_type="i64" />
			<input>
				<port id="0" precision="I64">
					<dim>1</dim>
				</port>
			</input>
			<output>
				<port id="1" precision="I64">
					<dim>1</dim>
				</port>
			</output>
		</layer>
		<layer id="249" name="Broadcast_1251" type="Broadcast" version="opset3">
			<data mode="numpy" />
			<input>
				<port id="0" precision="I64">
					<dim>1</dim>
				</port>
				<port id="1" precision="I64">
					<dim>1</dim>
				</port>
			</input>
			<output>
				<port id="2" precision="I64">
					<dim>1</dim>
				</port>
			</output>
		</layer>
		<layer id="250" name="/backbone/stage2/stage2.3/Slice_1" type="Slice" version="opset8">
			<input>
				<port id="0" precision="FP32">
					<dim>1</dim>
					<dim>176</dim>
					<dim>52</dim>
					<dim>52</dim>
				</port>
				<port id="1" precision="I64">
					<dim>1</dim>
				</port>
				<port id="2" precision="I64">
					<dim>1</dim>
				</port>
				<port id="3" precision="I64">
					<dim>1</dim>
				</port>
				<port id="4" precision="I64">
					<dim>1</dim>
				</port>
			</input>
			<output>
				<port id="5" precision="FP32" names="/backbone/stage2/stage2.3/Slice_1_output_0">
					<dim>1</dim>
					<dim>88</dim>
					<dim>52</dim>
					<dim>52</dim>
				</port>
			</output>
		</layer>
		<layer id="251" name="onnx::Conv_1568" type="Const" version="opset1">
			<data element_type="f32" shape="88, 88, 1, 1" offset="188628" size="30976" />
			<output>
				<port id="0" precision="FP32" names="onnx::Conv_1568">
					<dim>88</dim>
					<dim>88</dim>
					<dim>1</dim>
					<dim>1</dim>
				</port>
			</output>
		</layer>
		<layer id="252" name="/backbone/stage2/stage2.3/branch2/branch2.0/Conv/WithoutBiases" type="Convolution" version="opset1">
			<data strides="1, 1" dilations="1, 1" pads_begin="0, 0" pads_end="0, 0" auto_pad="explicit" />
			<input>
				<port id="0" precision="FP32">
					<dim>1</dim>
					<dim>88</dim>
					<dim>52</dim>
					<dim>52</dim>
				</port>
				<port id="1" precision="FP32">
					<dim>88</dim>
					<dim>88</dim>
					<dim>1</dim>
					<dim>1</dim>
				</port>
			</input>
			<output>
				<port id="2" precision="FP32">
					<dim>1</dim>
					<dim>88</dim>
					<dim>52</dim>
					<dim>52</dim>
				</port>
			</output>
		</layer>
		<layer id="253" name="onnx::Conv_1569" type="Const" version="opset1">
			<data element_type="f32" shape="88" offset="219604" size="352" />
			<output>
				<port id="0" precision="FP32" names="onnx::Conv_1569">
					<dim>88</dim>
				</port>
			</output>
		</layer>
		<layer id="254" name="Constant_1271" type="Const" version="opset1">
			<data element_type="i64" shape="1" offset="2688" size="8" />
			<output>
				<port id="0" precision="I64">
					<dim>1</dim>
				</port>
			</output>
		</layer>
		<layer id="255" name="ShapeOf_1286" type="ShapeOf" version="opset3">
			<data output_type="i64" />
			<input>
				<port id="0" precision="FP32">
					<dim>88</dim>
				</port>
			</input>
			<output>
				<port id="1" precision="I64">
					<dim>1</dim>
				</port>
			</output>
		</layer>
		<layer id="256" name="ShapeOf_1269" type="ShapeOf" version="opset3">
			<data output_type="i64" />
			<input>
				<port id="0" precision="FP32">
					<dim>1</dim>
					<dim>88</dim>
					<dim>52</dim>
					<dim>52</dim>
				</port>
			</input>
			<output>
				<port id="1" precision="I64">
					<dim>4</dim>
				</port>
			</output>
		</layer>
		<layer id="257" name="ShapeOf_1270" type="ShapeOf" version="opset3">
			<data output_type="i64" />
			<input>
				<port id="0" precision="I64">
					<dim>4</dim>
				</port>
			</input>
			<output>
				<port id="1" precision="I64">
					<dim>1</dim>
				</port>
			</output>
		</layer>
		<layer id="258" name="Constant_1272" type="Const" version="opset1">
			<data element_type="i64" shape="1" offset="2696" size="8" />
			<output>
				<port id="0" precision="I64">
					<dim>1</dim>
				</port>
			</output>
		</layer>
		<layer id="259" name="Subtract_1273" type="Subtract" version="opset1">
			<data auto_broadcast="numpy" />
			<input>
				<port id="0" precision="I64">
					<dim>1</dim>
				</port>
				<port id="1" precision="I64">
					<dim>1</dim>
				</port>
			</input>
			<output>
				<port id="2" precision="I64">
					<dim>1</dim>
				</port>
			</output>
		</layer>
		<layer id="260" name="Broadcast_1274" type="Broadcast" version="opset3">
			<data mode="numpy" />
			<input>
				<port id="0" precision="I64">
					<dim>1</dim>
				</port>
				<port id="1" precision="I64">
					<dim>1</dim>
				</port>
			</input>
			<output>
				<port id="2" precision="I64">
					<dim>2</dim>
				</port>
			</output>
		</layer>
		<layer id="261" name="Concat_1287" type="Concat" version="opset1">
			<data axis="0" />
			<input>
				<port id="0" precision="I64">
					<dim>1</dim>
				</port>
				<port id="1" precision="I64">
					<dim>1</dim>
				</port>
				<port id="2" precision="I64">
					<dim>2</dim>
				</port>
			</input>
			<output>
				<port id="3" precision="I64">
					<dim>4</dim>
				</port>
			</output>
		</layer>
		<layer id="262" name="Reshape_1288" type="Reshape" version="opset1">
			<data special_zero="false" />
			<input>
				<port id="0" precision="FP32">
					<dim>88</dim>
				</port>
				<port id="1" precision="I64">
					<dim>4</dim>
				</port>
			</input>
			<output>
				<port id="2" precision="FP32">
					<dim>1</dim>
					<dim>88</dim>
					<dim>1</dim>
					<dim>1</dim>
				</port>
			</output>
		</layer>
		<layer id="263" name="/backbone/stage2/stage2.3/branch2/branch2.0/Conv" type="Add" version="opset1">
			<data auto_broadcast="numpy" />
			<input>
				<port id="0" precision="FP32">
					<dim>1</dim>
					<dim>88</dim>
					<dim>52</dim>
					<dim>52</dim>
				</port>
				<port id="1" precision="FP32">
					<dim>1</dim>
					<dim>88</dim>
					<dim>1</dim>
					<dim>1</dim>
				</port>
			</input>
			<output>
				<port id="2" precision="FP32" names="/backbone/stage2/stage2.3/branch2/branch2.0/Conv_output_0">
					<dim>1</dim>
					<dim>88</dim>
					<dim>52</dim>
					<dim>52</dim>
				</port>
			</output>
		</layer>
		<layer id="264" name="Constant_1316" type="Const" version="opset1">
			<data element_type="f32" shape="1" offset="2704" size="4" />
			<output>
				<port id="0" precision="FP32">
					<dim>1</dim>
				</port>
			</output>
		</layer>
		<layer id="265" name="/backbone/stage2/stage2.3/branch2/branch2.2/LeakyRelu" type="PReLU" version="opset1">
			<input>
				<port id="0" precision="FP32">
					<dim>1</dim>
					<dim>88</dim>
					<dim>52</dim>
					<dim>52</dim>
				</port>
				<port id="1" precision="FP32">
					<dim>1</dim>
				</port>
			</input>
			<output>
				<port id="2" precision="FP32" names="/backbone/stage2/stage2.3/branch2/branch2.2/LeakyRelu_output_0">
					<dim>1</dim>
					<dim>88</dim>
					<dim>52</dim>
					<dim>52</dim>
				</port>
			</output>
		</layer>
		<layer id="266" name="onnx::Conv_1571" type="Const" version="opset1">
			<data element_type="f32" shape="88, 1, 3, 3" offset="219956" size="3168" />
			<output>
				<port id="0" precision="FP32" names="onnx::Conv_1571">
					<dim>88</dim>
					<dim>1</dim>
					<dim>3</dim>
					<dim>3</dim>
				</port>
			</output>
		</layer>
		<layer id="267" name="Constant_1320" type="Const" version="opset1">
			<data element_type="i64" shape="1" offset="24468" size="8" />
			<output>
				<port id="0" precision="I64">
					<dim>1</dim>
				</port>
			</output>
		</layer>
		<layer id="268" name="ShapeOf_1321" type="ShapeOf" version="opset3">
			<data output_type="i64" />
			<input>
				<port id="0" precision="FP32">
					<dim>88</dim>
					<dim>1</dim>
					<dim>3</dim>
					<dim>3</dim>
				</port>
			</input>
			<output>
				<port id="1" precision="I64">
					<dim>4</dim>
				</port>
			</output>
		</layer>
		<layer id="269" name="Constant_1318" type="Const" version="opset1">
			<data element_type="i64" shape="" offset="3580" size="8" />
			<output>
				<port id="0" precision="I64" />
			</output>
		</layer>
		<layer id="270" name="Constant_1319" type="Const" version="opset1">
			<data element_type="i64" shape="2" offset="3588" size="16" />
			<output>
				<port id="0" precision="I64">
					<dim>2</dim>
				</port>
			</output>
		</layer>
		<layer id="271" name="VariadicSplit_1322" type="VariadicSplit" version="opset1">
			<input>
				<port id="0" precision="I64">
					<dim>4</dim>
				</port>
				<port id="1" precision="I64" />
				<port id="2" precision="I64">
					<dim>2</dim>
				</port>
			</input>
			<output>
				<port id="3" precision="I64">
					<dim>1</dim>
				</port>
				<port id="4" precision="I64">
					<dim>3</dim>
				</port>
			</output>
		</layer>
		<layer id="272" name="Divide_1323" type="Divide" version="opset1">
			<data auto_broadcast="numpy" m_pythondiv="true" />
			<input>
				<port id="0" precision="I64">
					<dim>1</dim>
				</port>
				<port id="1" precision="I64">
					<dim>1</dim>
				</port>
			</input>
			<output>
				<port id="2" precision="I64">
					<dim>1</dim>
				</port>
			</output>
		</layer>
		<layer id="273" name="Concat_1324" type="Concat" version="opset1">
			<data axis="0" />
			<input>
				<port id="0" precision="I64">
					<dim>1</dim>
				</port>
				<port id="1" precision="I64">
					<dim>1</dim>
				</port>
				<port id="2" precision="I64">
					<dim>3</dim>
				</port>
			</input>
			<output>
				<port id="3" precision="I64">
					<dim>5</dim>
				</port>
			</output>
		</layer>
		<layer id="274" name="Reshape_1325" type="Reshape" version="opset1">
			<data special_zero="false" />
			<input>
				<port id="0" precision="FP32">
					<dim>88</dim>
					<dim>1</dim>
					<dim>3</dim>
					<dim>3</dim>
				</port>
				<port id="1" precision="I64">
					<dim>5</dim>
				</port>
			</input>
			<output>
				<port id="2" precision="FP32">
					<dim>88</dim>
					<dim>1</dim>
					<dim>1</dim>
					<dim>3</dim>
					<dim>3</dim>
				</port>
			</output>
		</layer>
		<layer id="275" name="/backbone/stage2/stage2.3/branch2/branch2.3/Conv/WithoutBiases" type="GroupConvolution" version="opset1">
			<data strides="1, 1" pads_begin="1, 1" pads_end="1, 1" dilations="1, 1" auto_pad="explicit" />
			<input>
				<port id="0" precision="FP32">
					<dim>1</dim>
					<dim>88</dim>
					<dim>52</dim>
					<dim>52</dim>
				</port>
				<port id="1" precision="FP32">
					<dim>88</dim>
					<dim>1</dim>
					<dim>1</dim>
					<dim>3</dim>
					<dim>3</dim>
				</port>
			</input>
			<output>
				<port id="2" precision="FP32">
					<dim>1</dim>
					<dim>88</dim>
					<dim>52</dim>
					<dim>52</dim>
				</port>
			</output>
		</layer>
		<layer id="276" name="onnx::Conv_1572" type="Const" version="opset1">
			<data element_type="f32" shape="88" offset="223124" size="352" />
			<output>
				<port id="0" precision="FP32" names="onnx::Conv_1572">
					<dim>88</dim>
				</port>
			</output>
		</layer>
		<layer id="277" name="Constant_1394" type="Const" version="opset1">
			<data element_type="i64" shape="1" offset="2688" size="8" />
			<output>
				<port id="0" precision="I64">
					<dim>1</dim>
				</port>
			</output>
		</layer>
		<layer id="278" name="ShapeOf_1409" type="ShapeOf" version="opset3">
			<data output_type="i64" />
			<input>
				<port id="0" precision="FP32">
					<dim>88</dim>
				</port>
			</input>
			<output>
				<port id="1" precision="I64">
					<dim>1</dim>
				</port>
			</output>
		</layer>
		<layer id="279" name="ShapeOf_1392" type="ShapeOf" version="opset3">
			<data output_type="i64" />
			<input>
				<port id="0" precision="FP32">
					<dim>1</dim>
					<dim>88</dim>
					<dim>52</dim>
					<dim>52</dim>
				</port>
			</input>
			<output>
				<port id="1" precision="I64">
					<dim>4</dim>
				</port>
			</output>
		</layer>
		<layer id="280" name="ShapeOf_1393" type="ShapeOf" version="opset3">
			<data output_type="i64" />
			<input>
				<port id="0" precision="I64">
					<dim>4</dim>
				</port>
			</input>
			<output>
				<port id="1" precision="I64">
					<dim>1</dim>
				</port>
			</output>
		</layer>
		<layer id="281" name="Constant_1395" type="Const" version="opset1">
			<data element_type="i64" shape="1" offset="2696" size="8" />
			<output>
				<port id="0" precision="I64">
					<dim>1</dim>
				</port>
			</output>
		</layer>
		<layer id="282" name="Subtract_1396" type="Subtract" version="opset1">
			<data auto_broadcast="numpy" />
			<input>
				<port id="0" precision="I64">
					<dim>1</dim>
				</port>
				<port id="1" precision="I64">
					<dim>1</dim>
				</port>
			</input>
			<output>
				<port id="2" precision="I64">
					<dim>1</dim>
				</port>
			</output>
		</layer>
		<layer id="283" name="Broadcast_1397" type="Broadcast" version="opset3">
			<data mode="numpy" />
			<input>
				<port id="0" precision="I64">
					<dim>1</dim>
				</port>
				<port id="1" precision="I64">
					<dim>1</dim>
				</port>
			</input>
			<output>
				<port id="2" precision="I64">
					<dim>2</dim>
				</port>
			</output>
		</layer>
		<layer id="284" name="Concat_1410" type="Concat" version="opset1">
			<data axis="0" />
			<input>
				<port id="0" precision="I64">
					<dim>1</dim>
				</port>
				<port id="1" precision="I64">
					<dim>1</dim>
				</port>
				<port id="2" precision="I64">
					<dim>2</dim>
				</port>
			</input>
			<output>
				<port id="3" precision="I64">
					<dim>4</dim>
				</port>
			</output>
		</layer>
		<layer id="285" name="Reshape_1411" type="Reshape" version="opset1">
			<data special_zero="false" />
			<input>
				<port id="0" precision="FP32">
					<dim>88</dim>
				</port>
				<port id="1" precision="I64">
					<dim>4</dim>
				</port>
			</input>
			<output>
				<port id="2" precision="FP32">
					<dim>1</dim>
					<dim>88</dim>
					<dim>1</dim>
					<dim>1</dim>
				</port>
			</output>
		</layer>
		<layer id="286" name="/backbone/stage2/stage2.3/branch2/branch2.3/Conv" type="Add" version="opset1">
			<data auto_broadcast="numpy" />
			<input>
				<port id="0" precision="FP32">
					<dim>1</dim>
					<dim>88</dim>
					<dim>52</dim>
					<dim>52</dim>
				</port>
				<port id="1" precision="FP32">
					<dim>1</dim>
					<dim>88</dim>
					<dim>1</dim>
					<dim>1</dim>
				</port>
			</input>
			<output>
				<port id="2" precision="FP32" names="/backbone/stage2/stage2.3/branch2/branch2.3/Conv_output_0">
					<dim>1</dim>
					<dim>88</dim>
					<dim>52</dim>
					<dim>52</dim>
				</port>
			</output>
		</layer>
		<layer id="287" name="onnx::Conv_1574" type="Const" version="opset1">
			<data element_type="f32" shape="88, 88, 1, 1" offset="223476" size="30976" />
			<output>
				<port id="0" precision="FP32" names="onnx::Conv_1574">
					<dim>88</dim>
					<dim>88</dim>
					<dim>1</dim>
					<dim>1</dim>
				</port>
			</output>
		</layer>
		<layer id="288" name="/backbone/stage2/stage2.3/branch2/branch2.5/Conv/WithoutBiases" type="Convolution" version="opset1">
			<data strides="1, 1" dilations="1, 1" pads_begin="0, 0" pads_end="0, 0" auto_pad="explicit" />
			<input>
				<port id="0" precision="FP32">
					<dim>1</dim>
					<dim>88</dim>
					<dim>52</dim>
					<dim>52</dim>
				</port>
				<port id="1" precision="FP32">
					<dim>88</dim>
					<dim>88</dim>
					<dim>1</dim>
					<dim>1</dim>
				</port>
			</input>
			<output>
				<port id="2" precision="FP32">
					<dim>1</dim>
					<dim>88</dim>
					<dim>52</dim>
					<dim>52</dim>
				</port>
			</output>
		</layer>
		<layer id="289" name="onnx::Conv_1575" type="Const" version="opset1">
			<data element_type="f32" shape="88" offset="254452" size="352" />
			<output>
				<port id="0" precision="FP32" names="onnx::Conv_1575">
					<dim>88</dim>
				</port>
			</output>
		</layer>
		<layer id="290" name="Constant_1442" type="Const" version="opset1">
			<data element_type="i64" shape="1" offset="2688" size="8" />
			<output>
				<port id="0" precision="I64">
					<dim>1</dim>
				</port>
			</output>
		</layer>
		<layer id="291" name="ShapeOf_1457" type="ShapeOf" version="opset3">
			<data output_type="i64" />
			<input>
				<port id="0" precision="FP32">
					<dim>88</dim>
				</port>
			</input>
			<output>
				<port id="1" precision="I64">
					<dim>1</dim>
				</port>
			</output>
		</layer>
		<layer id="292" name="ShapeOf_1440" type="ShapeOf" version="opset3">
			<data output_type="i64" />
			<input>
				<port id="0" precision="FP32">
					<dim>1</dim>
					<dim>88</dim>
					<dim>52</dim>
					<dim>52</dim>
				</port>
			</input>
			<output>
				<port id="1" precision="I64">
					<dim>4</dim>
				</port>
			</output>
		</layer>
		<layer id="293" name="ShapeOf_1441" type="ShapeOf" version="opset3">
			<data output_type="i64" />
			<input>
				<port id="0" precision="I64">
					<dim>4</dim>
				</port>
			</input>
			<output>
				<port id="1" precision="I64">
					<dim>1</dim>
				</port>
			</output>
		</layer>
		<layer id="294" name="Constant_1443" type="Const" version="opset1">
			<data element_type="i64" shape="1" offset="2696" size="8" />
			<output>
				<port id="0" precision="I64">
					<dim>1</dim>
				</port>
			</output>
		</layer>
		<layer id="295" name="Subtract_1444" type="Subtract" version="opset1">
			<data auto_broadcast="numpy" />
			<input>
				<port id="0" precision="I64">
					<dim>1</dim>
				</port>
				<port id="1" precision="I64">
					<dim>1</dim>
				</port>
			</input>
			<output>
				<port id="2" precision="I64">
					<dim>1</dim>
				</port>
			</output>
		</layer>
		<layer id="296" name="Broadcast_1445" type="Broadcast" version="opset3">
			<data mode="numpy" />
			<input>
				<port id="0" precision="I64">
					<dim>1</dim>
				</port>
				<port id="1" precision="I64">
					<dim>1</dim>
				</port>
			</input>
			<output>
				<port id="2" precision="I64">
					<dim>2</dim>
				</port>
			</output>
		</layer>
		<layer id="297" name="Concat_1458" type="Concat" version="opset1">
			<data axis="0" />
			<input>
				<port id="0" precision="I64">
					<dim>1</dim>
				</port>
				<port id="1" precision="I64">
					<dim>1</dim>
				</port>
				<port id="2" precision="I64">
					<dim>2</dim>
				</port>
			</input>
			<output>
				<port id="3" precision="I64">
					<dim>4</dim>
				</port>
			</output>
		</layer>
		<layer id="298" name="Reshape_1459" type="Reshape" version="opset1">
			<data special_zero="false" />
			<input>
				<port id="0" precision="FP32">
					<dim>88</dim>
				</port>
				<port id="1" precision="I64">
					<dim>4</dim>
				</port>
			</input>
			<output>
				<port id="2" precision="FP32">
					<dim>1</dim>
					<dim>88</dim>
					<dim>1</dim>
					<dim>1</dim>
				</port>
			</output>
		</layer>
		<layer id="299" name="/backbone/stage2/stage2.3/branch2/branch2.5/Conv" type="Add" version="opset1">
			<data auto_broadcast="numpy" />
			<input>
				<port id="0" precision="FP32">
					<dim>1</dim>
					<dim>88</dim>
					<dim>52</dim>
					<dim>52</dim>
				</port>
				<port id="1" precision="FP32">
					<dim>1</dim>
					<dim>88</dim>
					<dim>1</dim>
					<dim>1</dim>
				</port>
			</input>
			<output>
				<port id="2" precision="FP32" names="/backbone/stage2/stage2.3/branch2/branch2.5/Conv_output_0">
					<dim>1</dim>
					<dim>88</dim>
					<dim>52</dim>
					<dim>52</dim>
				</port>
			</output>
		</layer>
		<layer id="300" name="Constant_1487" type="Const" version="opset1">
			<data element_type="f32" shape="1" offset="2704" size="4" />
			<output>
				<port id="0" precision="FP32">
					<dim>1</dim>
				</port>
			</output>
		</layer>
		<layer id="301" name="/backbone/stage2/stage2.3/branch2/branch2.7/LeakyRelu" type="PReLU" version="opset1">
			<input>
				<port id="0" precision="FP32">
					<dim>1</dim>
					<dim>88</dim>
					<dim>52</dim>
					<dim>52</dim>
				</port>
				<port id="1" precision="FP32">
					<dim>1</dim>
				</port>
			</input>
			<output>
				<port id="2" precision="FP32" names="/backbone/stage2/stage2.3/branch2/branch2.7/LeakyRelu_output_0">
					<dim>1</dim>
					<dim>88</dim>
					<dim>52</dim>
					<dim>52</dim>
				</port>
			</output>
		</layer>
		<layer id="302" name="/backbone/stage2/stage2.3/Concat" type="Concat" version="opset1">
			<data axis="1" />
			<input>
				<port id="0" precision="FP32">
					<dim>1</dim>
					<dim>88</dim>
					<dim>52</dim>
					<dim>52</dim>
				</port>
				<port id="1" precision="FP32">
					<dim>1</dim>
					<dim>88</dim>
					<dim>52</dim>
					<dim>52</dim>
				</port>
			</input>
			<output>
				<port id="2" precision="FP32" names="/backbone/stage2/stage2.3/Concat_output_0">
					<dim>1</dim>
					<dim>176</dim>
					<dim>52</dim>
					<dim>52</dim>
				</port>
			</output>
		</layer>
		<layer id="303" name="/backbone/stage2/stage2.3/Reshape" type="Reshape" version="opset1">
			<data special_zero="true" />
			<input>
				<port id="0" precision="FP32">
					<dim>1</dim>
					<dim>176</dim>
					<dim>52</dim>
					<dim>52</dim>
				</port>
				<port id="1" precision="I64">
					<dim>5</dim>
				</port>
			</input>
			<output>
				<port id="2" precision="FP32" names="/backbone/stage2/stage2.3/Reshape_output_0">
					<dim>1</dim>
					<dim>2</dim>
					<dim>88</dim>
					<dim>52</dim>
					<dim>52</dim>
				</port>
			</output>
		</layer>
		<layer id="304" name="Constant_1493" type="Const" version="opset1">
			<data element_type="i64" shape="5" offset="56196" size="40" />
			<output>
				<port id="0" precision="I64">
					<dim>5</dim>
				</port>
			</output>
		</layer>
		<layer id="305" name="/backbone/stage2/stage2.3/Transpose" type="Transpose" version="opset1">
			<input>
				<port id="0" precision="FP32">
					<dim>1</dim>
					<dim>2</dim>
					<dim>88</dim>
					<dim>52</dim>
					<dim>52</dim>
				</port>
				<port id="1" precision="I64">
					<dim>5</dim>
				</port>
			</input>
			<output>
				<port id="2" precision="FP32" names="/backbone/stage2/stage2.3/Transpose_output_0">
					<dim>1</dim>
					<dim>88</dim>
					<dim>2</dim>
					<dim>52</dim>
					<dim>52</dim>
				</port>
			</output>
		</layer>
		<layer id="306" name="/backbone/stage2/stage2.3/Reshape_1" type="Reshape" version="opset1">
			<data special_zero="true" />
			<input>
				<port id="0" precision="FP32">
					<dim>1</dim>
					<dim>88</dim>
					<dim>2</dim>
					<dim>52</dim>
					<dim>52</dim>
				</port>
				<port id="1" precision="I64">
					<dim>4</dim>
				</port>
			</input>
			<output>
				<port id="2" precision="FP32" names="/backbone/stage2/stage2.3/Reshape_1_output_0">
					<dim>1</dim>
					<dim>176</dim>
					<dim>52</dim>
					<dim>52</dim>
				</port>
			</output>
		</layer>
		<layer id="307" name="onnx::Conv_1577" type="Const" version="opset1">
			<data element_type="f32" shape="176, 1, 3, 3" offset="254804" size="6336" />
			<output>
				<port id="0" precision="FP32" names="onnx::Conv_1577">
					<dim>176</dim>
					<dim>1</dim>
					<dim>3</dim>
					<dim>3</dim>
				</port>
			</output>
		</layer>
		<layer id="308" name="Constant_1500" type="Const" version="opset1">
			<data element_type="i64" shape="1" offset="56268" size="8" />
			<output>
				<port id="0" precision="I64">
					<dim>1</dim>
				</port>
			</output>
		</layer>
		<layer id="309" name="ShapeOf_1501" type="ShapeOf" version="opset3">
			<data output_type="i64" />
			<input>
				<port id="0" precision="FP32">
					<dim>176</dim>
					<dim>1</dim>
					<dim>3</dim>
					<dim>3</dim>
				</port>
			</input>
			<output>
				<port id="1" precision="I64">
					<dim>4</dim>
				</port>
			</output>
		</layer>
		<layer id="310" name="Constant_1498" type="Const" version="opset1">
			<data element_type="i64" shape="" offset="3580" size="8" />
			<output>
				<port id="0" precision="I64" />
			</output>
		</layer>
		<layer id="311" name="Constant_1499" type="Const" version="opset1">
			<data element_type="i64" shape="2" offset="3588" size="16" />
			<output>
				<port id="0" precision="I64">
					<dim>2</dim>
				</port>
			</output>
		</layer>
		<layer id="312" name="VariadicSplit_1502" type="VariadicSplit" version="opset1">
			<input>
				<port id="0" precision="I64">
					<dim>4</dim>
				</port>
				<port id="1" precision="I64" />
				<port id="2" precision="I64">
					<dim>2</dim>
				</port>
			</input>
			<output>
				<port id="3" precision="I64">
					<dim>1</dim>
				</port>
				<port id="4" precision="I64">
					<dim>3</dim>
				</port>
			</output>
		</layer>
		<layer id="313" name="Divide_1503" type="Divide" version="opset1">
			<data auto_broadcast="numpy" m_pythondiv="true" />
			<input>
				<port id="0" precision="I64">
					<dim>1</dim>
				</port>
				<port id="1" precision="I64">
					<dim>1</dim>
				</port>
			</input>
			<output>
				<port id="2" precision="I64">
					<dim>1</dim>
				</port>
			</output>
		</layer>
		<layer id="314" name="Concat_1504" type="Concat" version="opset1">
			<data axis="0" />
			<input>
				<port id="0" precision="I64">
					<dim>1</dim>
				</port>
				<port id="1" precision="I64">
					<dim>1</dim>
				</port>
				<port id="2" precision="I64">
					<dim>3</dim>
				</port>
			</input>
			<output>
				<port id="3" precision="I64">
					<dim>5</dim>
				</port>
			</output>
		</layer>
		<layer id="315" name="Reshape_1505" type="Reshape" version="opset1">
			<data special_zero="false" />
			<input>
				<port id="0" precision="FP32">
					<dim>176</dim>
					<dim>1</dim>
					<dim>3</dim>
					<dim>3</dim>
				</port>
				<port id="1" precision="I64">
					<dim>5</dim>
				</port>
			</input>
			<output>
				<port id="2" precision="FP32">
					<dim>176</dim>
					<dim>1</dim>
					<dim>1</dim>
					<dim>3</dim>
					<dim>3</dim>
				</port>
			</output>
		</layer>
		<layer id="316" name="/backbone/stage3/stage3.0/branch1/branch1.0/Conv/WithoutBiases" type="GroupConvolution" version="opset1">
			<data strides="2, 2" pads_begin="1, 1" pads_end="1, 1" dilations="1, 1" auto_pad="explicit" />
			<input>
				<port id="0" precision="FP32">
					<dim>1</dim>
					<dim>176</dim>
					<dim>52</dim>
					<dim>52</dim>
				</port>
				<port id="1" precision="FP32">
					<dim>176</dim>
					<dim>1</dim>
					<dim>1</dim>
					<dim>3</dim>
					<dim>3</dim>
				</port>
			</input>
			<output>
				<port id="2" precision="FP32">
					<dim>1</dim>
					<dim>176</dim>
					<dim>26</dim>
					<dim>26</dim>
				</port>
			</output>
		</layer>
		<layer id="317" name="onnx::Conv_1578" type="Const" version="opset1">
			<data element_type="f32" shape="176" offset="261140" size="704" />
			<output>
				<port id="0" precision="FP32" names="onnx::Conv_1578">
					<dim>176</dim>
				</port>
			</output>
		</layer>
		<layer id="318" name="Constant_1574" type="Const" version="opset1">
			<data element_type="i64" shape="1" offset="2688" size="8" />
			<output>
				<port id="0" precision="I64">
					<dim>1</dim>
				</port>
			</output>
		</layer>
		<layer id="319" name="ShapeOf_1589" type="ShapeOf" version="opset3">
			<data output_type="i64" />
			<input>
				<port id="0" precision="FP32">
					<dim>176</dim>
				</port>
			</input>
			<output>
				<port id="1" precision="I64">
					<dim>1</dim>
				</port>
			</output>
		</layer>
		<layer id="320" name="ShapeOf_1572" type="ShapeOf" version="opset3">
			<data output_type="i64" />
			<input>
				<port id="0" precision="FP32">
					<dim>1</dim>
					<dim>176</dim>
					<dim>26</dim>
					<dim>26</dim>
				</port>
			</input>
			<output>
				<port id="1" precision="I64">
					<dim>4</dim>
				</port>
			</output>
		</layer>
		<layer id="321" name="ShapeOf_1573" type="ShapeOf" version="opset3">
			<data output_type="i64" />
			<input>
				<port id="0" precision="I64">
					<dim>4</dim>
				</port>
			</input>
			<output>
				<port id="1" precision="I64">
					<dim>1</dim>
				</port>
			</output>
		</layer>
		<layer id="322" name="Constant_1575" type="Const" version="opset1">
			<data element_type="i64" shape="1" offset="2696" size="8" />
			<output>
				<port id="0" precision="I64">
					<dim>1</dim>
				</port>
			</output>
		</layer>
		<layer id="323" name="Subtract_1576" type="Subtract" version="opset1">
			<data auto_broadcast="numpy" />
			<input>
				<port id="0" precision="I64">
					<dim>1</dim>
				</port>
				<port id="1" precision="I64">
					<dim>1</dim>
				</port>
			</input>
			<output>
				<port id="2" precision="I64">
					<dim>1</dim>
				</port>
			</output>
		</layer>
		<layer id="324" name="Broadcast_1577" type="Broadcast" version="opset3">
			<data mode="numpy" />
			<input>
				<port id="0" precision="I64">
					<dim>1</dim>
				</port>
				<port id="1" precision="I64">
					<dim>1</dim>
				</port>
			</input>
			<output>
				<port id="2" precision="I64">
					<dim>2</dim>
				</port>
			</output>
		</layer>
		<layer id="325" name="Concat_1590" type="Concat" version="opset1">
			<data axis="0" />
			<input>
				<port id="0" precision="I64">
					<dim>1</dim>
				</port>
				<port id="1" precision="I64">
					<dim>1</dim>
				</port>
				<port id="2" precision="I64">
					<dim>2</dim>
				</port>
			</input>
			<output>
				<port id="3" precision="I64">
					<dim>4</dim>
				</port>
			</output>
		</layer>
		<layer id="326" name="Reshape_1591" type="Reshape" version="opset1">
			<data special_zero="false" />
			<input>
				<port id="0" precision="FP32">
					<dim>176</dim>
				</port>
				<port id="1" precision="I64">
					<dim>4</dim>
				</port>
			</input>
			<output>
				<port id="2" precision="FP32">
					<dim>1</dim>
					<dim>176</dim>
					<dim>1</dim>
					<dim>1</dim>
				</port>
			</output>
		</layer>
		<layer id="327" name="/backbone/stage3/stage3.0/branch1/branch1.0/Conv" type="Add" version="opset1">
			<data auto_broadcast="numpy" />
			<input>
				<port id="0" precision="FP32">
					<dim>1</dim>
					<dim>176</dim>
					<dim>26</dim>
					<dim>26</dim>
				</port>
				<port id="1" precision="FP32">
					<dim>1</dim>
					<dim>176</dim>
					<dim>1</dim>
					<dim>1</dim>
				</port>
			</input>
			<output>
				<port id="2" precision="FP32" names="/backbone/stage3/stage3.0/branch1/branch1.0/Conv_output_0">
					<dim>1</dim>
					<dim>176</dim>
					<dim>26</dim>
					<dim>26</dim>
				</port>
			</output>
		</layer>
		<layer id="328" name="onnx::Conv_1580" type="Const" version="opset1">
			<data element_type="f32" shape="176, 176, 1, 1" offset="261844" size="123904" />
			<output>
				<port id="0" precision="FP32" names="onnx::Conv_1580">
					<dim>176</dim>
					<dim>176</dim>
					<dim>1</dim>
					<dim>1</dim>
				</port>
			</output>
		</layer>
		<layer id="329" name="/backbone/stage3/stage3.0/branch1/branch1.2/Conv/WithoutBiases" type="Convolution" version="opset1">
			<data strides="1, 1" dilations="1, 1" pads_begin="0, 0" pads_end="0, 0" auto_pad="explicit" />
			<input>
				<port id="0" precision="FP32">
					<dim>1</dim>
					<dim>176</dim>
					<dim>26</dim>
					<dim>26</dim>
				</port>
				<port id="1" precision="FP32">
					<dim>176</dim>
					<dim>176</dim>
					<dim>1</dim>
					<dim>1</dim>
				</port>
			</input>
			<output>
				<port id="2" precision="FP32">
					<dim>1</dim>
					<dim>176</dim>
					<dim>26</dim>
					<dim>26</dim>
				</port>
			</output>
		</layer>
		<layer id="330" name="onnx::Conv_1581" type="Const" version="opset1">
			<data element_type="f32" shape="176" offset="385748" size="704" />
			<output>
				<port id="0" precision="FP32" names="onnx::Conv_1581">
					<dim>176</dim>
				</port>
			</output>
		</layer>
		<layer id="331" name="Constant_1622" type="Const" version="opset1">
			<data element_type="i64" shape="1" offset="2688" size="8" />
			<output>
				<port id="0" precision="I64">
					<dim>1</dim>
				</port>
			</output>
		</layer>
		<layer id="332" name="ShapeOf_1637" type="ShapeOf" version="opset3">
			<data output_type="i64" />
			<input>
				<port id="0" precision="FP32">
					<dim>176</dim>
				</port>
			</input>
			<output>
				<port id="1" precision="I64">
					<dim>1</dim>
				</port>
			</output>
		</layer>
		<layer id="333" name="ShapeOf_1620" type="ShapeOf" version="opset3">
			<data output_type="i64" />
			<input>
				<port id="0" precision="FP32">
					<dim>1</dim>
					<dim>176</dim>
					<dim>26</dim>
					<dim>26</dim>
				</port>
			</input>
			<output>
				<port id="1" precision="I64">
					<dim>4</dim>
				</port>
			</output>
		</layer>
		<layer id="334" name="ShapeOf_1621" type="ShapeOf" version="opset3">
			<data output_type="i64" />
			<input>
				<port id="0" precision="I64">
					<dim>4</dim>
				</port>
			</input>
			<output>
				<port id="1" precision="I64">
					<dim>1</dim>
				</port>
			</output>
		</layer>
		<layer id="335" name="Constant_1623" type="Const" version="opset1">
			<data element_type="i64" shape="1" offset="2696" size="8" />
			<output>
				<port id="0" precision="I64">
					<dim>1</dim>
				</port>
			</output>
		</layer>
		<layer id="336" name="Subtract_1624" type="Subtract" version="opset1">
			<data auto_broadcast="numpy" />
			<input>
				<port id="0" precision="I64">
					<dim>1</dim>
				</port>
				<port id="1" precision="I64">
					<dim>1</dim>
				</port>
			</input>
			<output>
				<port id="2" precision="I64">
					<dim>1</dim>
				</port>
			</output>
		</layer>
		<layer id="337" name="Broadcast_1625" type="Broadcast" version="opset3">
			<data mode="numpy" />
			<input>
				<port id="0" precision="I64">
					<dim>1</dim>
				</port>
				<port id="1" precision="I64">
					<dim>1</dim>
				</port>
			</input>
			<output>
				<port id="2" precision="I64">
					<dim>2</dim>
				</port>
			</output>
		</layer>
		<layer id="338" name="Concat_1638" type="Concat" version="opset1">
			<data axis="0" />
			<input>
				<port id="0" precision="I64">
					<dim>1</dim>
				</port>
				<port id="1" precision="I64">
					<dim>1</dim>
				</port>
				<port id="2" precision="I64">
					<dim>2</dim>
				</port>
			</input>
			<output>
				<port id="3" precision="I64">
					<dim>4</dim>
				</port>
			</output>
		</layer>
		<layer id="339" name="Reshape_1639" type="Reshape" version="opset1">
			<data special_zero="false" />
			<input>
				<port id="0" precision="FP32">
					<dim>176</dim>
				</port>
				<port id="1" precision="I64">
					<dim>4</dim>
				</port>
			</input>
			<output>
				<port id="2" precision="FP32">
					<dim>1</dim>
					<dim>176</dim>
					<dim>1</dim>
					<dim>1</dim>
				</port>
			</output>
		</layer>
		<layer id="340" name="/backbone/stage3/stage3.0/branch1/branch1.2/Conv" type="Add" version="opset1">
			<data auto_broadcast="numpy" />
			<input>
				<port id="0" precision="FP32">
					<dim>1</dim>
					<dim>176</dim>
					<dim>26</dim>
					<dim>26</dim>
				</port>
				<port id="1" precision="FP32">
					<dim>1</dim>
					<dim>176</dim>
					<dim>1</dim>
					<dim>1</dim>
				</port>
			</input>
			<output>
				<port id="2" precision="FP32" names="/backbone/stage3/stage3.0/branch1/branch1.2/Conv_output_0">
					<dim>1</dim>
					<dim>176</dim>
					<dim>26</dim>
					<dim>26</dim>
				</port>
			</output>
		</layer>
		<layer id="341" name="Constant_1667" type="Const" version="opset1">
			<data element_type="f32" shape="1" offset="2704" size="4" />
			<output>
				<port id="0" precision="FP32">
					<dim>1</dim>
				</port>
			</output>
		</layer>
		<layer id="342" name="/backbone/stage3/stage3.0/branch1/branch1.4/LeakyRelu" type="PReLU" version="opset1">
			<input>
				<port id="0" precision="FP32">
					<dim>1</dim>
					<dim>176</dim>
					<dim>26</dim>
					<dim>26</dim>
				</port>
				<port id="1" precision="FP32">
					<dim>1</dim>
				</port>
			</input>
			<output>
				<port id="2" precision="FP32" names="/backbone/stage3/stage3.0/branch1/branch1.4/LeakyRelu_output_0">
					<dim>1</dim>
					<dim>176</dim>
					<dim>26</dim>
					<dim>26</dim>
				</port>
			</output>
		</layer>
		<layer id="343" name="onnx::Conv_1583" type="Const" version="opset1">
			<data element_type="f32" shape="176, 176, 1, 1" offset="386452" size="123904" />
			<output>
				<port id="0" precision="FP32" names="onnx::Conv_1583">
					<dim>176</dim>
					<dim>176</dim>
					<dim>1</dim>
					<dim>1</dim>
				</port>
			</output>
		</layer>
		<layer id="344" name="/backbone/stage3/stage3.0/branch2/branch2.0/Conv/WithoutBiases" type="Convolution" version="opset1">
			<data strides="1, 1" dilations="1, 1" pads_begin="0, 0" pads_end="0, 0" auto_pad="explicit" />
			<input>
				<port id="0" precision="FP32">
					<dim>1</dim>
					<dim>176</dim>
					<dim>52</dim>
					<dim>52</dim>
				</port>
				<port id="1" precision="FP32">
					<dim>176</dim>
					<dim>176</dim>
					<dim>1</dim>
					<dim>1</dim>
				</port>
			</input>
			<output>
				<port id="2" precision="FP32">
					<dim>1</dim>
					<dim>176</dim>
					<dim>52</dim>
					<dim>52</dim>
				</port>
			</output>
		</layer>
		<layer id="345" name="onnx::Conv_1584" type="Const" version="opset1">
			<data element_type="f32" shape="176" offset="510356" size="704" />
			<output>
				<port id="0" precision="FP32" names="onnx::Conv_1584">
					<dim>176</dim>
				</port>
			</output>
		</layer>
		<layer id="346" name="Constant_1672" type="Const" version="opset1">
			<data element_type="i64" shape="1" offset="2688" size="8" />
			<output>
				<port id="0" precision="I64">
					<dim>1</dim>
				</port>
			</output>
		</layer>
		<layer id="347" name="ShapeOf_1687" type="ShapeOf" version="opset3">
			<data output_type="i64" />
			<input>
				<port id="0" precision="FP32">
					<dim>176</dim>
				</port>
			</input>
			<output>
				<port id="1" precision="I64">
					<dim>1</dim>
				</port>
			</output>
		</layer>
		<layer id="348" name="ShapeOf_1670" type="ShapeOf" version="opset3">
			<data output_type="i64" />
			<input>
				<port id="0" precision="FP32">
					<dim>1</dim>
					<dim>176</dim>
					<dim>52</dim>
					<dim>52</dim>
				</port>
			</input>
			<output>
				<port id="1" precision="I64">
					<dim>4</dim>
				</port>
			</output>
		</layer>
		<layer id="349" name="ShapeOf_1671" type="ShapeOf" version="opset3">
			<data output_type="i64" />
			<input>
				<port id="0" precision="I64">
					<dim>4</dim>
				</port>
			</input>
			<output>
				<port id="1" precision="I64">
					<dim>1</dim>
				</port>
			</output>
		</layer>
		<layer id="350" name="Constant_1673" type="Const" version="opset1">
			<data element_type="i64" shape="1" offset="2696" size="8" />
			<output>
				<port id="0" precision="I64">
					<dim>1</dim>
				</port>
			</output>
		</layer>
		<layer id="351" name="Subtract_1674" type="Subtract" version="opset1">
			<data auto_broadcast="numpy" />
			<input>
				<port id="0" precision="I64">
					<dim>1</dim>
				</port>
				<port id="1" precision="I64">
					<dim>1</dim>
				</port>
			</input>
			<output>
				<port id="2" precision="I64">
					<dim>1</dim>
				</port>
			</output>
		</layer>
		<layer id="352" name="Broadcast_1675" type="Broadcast" version="opset3">
			<data mode="numpy" />
			<input>
				<port id="0" precision="I64">
					<dim>1</dim>
				</port>
				<port id="1" precision="I64">
					<dim>1</dim>
				</port>
			</input>
			<output>
				<port id="2" precision="I64">
					<dim>2</dim>
				</port>
			</output>
		</layer>
		<layer id="353" name="Concat_1688" type="Concat" version="opset1">
			<data axis="0" />
			<input>
				<port id="0" precision="I64">
					<dim>1</dim>
				</port>
				<port id="1" precision="I64">
					<dim>1</dim>
				</port>
				<port id="2" precision="I64">
					<dim>2</dim>
				</port>
			</input>
			<output>
				<port id="3" precision="I64">
					<dim>4</dim>
				</port>
			</output>
		</layer>
		<layer id="354" name="Reshape_1689" type="Reshape" version="opset1">
			<data special_zero="false" />
			<input>
				<port id="0" precision="FP32">
					<dim>176</dim>
				</port>
				<port id="1" precision="I64">
					<dim>4</dim>
				</port>
			</input>
			<output>
				<port id="2" precision="FP32">
					<dim>1</dim>
					<dim>176</dim>
					<dim>1</dim>
					<dim>1</dim>
				</port>
			</output>
		</layer>
		<layer id="355" name="/backbone/stage3/stage3.0/branch2/branch2.0/Conv" type="Add" version="opset1">
			<data auto_broadcast="numpy" />
			<input>
				<port id="0" precision="FP32">
					<dim>1</dim>
					<dim>176</dim>
					<dim>52</dim>
					<dim>52</dim>
				</port>
				<port id="1" precision="FP32">
					<dim>1</dim>
					<dim>176</dim>
					<dim>1</dim>
					<dim>1</dim>
				</port>
			</input>
			<output>
				<port id="2" precision="FP32" names="/backbone/stage3/stage3.0/branch2/branch2.0/Conv_output_0">
					<dim>1</dim>
					<dim>176</dim>
					<dim>52</dim>
					<dim>52</dim>
				</port>
			</output>
		</layer>
		<layer id="356" name="Constant_1717" type="Const" version="opset1">
			<data element_type="f32" shape="1" offset="2704" size="4" />
			<output>
				<port id="0" precision="FP32">
					<dim>1</dim>
				</port>
			</output>
		</layer>
		<layer id="357" name="/backbone/stage3/stage3.0/branch2/branch2.2/LeakyRelu" type="PReLU" version="opset1">
			<input>
				<port id="0" precision="FP32">
					<dim>1</dim>
					<dim>176</dim>
					<dim>52</dim>
					<dim>52</dim>
				</port>
				<port id="1" precision="FP32">
					<dim>1</dim>
				</port>
			</input>
			<output>
				<port id="2" precision="FP32" names="/backbone/stage3/stage3.0/branch2/branch2.2/LeakyRelu_output_0">
					<dim>1</dim>
					<dim>176</dim>
					<dim>52</dim>
					<dim>52</dim>
				</port>
			</output>
		</layer>
		<layer id="358" name="onnx::Conv_1586" type="Const" version="opset1">
			<data element_type="f32" shape="176, 1, 3, 3" offset="511060" size="6336" />
			<output>
				<port id="0" precision="FP32" names="onnx::Conv_1586">
					<dim>176</dim>
					<dim>1</dim>
					<dim>3</dim>
					<dim>3</dim>
				</port>
			</output>
		</layer>
		<layer id="359" name="Constant_1721" type="Const" version="opset1">
			<data element_type="i64" shape="1" offset="56268" size="8" />
			<output>
				<port id="0" precision="I64">
					<dim>1</dim>
				</port>
			</output>
		</layer>
		<layer id="360" name="ShapeOf_1722" type="ShapeOf" version="opset3">
			<data output_type="i64" />
			<input>
				<port id="0" precision="FP32">
					<dim>176</dim>
					<dim>1</dim>
					<dim>3</dim>
					<dim>3</dim>
				</port>
			</input>
			<output>
				<port id="1" precision="I64">
					<dim>4</dim>
				</port>
			</output>
		</layer>
		<layer id="361" name="Constant_1719" type="Const" version="opset1">
			<data element_type="i64" shape="" offset="3580" size="8" />
			<output>
				<port id="0" precision="I64" />
			</output>
		</layer>
		<layer id="362" name="Constant_1720" type="Const" version="opset1">
			<data element_type="i64" shape="2" offset="3588" size="16" />
			<output>
				<port id="0" precision="I64">
					<dim>2</dim>
				</port>
			</output>
		</layer>
		<layer id="363" name="VariadicSplit_1723" type="VariadicSplit" version="opset1">
			<input>
				<port id="0" precision="I64">
					<dim>4</dim>
				</port>
				<port id="1" precision="I64" />
				<port id="2" precision="I64">
					<dim>2</dim>
				</port>
			</input>
			<output>
				<port id="3" precision="I64">
					<dim>1</dim>
				</port>
				<port id="4" precision="I64">
					<dim>3</dim>
				</port>
			</output>
		</layer>
		<layer id="364" name="Divide_1724" type="Divide" version="opset1">
			<data auto_broadcast="numpy" m_pythondiv="true" />
			<input>
				<port id="0" precision="I64">
					<dim>1</dim>
				</port>
				<port id="1" precision="I64">
					<dim>1</dim>
				</port>
			</input>
			<output>
				<port id="2" precision="I64">
					<dim>1</dim>
				</port>
			</output>
		</layer>
		<layer id="365" name="Concat_1725" type="Concat" version="opset1">
			<data axis="0" />
			<input>
				<port id="0" precision="I64">
					<dim>1</dim>
				</port>
				<port id="1" precision="I64">
					<dim>1</dim>
				</port>
				<port id="2" precision="I64">
					<dim>3</dim>
				</port>
			</input>
			<output>
				<port id="3" precision="I64">
					<dim>5</dim>
				</port>
			</output>
		</layer>
		<layer id="366" name="Reshape_1726" type="Reshape" version="opset1">
			<data special_zero="false" />
			<input>
				<port id="0" precision="FP32">
					<dim>176</dim>
					<dim>1</dim>
					<dim>3</dim>
					<dim>3</dim>
				</port>
				<port id="1" precision="I64">
					<dim>5</dim>
				</port>
			</input>
			<output>
				<port id="2" precision="FP32">
					<dim>176</dim>
					<dim>1</dim>
					<dim>1</dim>
					<dim>3</dim>
					<dim>3</dim>
				</port>
			</output>
		</layer>
		<layer id="367" name="/backbone/stage3/stage3.0/branch2/branch2.3/Conv/WithoutBiases" type="GroupConvolution" version="opset1">
			<data strides="2, 2" pads_begin="1, 1" pads_end="1, 1" dilations="1, 1" auto_pad="explicit" />
			<input>
				<port id="0" precision="FP32">
					<dim>1</dim>
					<dim>176</dim>
					<dim>52</dim>
					<dim>52</dim>
				</port>
				<port id="1" precision="FP32">
					<dim>176</dim>
					<dim>1</dim>
					<dim>1</dim>
					<dim>3</dim>
					<dim>3</dim>
				</port>
			</input>
			<output>
				<port id="2" precision="FP32">
					<dim>1</dim>
					<dim>176</dim>
					<dim>26</dim>
					<dim>26</dim>
				</port>
			</output>
		</layer>
		<layer id="368" name="onnx::Conv_1587" type="Const" version="opset1">
			<data element_type="f32" shape="176" offset="517396" size="704" />
			<output>
				<port id="0" precision="FP32" names="onnx::Conv_1587">
					<dim>176</dim>
				</port>
			</output>
		</layer>
		<layer id="369" name="Constant_1795" type="Const" version="opset1">
			<data element_type="i64" shape="1" offset="2688" size="8" />
			<output>
				<port id="0" precision="I64">
					<dim>1</dim>
				</port>
			</output>
		</layer>
		<layer id="370" name="ShapeOf_1810" type="ShapeOf" version="opset3">
			<data output_type="i64" />
			<input>
				<port id="0" precision="FP32">
					<dim>176</dim>
				</port>
			</input>
			<output>
				<port id="1" precision="I64">
					<dim>1</dim>
				</port>
			</output>
		</layer>
		<layer id="371" name="ShapeOf_1793" type="ShapeOf" version="opset3">
			<data output_type="i64" />
			<input>
				<port id="0" precision="FP32">
					<dim>1</dim>
					<dim>176</dim>
					<dim>26</dim>
					<dim>26</dim>
				</port>
			</input>
			<output>
				<port id="1" precision="I64">
					<dim>4</dim>
				</port>
			</output>
		</layer>
		<layer id="372" name="ShapeOf_1794" type="ShapeOf" version="opset3">
			<data output_type="i64" />
			<input>
				<port id="0" precision="I64">
					<dim>4</dim>
				</port>
			</input>
			<output>
				<port id="1" precision="I64">
					<dim>1</dim>
				</port>
			</output>
		</layer>
		<layer id="373" name="Constant_1796" type="Const" version="opset1">
			<data element_type="i64" shape="1" offset="2696" size="8" />
			<output>
				<port id="0" precision="I64">
					<dim>1</dim>
				</port>
			</output>
		</layer>
		<layer id="374" name="Subtract_1797" type="Subtract" version="opset1">
			<data auto_broadcast="numpy" />
			<input>
				<port id="0" precision="I64">
					<dim>1</dim>
				</port>
				<port id="1" precision="I64">
					<dim>1</dim>
				</port>
			</input>
			<output>
				<port id="2" precision="I64">
					<dim>1</dim>
				</port>
			</output>
		</layer>
		<layer id="375" name="Broadcast_1798" type="Broadcast" version="opset3">
			<data mode="numpy" />
			<input>
				<port id="0" precision="I64">
					<dim>1</dim>
				</port>
				<port id="1" precision="I64">
					<dim>1</dim>
				</port>
			</input>
			<output>
				<port id="2" precision="I64">
					<dim>2</dim>
				</port>
			</output>
		</layer>
		<layer id="376" name="Concat_1811" type="Concat" version="opset1">
			<data axis="0" />
			<input>
				<port id="0" precision="I64">
					<dim>1</dim>
				</port>
				<port id="1" precision="I64">
					<dim>1</dim>
				</port>
				<port id="2" precision="I64">
					<dim>2</dim>
				</port>
			</input>
			<output>
				<port id="3" precision="I64">
					<dim>4</dim>
				</port>
			</output>
		</layer>
		<layer id="377" name="Reshape_1812" type="Reshape" version="opset1">
			<data special_zero="false" />
			<input>
				<port id="0" precision="FP32">
					<dim>176</dim>
				</port>
				<port id="1" precision="I64">
					<dim>4</dim>
				</port>
			</input>
			<output>
				<port id="2" precision="FP32">
					<dim>1</dim>
					<dim>176</dim>
					<dim>1</dim>
					<dim>1</dim>
				</port>
			</output>
		</layer>
		<layer id="378" name="/backbone/stage3/stage3.0/branch2/branch2.3/Conv" type="Add" version="opset1">
			<data auto_broadcast="numpy" />
			<input>
				<port id="0" precision="FP32">
					<dim>1</dim>
					<dim>176</dim>
					<dim>26</dim>
					<dim>26</dim>
				</port>
				<port id="1" precision="FP32">
					<dim>1</dim>
					<dim>176</dim>
					<dim>1</dim>
					<dim>1</dim>
				</port>
			</input>
			<output>
				<port id="2" precision="FP32" names="/backbone/stage3/stage3.0/branch2/branch2.3/Conv_output_0">
					<dim>1</dim>
					<dim>176</dim>
					<dim>26</dim>
					<dim>26</dim>
				</port>
			</output>
		</layer>
		<layer id="379" name="onnx::Conv_1589" type="Const" version="opset1">
			<data element_type="f32" shape="176, 176, 1, 1" offset="518100" size="123904" />
			<output>
				<port id="0" precision="FP32" names="onnx::Conv_1589">
					<dim>176</dim>
					<dim>176</dim>
					<dim>1</dim>
					<dim>1</dim>
				</port>
			</output>
		</layer>
		<layer id="380" name="/backbone/stage3/stage3.0/branch2/branch2.5/Conv/WithoutBiases" type="Convolution" version="opset1">
			<data strides="1, 1" dilations="1, 1" pads_begin="0, 0" pads_end="0, 0" auto_pad="explicit" />
			<input>
				<port id="0" precision="FP32">
					<dim>1</dim>
					<dim>176</dim>
					<dim>26</dim>
					<dim>26</dim>
				</port>
				<port id="1" precision="FP32">
					<dim>176</dim>
					<dim>176</dim>
					<dim>1</dim>
					<dim>1</dim>
				</port>
			</input>
			<output>
				<port id="2" precision="FP32">
					<dim>1</dim>
					<dim>176</dim>
					<dim>26</dim>
					<dim>26</dim>
				</port>
			</output>
		</layer>
		<layer id="381" name="onnx::Conv_1590" type="Const" version="opset1">
			<data element_type="f32" shape="176" offset="642004" size="704" />
			<output>
				<port id="0" precision="FP32" names="onnx::Conv_1590">
					<dim>176</dim>
				</port>
			</output>
		</layer>
		<layer id="382" name="Constant_1843" type="Const" version="opset1">
			<data element_type="i64" shape="1" offset="2688" size="8" />
			<output>
				<port id="0" precision="I64">
					<dim>1</dim>
				</port>
			</output>
		</layer>
		<layer id="383" name="ShapeOf_1858" type="ShapeOf" version="opset3">
			<data output_type="i64" />
			<input>
				<port id="0" precision="FP32">
					<dim>176</dim>
				</port>
			</input>
			<output>
				<port id="1" precision="I64">
					<dim>1</dim>
				</port>
			</output>
		</layer>
		<layer id="384" name="ShapeOf_1841" type="ShapeOf" version="opset3">
			<data output_type="i64" />
			<input>
				<port id="0" precision="FP32">
					<dim>1</dim>
					<dim>176</dim>
					<dim>26</dim>
					<dim>26</dim>
				</port>
			</input>
			<output>
				<port id="1" precision="I64">
					<dim>4</dim>
				</port>
			</output>
		</layer>
		<layer id="385" name="ShapeOf_1842" type="ShapeOf" version="opset3">
			<data output_type="i64" />
			<input>
				<port id="0" precision="I64">
					<dim>4</dim>
				</port>
			</input>
			<output>
				<port id="1" precision="I64">
					<dim>1</dim>
				</port>
			</output>
		</layer>
		<layer id="386" name="Constant_1844" type="Const" version="opset1">
			<data element_type="i64" shape="1" offset="2696" size="8" />
			<output>
				<port id="0" precision="I64">
					<dim>1</dim>
				</port>
			</output>
		</layer>
		<layer id="387" name="Subtract_1845" type="Subtract" version="opset1">
			<data auto_broadcast="numpy" />
			<input>
				<port id="0" precision="I64">
					<dim>1</dim>
				</port>
				<port id="1" precision="I64">
					<dim>1</dim>
				</port>
			</input>
			<output>
				<port id="2" precision="I64">
					<dim>1</dim>
				</port>
			</output>
		</layer>
		<layer id="388" name="Broadcast_1846" type="Broadcast" version="opset3">
			<data mode="numpy" />
			<input>
				<port id="0" precision="I64">
					<dim>1</dim>
				</port>
				<port id="1" precision="I64">
					<dim>1</dim>
				</port>
			</input>
			<output>
				<port id="2" precision="I64">
					<dim>2</dim>
				</port>
			</output>
		</layer>
		<layer id="389" name="Concat_1859" type="Concat" version="opset1">
			<data axis="0" />
			<input>
				<port id="0" precision="I64">
					<dim>1</dim>
				</port>
				<port id="1" precision="I64">
					<dim>1</dim>
				</port>
				<port id="2" precision="I64">
					<dim>2</dim>
				</port>
			</input>
			<output>
				<port id="3" precision="I64">
					<dim>4</dim>
				</port>
			</output>
		</layer>
		<layer id="390" name="Reshape_1860" type="Reshape" version="opset1">
			<data special_zero="false" />
			<input>
				<port id="0" precision="FP32">
					<dim>176</dim>
				</port>
				<port id="1" precision="I64">
					<dim>4</dim>
				</port>
			</input>
			<output>
				<port id="2" precision="FP32">
					<dim>1</dim>
					<dim>176</dim>
					<dim>1</dim>
					<dim>1</dim>
				</port>
			</output>
		</layer>
		<layer id="391" name="/backbone/stage3/stage3.0/branch2/branch2.5/Conv" type="Add" version="opset1">
			<data auto_broadcast="numpy" />
			<input>
				<port id="0" precision="FP32">
					<dim>1</dim>
					<dim>176</dim>
					<dim>26</dim>
					<dim>26</dim>
				</port>
				<port id="1" precision="FP32">
					<dim>1</dim>
					<dim>176</dim>
					<dim>1</dim>
					<dim>1</dim>
				</port>
			</input>
			<output>
				<port id="2" precision="FP32" names="/backbone/stage3/stage3.0/branch2/branch2.5/Conv_output_0">
					<dim>1</dim>
					<dim>176</dim>
					<dim>26</dim>
					<dim>26</dim>
				</port>
			</output>
		</layer>
		<layer id="392" name="Constant_1888" type="Const" version="opset1">
			<data element_type="f32" shape="1" offset="2704" size="4" />
			<output>
				<port id="0" precision="FP32">
					<dim>1</dim>
				</port>
			</output>
		</layer>
		<layer id="393" name="/backbone/stage3/stage3.0/branch2/branch2.7/LeakyRelu" type="PReLU" version="opset1">
			<input>
				<port id="0" precision="FP32">
					<dim>1</dim>
					<dim>176</dim>
					<dim>26</dim>
					<dim>26</dim>
				</port>
				<port id="1" precision="FP32">
					<dim>1</dim>
				</port>
			</input>
			<output>
				<port id="2" precision="FP32" names="/backbone/stage3/stage3.0/branch2/branch2.7/LeakyRelu_output_0">
					<dim>1</dim>
					<dim>176</dim>
					<dim>26</dim>
					<dim>26</dim>
				</port>
			</output>
		</layer>
		<layer id="394" name="/backbone/stage3/stage3.0/Concat" type="Concat" version="opset1">
			<data axis="1" />
			<input>
				<port id="0" precision="FP32">
					<dim>1</dim>
					<dim>176</dim>
					<dim>26</dim>
					<dim>26</dim>
				</port>
				<port id="1" precision="FP32">
					<dim>1</dim>
					<dim>176</dim>
					<dim>26</dim>
					<dim>26</dim>
				</port>
			</input>
			<output>
				<port id="2" precision="FP32" names="/backbone/stage3/stage3.0/Concat_output_0">
					<dim>1</dim>
					<dim>352</dim>
					<dim>26</dim>
					<dim>26</dim>
				</port>
			</output>
		</layer>
		<layer id="395" name="/backbone/stage3/stage3.0/Constant_output_0" type="Const" version="opset1">
			<data element_type="i64" shape="5" offset="642708" size="40" />
			<output>
				<port id="0" precision="I64" names="/backbone/stage3/stage3.0/Constant_output_0">
					<dim>5</dim>
				</port>
			</output>
		</layer>
		<layer id="396" name="/backbone/stage3/stage3.0/Reshape" type="Reshape" version="opset1">
			<data special_zero="true" />
			<input>
				<port id="0" precision="FP32">
					<dim>1</dim>
					<dim>352</dim>
					<dim>26</dim>
					<dim>26</dim>
				</port>
				<port id="1" precision="I64">
					<dim>5</dim>
				</port>
			</input>
			<output>
				<port id="2" precision="FP32" names="/backbone/stage3/stage3.0/Reshape_output_0">
					<dim>1</dim>
					<dim>2</dim>
					<dim>176</dim>
					<dim>26</dim>
					<dim>26</dim>
				</port>
			</output>
		</layer>
		<layer id="397" name="Constant_1897" type="Const" version="opset1">
			<data element_type="i64" shape="5" offset="56196" size="40" />
			<output>
				<port id="0" precision="I64">
					<dim>5</dim>
				</port>
			</output>
		</layer>
		<layer id="398" name="/backbone/stage3/stage3.0/Transpose" type="Transpose" version="opset1">
			<input>
				<port id="0" precision="FP32">
					<dim>1</dim>
					<dim>2</dim>
					<dim>176</dim>
					<dim>26</dim>
					<dim>26</dim>
				</port>
				<port id="1" precision="I64">
					<dim>5</dim>
				</port>
			</input>
			<output>
				<port id="2" precision="FP32" names="/backbone/stage3/stage3.0/Transpose_output_0">
					<dim>1</dim>
					<dim>176</dim>
					<dim>2</dim>
					<dim>26</dim>
					<dim>26</dim>
				</port>
			</output>
		</layer>
		<layer id="399" name="/backbone/stage3/stage3.0/Constant_1_output_0" type="Const" version="opset1">
			<data element_type="i64" shape="4" offset="642748" size="32" />
			<output>
				<port id="0" precision="I64" names="/backbone/stage3/stage3.0/Constant_1_output_0">
					<dim>4</dim>
				</port>
			</output>
		</layer>
…
		<edge from-layer="1604" from-port="0" to-layer="1605" to-port="2" />
		<edge from-layer="1605" from-port="3" to-layer="1606" to-port="0" />
		<edge from-layer="1605" from-port="4" to-layer="1607" to-port="2" />
		<edge from-layer="1606" from-port="2" to-layer="1607" to-port="1" />
		<edge from-layer="1607" from-port="3" to-layer="1608" to-port="1" />
		<edge from-layer="1608" from-port="2" to-layer="1609" to-port="1" />
		<edge from-layer="1609" from-port="2" to-layer="1613" to-port="0" />
		<edge from-layer="1609" from-port="2" to-layer="1620" to-port="0" />
		<edge from-layer="1610" from-port="0" to-layer="1619" to-port="0" />
		<edge from-layer="1610" from-port="0" to-layer="1612" to-port="0" />
		<edge from-layer="1611" from-port="0" to-layer="1617" to-port="0" />
		<edge from-layer="1611" from-port="0" to-layer="1618" to-port="0" />
		<edge from-layer="1612" from-port="1" to-layer="1618" to-port="1" />
		<edge from-layer="1613" from-port="1" to-layer="1614" to-port="0" />
		<edge from-layer="1614" from-port="1" to-layer="1616" to-port="0" />
		<edge from-layer="1615" from-port="0" to-layer="1616" to-port="1" />
		<edge from-layer="1616" from-port="2" to-layer="1617" to-port="1" />
		<edge from-layer="1617" from-port="2" to-layer="1618" to-port="2" />
		<edge from-layer="1618" from-port="3" to-layer="1619" to-port="1" />
		<edge from-layer="1619" from-port="2" to-layer="1620" to-port="1" />
		<edge from-layer="1620" from-port="2" to-layer="1621" to-port="1" />
		<edge from-layer="1621" from-port="2" to-layer="1656" to-port="0" />
		<edge from-layer="1622" from-port="0" to-layer="1630" to-port="0" />
		<edge from-layer="1622" from-port="0" to-layer="1624" to-port="0" />
		<edge from-layer="1623" from-port="0" to-layer="1628" to-port="1" />
		<edge from-layer="1623" from-port="0" to-layer="1629" to-port="0" />
		<edge from-layer="1624" from-port="1" to-layer="1627" to-port="0" />
		<edge from-layer="1625" from-port="0" to-layer="1627" to-port="1" />
		<edge from-layer="1626" from-port="0" to-layer="1627" to-port="2" />
		<edge from-layer="1627" from-port="4" to-layer="1629" to-port="2" />
		<edge from-layer="1627" from-port="3" to-layer="1628" to-port="0" />
		<edge from-layer="1628" from-port="2" to-layer="1629" to-port="1" />
		<edge from-layer="1629" from-port="3" to-layer="1630" to-port="1" />
		<edge from-layer="1630" from-port="2" to-layer="1631" to-port="1" />
		<edge from-layer="1631" from-port="2" to-layer="1635" to-port="0" />
		<edge from-layer="1631" from-port="2" to-layer="1642" to-port="0" />
		<edge from-layer="1632" from-port="0" to-layer="1641" to-port="0" />
		<edge from-layer="1632" from-port="0" to-layer="1634" to-port="0" />
		<edge from-layer="1633" from-port="0" to-layer="1639" to-port="0" />
		<edge from-layer="1633" from-port="0" to-layer="1640" to-port="0" />
		<edge from-layer="1634" from-port="1" to-layer="1640" to-port="1" />
		<edge from-layer="1635" from-port="1" to-layer="1636" to-port="0" />
		<edge from-layer="1636" from-port="1" to-layer="1638" to-port="0" />
		<edge from-layer="1637" from-port="0" to-layer="1638" to-port="1" />
		<edge from-layer="1638" from-port="2" to-layer="1639" to-port="1" />
		<edge from-layer="1639" from-port="2" to-layer="1640" to-port="2" />
		<edge from-layer="1640" from-port="3" to-layer="1641" to-port="1" />
		<edge from-layer="1641" from-port="2" to-layer="1642" to-port="1" />
		<edge from-layer="1642" from-port="2" to-layer="1644" to-port="0" />
		<edge from-layer="1643" from-port="0" to-layer="1644" to-port="1" />
		<edge from-layer="1644" from-port="2" to-layer="1655" to-port="0" />
		<edge from-layer="1644" from-port="2" to-layer="1648" to-port="0" />
		<edge from-layer="1645" from-port="0" to-layer="1647" to-port="0" />
		<edge from-layer="1645" from-port="0" to-layer="1654" to-port="0" />
		<edge from-layer="1646" from-port="0" to-layer="1652" to-port="0" />
		<edge from-layer="1646" from-port="0" to-layer="1653" to-port="0" />
		<edge from-layer="1647" from-port="1" to-layer="1653" to-port="1" />
		<edge from-layer="1648" from-port="1" to-layer="1649" to-port="0" />
		<edge from-layer="1649" from-port="1" to-layer="1651" to-port="0" />
		<edge from-layer="1650" from-port="0" to-layer="1651" to-port="1" />
		<edge from-layer="1651" from-port="2" to-layer="1652" to-port="1" />
		<edge from-layer="1652" from-port="2" to-layer="1653" to-port="2" />
		<edge from-layer="1653" from-port="3" to-layer="1654" to-port="1" />
		<edge from-layer="1654" from-port="2" to-layer="1655" to-port="1" />
		<edge from-layer="1655" from-port="2" to-layer="1656" to-port="1" />
		<edge from-layer="1656" from-port="2" to-layer="1761" to-port="0" />
		<edge from-layer="1656" from-port="2" to-layer="1666" to-port="0" />
		<edge from-layer="1657" from-port="0" to-layer="1659" to-port="0" />
		<edge from-layer="1657" from-port="0" to-layer="1665" to-port="0" />
		<edge from-layer="1658" from-port="0" to-layer="1663" to-port="1" />
		<edge from-layer="1658" from-port="0" to-layer="1664" to-port="0" />
		<edge from-layer="1659" from-port="1" to-layer="1662" to-port="0" />
		<edge from-layer="1660" from-port="0" to-layer="1662" to-port="1" />
		<edge from-layer="1661" from-port="0" to-layer="1662" to-port="2" />
		<edge from-layer="1662" from-port="4" to-layer="1664" to-port="2" />
		<edge from-layer="1662" from-port="3" to-layer="1663" to-port="0" />
		<edge from-layer="1663" from-port="2" to-layer="1664" to-port="1" />
		<edge from-layer="1664" from-port="3" to-layer="1665" to-port="1" />
		<edge from-layer="1665" from-port="2" to-layer="1666" to-port="1" />
		<edge from-layer="1666" from-port="2" to-layer="1670" to-port="0" />
		<edge from-layer="1666" from-port="2" to-layer="1677" to-port="0" />
		<edge from-layer="1667" from-port="0" to-layer="1669" to-port="0" />
		<edge from-layer="1667" from-port="0" to-layer="1676" to-port="0" />
		<edge from-layer="1668" from-port="0" to-layer="1674" to-port="0" />
		<edge from-layer="1668" from-port="0" to-layer="1675" to-port="0" />
		<edge from-layer="1669" from-port="1" to-layer="1675" to-port="1" />
		<edge from-layer="1670" from-port="1" to-layer="1671" to-port="0" />
		<edge from-layer="1671" from-port="1" to-layer="1673" to-port="0" />
		<edge from-layer="1672" from-port="0" to-layer="1673" to-port="1" />
		<edge from-layer="1673" from-port="2" to-layer="1674" to-port="1" />
		<edge from-layer="1674" from-port="2" to-layer="1675" to-port="2" />
		<edge from-layer="1675" from-port="3" to-layer="1676" to-port="1" />
		<edge from-layer="1676" from-port="2" to-layer="1677" to-port="1" />
		<edge from-layer="1677" from-port="2" to-layer="1679" to-port="0" />
		<edge from-layer="1678" from-port="0" to-layer="1679" to-port="1" />
		<edge from-layer="1679" from-port="2" to-layer="1681" to-port="0" />
		<edge from-layer="1680" from-port="0" to-layer="1681" to-port="1" />
		<edge from-layer="1681" from-port="2" to-layer="1685" to-port="0" />
		<edge from-layer="1681" from-port="2" to-layer="1692" to-port="0" />
		<edge from-layer="1682" from-port="0" to-layer="1684" to-port="0" />
		<edge from-layer="1682" from-port="0" to-layer="1691" to-port="0" />
		<edge from-layer="1683" from-port="0" to-layer="1690" to-port="0" />
		<edge from-layer="1683" from-port="0" to-layer="1689" to-port="0" />
		<edge from-layer="1684" from-port="1" to-layer="1690" to-port="1" />
		<edge from-layer="1685" from-port="1" to-layer="1686" to-port="0" />
		<edge from-layer="1686" from-port="1" to-layer="1688" to-port="0" />
		<edge from-layer="1687" from-port="0" to-layer="1688" to-port="1" />
		<edge from-layer="1688" from-port="2" to-layer="1689" to-port="1" />
		<edge from-layer="1689" from-port="2" to-layer="1690" to-port="2" />
		<edge from-layer="1690" from-port="3" to-layer="1691" to-port="1" />
		<edge from-layer="1691" from-port="2" to-layer="1692" to-port="1" />
		<edge from-layer="1692" from-port="2" to-layer="1694" to-port="0" />
		<edge from-layer="1693" from-port="0" to-layer="1694" to-port="1" />
		<edge from-layer="1694" from-port="2" to-layer="1704" to-port="0" />
		<edge from-layer="1695" from-port="0" to-layer="1703" to-port="0" />
		<edge from-layer="1695" from-port="0" to-layer="1697" to-port="0" />
		<edge from-layer="1696" from-port="0" to-layer="1701" to-port="1" />
		<edge from-layer="1696" from-port="0" to-layer="1702" to-port="0" />
		<edge from-layer="1697" from-port="1" to-layer="1700" to-port="0" />
		<edge from-layer="1698" from-port="0" to-layer="1700" to-port="1" />
		<edge from-layer="1699" from-port="0" to-layer="1700" to-port="2" />
		<edge from-layer="1700" from-port="4" to-layer="1702" to-port="2" />
		<edge from-layer="1700" from-port="3" to-layer="1701" to-port="0" />
		<edge from-layer="1701" from-port="2" to-layer="1702" to-port="1" />
		<edge from-layer="1702" from-port="3" to-layer="1703" to-port="1" />
		<edge from-layer="1703" from-port="2" to-layer="1704" to-port="1" />
		<edge from-layer="1704" from-port="2" to-layer="1715" to-port="0" />
		<edge from-layer="1704" from-port="2" to-layer="1708" to-port="0" />
		<edge from-layer="1705" from-port="0" to-layer="1714" to-port="0" />
		<edge from-layer="1705" from-port="0" to-layer="1707" to-port="0" />
		<edge from-layer="1706" from-port="0" to-layer="1713" to-port="0" />
		<edge from-layer="1706" from-port="0" to-layer="1712" to-port="0" />
		<edge from-layer="1707" from-port="1" to-layer="1713" to-port="1" />
		<edge from-layer="1708" from-port="1" to-layer="1709" to-port="0" />
		<edge from-layer="1709" from-port="1" to-layer="1711" to-port="0" />
		<edge from-layer="1710" from-port="0" to-layer="1711" to-port="1" />
		<edge from-layer="1711" from-port="2" to-layer="1712" to-port="1" />
		<edge from-layer="1712" from-port="2" to-layer="1713" to-port="2" />
		<edge from-layer="1713" from-port="3" to-layer="1714" to-port="1" />
		<edge from-layer="1714" from-port="2" to-layer="1715" to-port="1" />
		<edge from-layer="1715" from-port="2" to-layer="1717" to-port="0" />
		<edge from-layer="1716" from-port="0" to-layer="1717" to-port="1" />
		<edge from-layer="1717" from-port="2" to-layer="1719" to-port="0" />
		<edge from-layer="1718" from-port="0" to-layer="1719" to-port="1" />
		<edge from-layer="1719" from-port="2" to-layer="1723" to-port="0" />
		<edge from-layer="1719" from-port="2" to-layer="1730" to-port="0" />
		<edge from-layer="1720" from-port="0" to-layer="1729" to-port="0" />
		<edge from-layer="1720" from-port="0" to-layer="1722" to-port="0" />
		<edge from-layer="1721" from-port="0" to-layer="1727" to-port="0" />
		<edge from-layer="1721" from-port="0" to-layer="1728" to-port="0" />
		<edge from-layer="1722" from-port="1" to-layer="1728" to-port="1" />
		<edge from-layer="1723" from-port="1" to-layer="1724" to-port="0" />
		<edge from-layer="1724" from-port="1" to-layer="1726" to-port="0" />
		<edge from-layer="1725" from-port="0" to-layer="1726" to-port="1" />
		<edge from-layer="1726" from-port="2" to-layer="1727" to-port="1" />
		<edge from-layer="1727" from-port="2" to-layer="1728" to-port="2" />
		<edge from-layer="1728" from-port="3" to-layer="1729" to-port="1" />
		<edge from-layer="1729" from-port="2" to-layer="1730" to-port="1" />
		<edge from-layer="1730" from-port="2" to-layer="1732" to-port="0" />
		<edge from-layer="1731" from-port="0" to-layer="1732" to-port="1" />
		<edge from-layer="1732" from-port="2" to-layer="1734" to-port="0" />
		<edge from-layer="1733" from-port="0" to-layer="1734" to-port="1" />
		<edge from-layer="1734" from-port="2" to-layer="1745" to-port="0" />
		<edge from-layer="1734" from-port="2" to-layer="1738" to-port="0" />
		<edge from-layer="1735" from-port="0" to-layer="1744" to-port="0" />
		<edge from-layer="1735" from-port="0" to-layer="1737" to-port="0" />
		<edge from-layer="1736" from-port="0" to-layer="1743" to-port="0" />
		<edge from-layer="1736" from-port="0" to-layer="1742" to-port="0" />
		<edge from-layer="1737" from-port="1" to-layer="1743" to-port="1" />
		<edge from-layer="1738" from-port="1" to-layer="1739" to-port="0" />
		<edge from-layer="1739" from-port="1" to-layer="1741" to-port="0" />
		<edge from-layer="1740" from-port="0" to-layer="1741" to-port="1" />
		<edge from-layer="1741" from-port="2" to-layer="1742" to-port="1" />
		<edge from-layer="1742" from-port="2" to-layer="1743" to-port="2" />
		<edge from-layer="1743" from-port="3" to-layer="1744" to-port="1" />
		<edge from-layer="1744" from-port="2" to-layer="1745" to-port="1" />
		<edge from-layer="1745" from-port="2" to-layer="1748" to-port="0" />
		<edge from-layer="1746" from-port="0" to-layer="1748" to-port="1" />
		<edge from-layer="1747" from-port="0" to-layer="1748" to-port="2" />
		<edge from-layer="1748" from-port="3" to-layer="1749" to-port="0" />
		<edge from-layer="1748" from-port="4" to-layer="1750" to-port="1" />
		<edge from-layer="1749" from-port="1" to-layer="1750" to-port="0" />
		<edge from-layer="1750" from-port="2" to-layer="1751" to-port="0" />
		<edge from-layer="1751" from-port="2" to-layer="2167" to-port="1" />
		<edge from-layer="1752" from-port="0" to-layer="1754" to-port="0" />
		<edge from-layer="1752" from-port="0" to-layer="1760" to-port="0" />
		<edge from-layer="1753" from-port="0" to-layer="1759" to-port="0" />
		<edge from-layer="1753" from-port="0" to-layer="1758" to-port="1" />
		<edge from-layer="1754" from-port="1" to-layer="1757" to-port="0" />
		<edge from-layer="1755" from-port="0" to-layer="1757" to-port="1" />
		<edge from-layer="1756" from-port="0" to-layer="1757" to-port="2" />
		<edge from-layer="1757" from-port="3" to-layer="1758" to-port="0" />
		<edge from-layer="1757" from-port="4" to-layer="1759" to-port="2" />
		<edge from-layer="1758" from-port="2" to-layer="1759" to-port="1" />
		<edge from-layer="1759" from-port="3" to-layer="1760" to-port="1" />
		<edge from-layer="1760" from-port="2" to-layer="1761" to-port="1" />
		<edge from-layer="1761" from-port="2" to-layer="1765" to-port="0" />
		<edge from-layer="1761" from-port="2" to-layer="1772" to-port="0" />
		<edge from-layer="1762" from-port="0" to-layer="1771" to-port="0" />
		<edge from-layer="1762" from-port="0" to-layer="1764" to-port="0" />
		<edge from-layer="1763" from-port="0" to-layer="1769" to-port="0" />
		<edge from-layer="1763" from-port="0" to-layer="1770" to-port="0" />
		<edge from-layer="1764" from-port="1" to-layer="1770" to-port="1" />
		<edge from-layer="1765" from-port="1" to-layer="1766" to-port="0" />
		<edge from-layer="1766" from-port="1" to-layer="1768" to-port="0" />
		<edge from-layer="1767" from-port="0" to-layer="1768" to-port="1" />
		<edge from-layer="1768" from-port="2" to-layer="1769" to-port="1" />
		<edge from-layer="1769" from-port="2" to-layer="1770" to-port="2" />
		<edge from-layer="1770" from-port="3" to-layer="1771" to-port="1" />
		<edge from-layer="1771" from-port="2" to-layer="1772" to-port="1" />
		<edge from-layer="1772" from-port="2" to-layer="1774" to-port="0" />
		<edge from-layer="1773" from-port="0" to-layer="1774" to-port="1" />
		<edge from-layer="1774" from-port="2" to-layer="1776" to-port="0" />
		<edge from-layer="1775" from-port="0" to-layer="1776" to-port="1" />
		<edge from-layer="1776" from-port="2" to-layer="1780" to-port="0" />
		<edge from-layer="1776" from-port="2" to-layer="1787" to-port="0" />
		<edge from-layer="1777" from-port="0" to-layer="1786" to-port="0" />
		<edge from-layer="1777" from-port="0" to-layer="1779" to-port="0" />
		<edge from-layer="1778" from-port="0" to-layer="1785" to-port="0" />
		<edge from-layer="1778" from-port="0" to-layer="1784" to-port="0" />
		<edge from-layer="1779" from-port="1" to-layer="1785" to-port="1" />
		<edge from-layer="1780" from-port="1" to-layer="1781" to-port="0" />
		<edge from-layer="1781" from-port="1" to-layer="1783" to-port="0" />
		<edge from-layer="1782" from-port="0" to-layer="1783" to-port="1" />
		<edge from-layer="1783" from-port="2" to-layer="1784" to-port="1" />
		<edge from-layer="1784" from-port="2" to-layer="1785" to-port="2" />
		<edge from-layer="1785" from-port="3" to-layer="1786" to-port="1" />
		<edge from-layer="1786" from-port="2" to-layer="1787" to-port="1" />
		<edge from-layer="1787" from-port="2" to-layer="1789" to-port="0" />
		<edge from-layer="1788" from-port="0" to-layer="1789" to-port="1" />
		<edge from-layer="1789" from-port="2" to-layer="1790" to-port="0" />
		<edge from-layer="1790" from-port="2" to-layer="1792" to-port="0" />
		<edge from-layer="1790" from-port="2" to-layer="1874" to-port="0" />
		<edge from-layer="1791" from-port="0" to-layer="1792" to-port="1" />
		<edge from-layer="1792" from-port="2" to-layer="1803" to-port="0" />
		<edge from-layer="1792" from-port="2" to-layer="1796" to-port="0" />
		<edge from-layer="1793" from-port="0" to-layer="1802" to-port="0" />
		<edge from-layer="1793" from-port="0" to-layer="1795" to-port="0" />
		<edge from-layer="1794" from-port="0" to-layer="1801" to-port="0" />
		<edge from-layer="1794" from-port="0" to-layer="1800" to-port="0" />
		<edge from-layer="1795" from-port="1" to-layer="1801" to-port="1" />
		<edge from-layer="1796" from-port="1" to-layer="1797" to-port="0" />
		<edge from-layer="1797" from-port="1" to-layer="1799" to-port="0" />
		<edge from-layer="1798" from-port="0" to-layer="1799" to-port="1" />
		<edge from-layer="1799" from-port="2" to-layer="1800" to-port="1" />
		<edge from-layer="1800" from-port="2" to-layer="1801" to-port="2" />
		<edge from-layer="1801" from-port="3" to-layer="1802" to-port="1" />
		<edge from-layer="1802" from-port="2" to-layer="1803" to-port="1" />
		<edge from-layer="1803" from-port="2" to-layer="1805" to-port="0" />
		<edge from-layer="1804" from-port="0" to-layer="1805" to-port="1" />
		<edge from-layer="1805" from-port="2" to-layer="1815" to-port="0" />
		<edge from-layer="1805" from-port="2" to-layer="1829" to-port="0" />
		<edge from-layer="1806" from-port="0" to-layer="1814" to-port="0" />
		<edge from-layer="1806" from-port="0" to-layer="1808" to-port="0" />
		<edge from-layer="1807" from-port="0" to-layer="1812" to-port="1" />
		<edge from-layer="1807" from-port="0" to-layer="1813" to-port="0" />
		<edge from-layer="1808" from-port="1" to-layer="1811" to-port="0" />
		<edge from-layer="1809" from-port="0" to-layer="1811" to-port="1" />
		<edge from-layer="1810" from-port="0" to-layer="1811" to-port="2" />
		<edge from-layer="1811" from-port="4" to-layer="1813" to-port="2" />
		<edge from-layer="1811" from-port="3" to-layer="1812" to-port="0" />
		<edge from-layer="1812" from-port="2" to-layer="1813" to-port="1" />
		<edge from-layer="1813" from-port="3" to-layer="1814" to-port="1" />
		<edge from-layer="1814" from-port="2" to-layer="1815" to-port="1" />
		<edge from-layer="1815" from-port="2" to-layer="1826" to-port="0" />
		<edge from-layer="1815" from-port="2" to-layer="1819" to-port="0" />
		<edge from-layer="1816" from-port="0" to-layer="1825" to-port="0" />
		<edge from-layer="1816" from-port="0" to-layer="1818" to-port="0" />
		<edge from-layer="1817" from-port="0" to-layer="1824" to-port="0" />
		<edge from-layer="1817" from-port="0" to-layer="1823" to-port="0" />
		<edge from-layer="1818" from-port="1" to-layer="1824" to-port="1" />
		<edge from-layer="1819" from-port="1" to-layer="1820" to-port="0" />
		<edge from-layer="1820" from-port="1" to-layer="1822" to-port="0" />
		<edge from-layer="1821" from-port="0" to-layer="1822" to-port="1" />
		<edge from-layer="1822" from-port="2" to-layer="1823" to-port="1" />
		<edge from-layer="1823" from-port="2" to-layer="1824" to-port="2" />
		<edge from-layer="1824" from-port="3" to-layer="1825" to-port="1" />
		<edge from-layer="1825" from-port="2" to-layer="1826" to-port="1" />
		<edge from-layer="1826" from-port="2" to-layer="1828" to-port="0" />
		<edge from-layer="1827" from-port="0" to-layer="1828" to-port="1" />
		<edge from-layer="1828" from-port="2" to-layer="1829" to-port="1" />
		<edge from-layer="1829" from-port="2" to-layer="1831" to-port="0" />
		<edge from-layer="1830" from-port="0" to-layer="1831" to-port="1" />
		<edge from-layer="1831" from-port="2" to-layer="1835" to-port="0" />
		<edge from-layer="1831" from-port="2" to-layer="1842" to-port="0" />
		<edge from-layer="1832" from-port="0" to-layer="1834" to-port="0" />
		<edge from-layer="1832" from-port="0" to-layer="1841" to-port="0" />
		<edge from-layer="1833" from-port="0" to-layer="1840" to-port="0" />
		<edge from-layer="1833" from-port="0" to-layer="1839" to-port="0" />
		<edge from-layer="1834" from-port="1" to-layer="1840" to-port="1" />
		<edge from-layer="1835" from-port="1" to-layer="1836" to-port="0" />
		<edge from-layer="1836" from-port="1" to-layer="1838" to-port="0" />
		<edge from-layer="1837" from-port="0" to-layer="1838" to-port="1" />
		<edge from-layer="1838" from-port="2" to-layer="1839" to-port="1" />
		<edge from-layer="1839" from-port="2" to-layer="1840" to-port="2" />
		<edge from-layer="1840" from-port="3" to-layer="1841" to-port="1" />
		<edge from-layer="1841" from-port="2" to-layer="1842" to-port="1" />
		<edge from-layer="1842" from-port="2" to-layer="1852" to-port="0" />
		<edge from-layer="1842" from-port="2" to-layer="1864" to-port="0" />
		<edge from-layer="1843" from-port="0" to-layer="1851" to-port="0" />
		<edge from-layer="1843" from-port="0" to-layer="1845" to-port="0" />
		<edge from-layer="1844" from-port="0" to-layer="1849" to-port="1" />
		<edge from-layer="1844" from-port="0" to-layer="1850" to-port="0" />
		<edge from-layer="1845" from-port="1" to-layer="1848" to-port="0" />
		<edge from-layer="1846" from-port="0" to-layer="1848" to-port="1" />
		<edge from-layer="1847" from-port="0" to-layer="1848" to-port="2" />
		<edge from-layer="1848" from-port="4" to-layer="1850" to-port="2" />
		<edge from-layer="1848" from-port="3" to-layer="1849" to-port="0" />
		<edge from-layer="1849" from-port="2" to-layer="1850" to-port="1" />
		<edge from-layer="1850" from-port="3" to-layer="1851" to-port="1" />
		<edge from-layer="1851" from-port="2" to-layer="1852" to-port="1" />
		<edge from-layer="1852" from-port="2" to-layer="1863" to-port="0" />
		<edge from-layer="1852" from-port="2" to-layer="1856" to-port="0" />
		<edge from-layer="1853" from-port="0" to-layer="1862" to-port="0" />
		<edge from-layer="1853" from-port="0" to-layer="1855" to-port="0" />
		<edge from-layer="1854" from-port="0" to-layer="1860" to-port="0" />
		<edge from-layer="1854" from-port="0" to-layer="1861" to-port="0" />
		<edge from-layer="1855" from-port="1" to-layer="1861" to-port="1" />
		<edge from-layer="1856" from-port="1" to-layer="1857" to-port="0" />
		<edge from-layer="1857" from-port="1" to-layer="1859" to-port="0" />
		<edge from-layer="1858" from-port="0" to-layer="1859" to-port="1" />
		<edge from-layer="1859" from-port="2" to-layer="1860" to-port="1" />
		<edge from-layer="1860" from-port="2" to-layer="1861" to-port="2" />
		<edge from-layer="1861" from-port="3" to-layer="1862" to-port="1" />
		<edge from-layer="1862" from-port="2" to-layer="1863" to-port="1" />
		<edge from-layer="1863" from-port="2" to-layer="1864" to-port="1" />
		<edge from-layer="1864" from-port="2" to-layer="1899" to-port="0" />
		<edge from-layer="1865" from-port="0" to-layer="1873" to-port="0" />
		<edge from-layer="1865" from-port="0" to-layer="1867" to-port="0" />
		<edge from-layer="1866" from-port="0" to-layer="1871" to-port="1" />
		<edge from-layer="1866" from-port="0" to-layer="1872" to-port="0" />
		<edge from-layer="1867" from-port="1" to-layer="1870" to-port="0" />
		<edge from-layer="1868" from-port="0" to-layer="1870" to-port="1" />
		<edge from-layer="1869" from-port="0" to-layer="1870" to-port="2" />
		<edge from-layer="1870" from-port="4" to-layer="1872" to-port="2" />
		<edge from-layer="1870" from-port="3" to-layer="1871" to-port="0" />
		<edge from-layer="1871" from-port="2" to-layer="1872" to-port="1" />
		<edge from-layer="1872" from-port="3" to-layer="1873" to-port="1" />
		<edge from-layer="1873" from-port="2" to-layer="1874" to-port="1" />
		<edge from-layer="1874" from-port="2" to-layer="1878" to-port="0" />
		<edge from-layer="1874" from-port="2" to-layer="1885" to-port="0" />
		<edge from-layer="1875" from-port="0" to-layer="1877" to-port="0" />
		<edge from-layer="1875" from-port="0" to-layer="1884" to-port="0" />
		<edge from-layer="1876" from-port="0" to-layer="1882" to-port="0" />
		<edge from-layer="1876" from-port="0" to-layer="1883" to-port="0" />
		<edge from-layer="1877" from-port="1" to-layer="1883" to-port="1" />
		<edge from-layer="1878" from-port="1" to-layer="1879" to-port="0" />
		<edge from-layer="1879" from-port="1" to-layer="1881" to-port="0" />
		<edge from-layer="1880" from-port="0" to-layer="1881" to-port="1" />
		<edge from-layer="1881" from-port="2" to-layer="1882" to-port="1" />
		<edge from-layer="1882" from-port="2" to-layer="1883" to-port="2" />
		<edge from-layer="1883" from-port="3" to-layer="1884" to-port="1" />
		<edge from-layer="1884" from-port="2" to-layer="1885" to-port="1" />
		<edge from-layer="1885" from-port="2" to-layer="1887" to-port="0" />
		<edge from-layer="1886" from-port="0" to-layer="1887" to-port="1" />
		<edge from-layer="1887" from-port="2" to-layer="1891" to-port="0" />
		<edge from-layer="1887" from-port="2" to-layer="1898" to-port="0" />
		<edge from-layer="1888" from-port="0" to-layer="1890" to-port="0" />
		<edge from-layer="1888" from-port="0" to-layer="1897" to-port="0" />
		<edge from-layer="1889" from-port="0" to-layer="1895" to-port="0" />
		<edge from-layer="1889" from-port="0" to-layer="1896" to-port="0" />
		<edge from-layer="1890" from-port="1" to-layer="1896" to-port="1" />
		<edge from-layer="1891" from-port="1" to-layer="1892" to-port="0" />
		<edge from-layer="1892" from-port="1" to-layer="1894" to-port="0" />
		<edge from-layer="1893" from-port="0" to-layer="1894" to-port="1" />
		<edge from-layer="1894" from-port="2" to-layer="1895" to-port="1" />
		<edge from-layer="1895" from-port="2" to-layer="1896" to-port="2" />
		<edge from-layer="1896" from-port="3" to-layer="1897" to-port="1" />
		<edge from-layer="1897" from-port="2" to-layer="1898" to-port="1" />
		<edge from-layer="1898" from-port="2" to-layer="1899" to-port="1" />
		<edge from-layer="1899" from-port="2" to-layer="1909" to-port="0" />
		<edge from-layer="1899" from-port="2" to-layer="2042" to-port="0" />
		<edge from-layer="1900" from-port="0" to-layer="1908" to-port="0" />
		<edge from-layer="1900" from-port="0" to-layer="1902" to-port="0" />
		<edge from-layer="1901" from-port="0" to-layer="1906" to-port="1" />
		<edge from-layer="1901" from-port="0" to-layer="1907" to-port="0" />
		<edge from-layer="1902" from-port="1" to-layer="1905" to-port="0" />
		<edge from-layer="1903" from-port="0" to-layer="1905" to-port="1" />
		<edge from-layer="1904" from-port="0" to-layer="1905" to-port="2" />
		<edge from-layer="1905" from-port="3" to-layer="1906" to-port="0" />
		<edge from-layer="1905" from-port="4" to-layer="1907" to-port="2" />
		<edge from-layer="1906" from-port="2" to-layer="1907" to-port="1" />
		<edge from-layer="1907" from-port="3" to-layer="1908" to-port="1" />
		<edge from-layer="1908" from-port="2" to-layer="1909" to-port="1" />
		<edge from-layer="1909" from-port="2" to-layer="1913" to-port="0" />
		<edge from-layer="1909" from-port="2" to-layer="1920" to-port="0" />
		<edge from-layer="1910" from-port="0" to-layer="1912" to-port="0" />
		<edge from-layer="1910" from-port="0" to-layer="1919" to-port="0" />
		<edge from-layer="1911" from-port="0" to-layer="1917" to-port="0" />
		<edge from-layer="1911" from-port="0" to-layer="1918" to-port="0" />
		<edge from-layer="1912" from-port="1" to-layer="1918" to-port="1" />
		<edge from-layer="1913" from-port="1" to-layer="1914" to-port="0" />
		<edge from-layer="1914" from-port="1" to-layer="1916" to-port="0" />
		<edge from-layer="1915" from-port="0" to-layer="1916" to-port="1" />
		<edge from-layer="1916" from-port="2" to-layer="1917" to-port="1" />
		<edge from-layer="1917" from-port="2" to-layer="1918" to-port="2" />
		<edge from-layer="1918" from-port="3" to-layer="1919" to-port="1" />
		<edge from-layer="1919" from-port="2" to-layer="1920" to-port="1" />
		<edge from-layer="1920" from-port="2" to-layer="1922" to-port="0" />
		<edge from-layer="1921" from-port="0" to-layer="1922" to-port="1" />
		<edge from-layer="1922" from-port="2" to-layer="1924" to-port="0" />
		<edge from-layer="1923" from-port="0" to-layer="1924" to-port="1" />
		<edge from-layer="1924" from-port="2" to-layer="1935" to-port="0" />
		<edge from-layer="1924" from-port="2" to-layer="1928" to-port="0" />
		<edge from-layer="1925" from-port="0" to-layer="1934" to-port="0" />
		<edge from-layer="1925" from-port="0" to-layer="1927" to-port="0" />
		<edge from-layer="1926" from-port="0" to-layer="1932" to-port="0" />
		<edge from-layer="1926" from-port="0" to-layer="1933" to-port="0" />
		<edge from-layer="1927" from-port="1" to-layer="1933" to-port="1" />
		<edge from-layer="1928" from-port="1" to-layer="1929" to-port="0" />
		<edge from-layer="1929" from-port="1" to-layer="1931" to-port="0" />
		<edge from-layer="1930" from-port="0" to-layer="1931" to-port="1" />
		<edge from-layer="1931" from-port="2" to-layer="1932" to-port="1" />
		<edge from-layer="1932" from-port="2" to-layer="1933" to-port="2" />
		<edge from-layer="1933" from-port="3" to-layer="1934" to-port="1" />
		<edge from-layer="1934" from-port="2" to-layer="1935" to-port="1" />
		<edge from-layer="1935" from-port="2" to-layer="1937" to-port="0" />
		<edge from-layer="1936" from-port="0" to-layer="1937" to-port="1" />
		<edge from-layer="1937" from-port="2" to-layer="1947" to-port="0" />
		<edge from-layer="1938" from-port="0" to-layer="1946" to-port="0" />
		<edge from-layer="1938" from-port="0" to-layer="1940" to-port="0" />
		<edge from-layer="1939" from-port="0" to-layer="1944" to-port="1" />
		<edge from-layer="1939" from-port="0" to-layer="1945" to-port="0" />
		<edge from-layer="1940" from-port="1" to-layer="1943" to-port="0" />
		<edge from-layer="1941" from-port="0" to-layer="1943" to-port="1" />
		<edge from-layer="1942" from-port="0" to-layer="1943" to-port="2" />
		<edge from-layer="1943" from-port="4" to-layer="1945" to-port="2" />
		<edge from-layer="1943" from-port="3" to-layer="1944" to-port="0" />
		<edge from-layer="1944" from-port="2" to-layer="1945" to-port="1" />
		<edge from-layer="1945" from-port="3" to-layer="1946" to-port="1" />
		<edge from-layer="1946" from-port="2" to-layer="1947" to-port="1" />
		<edge from-layer="1947" from-port="2" to-layer="1951" to-port="0" />
		<edge from-layer="1947" from-port="2" to-layer="1958" to-port="0" />
		<edge from-layer="1948" from-port="0" to-layer="1950" to-port="0" />
		<edge from-layer="1948" from-port="0" to-layer="1957" to-port="0" />
		<edge from-layer="1949" from-port="0" to-layer="1955" to-port="0" />
		<edge from-layer="1949" from-port="0" to-layer="1956" to-port="0" />
		<edge from-layer="1950" from-port="1" to-layer="1956" to-port="1" />
		<edge from-layer="1951" from-port="1" to-layer="1952" to-port="0" />
		<edge from-layer="1952" from-port="1" to-layer="1954" to-port="0" />
		<edge from-layer="1953" from-port="0" to-layer="1954" to-port="1" />
		<edge from-layer="1954" from-port="2" to-layer="1955" to-port="1" />
		<edge from-layer="1955" from-port="2" to-layer="1956" to-port="2" />
		<edge from-layer="1956" from-port="3" to-layer="1957" to-port="1" />
		<edge from-layer="1957" from-port="2" to-layer="1958" to-port="1" />
		<edge from-layer="1958" from-port="2" to-layer="1960" to-port="0" />
		<edge from-layer="1959" from-port="0" to-layer="1960" to-port="1" />
		<edge from-layer="1960" from-port="2" to-layer="1962" to-port="0" />
		<edge from-layer="1961" from-port="0" to-layer="1962" to-port="1" />
		<edge from-layer="1962" from-port="2" to-layer="1973" to-port="0" />
		<edge from-layer="1962" from-port="2" to-layer="1966" to-port="0" />
		<edge from-layer="1963" from-port="0" to-layer="1972" to-port="0" />
		<edge from-layer="1963" from-port="0" to-layer="1965" to-port="0" />
		<edge from-layer="1964" from-port="0" to-layer="1971" to-port="0" />
		<edge from-layer="1964" from-port="0" to-layer="1970" to-port="0" />
		<edge from-layer="1965" from-port="1" to-layer="1971" to-port="1" />
		<edge from-layer="1966" from-port="1" to-layer="1967" to-port="0" />
		<edge from-layer="1967" from-port="1" to-layer="1969" to-port="0" />
		<edge from-layer="1968" from-port="0" to-layer="1969" to-port="1" />
		<edge from-layer="1969" from-port="2" to-layer="1970" to-port="1" />
		<edge from-layer="1970" from-port="2" to-layer="1971" to-port="2" />
		<edge from-layer="1971" from-port="3" to-layer="1972" to-port="1" />
		<edge from-layer="1972" from-port="2" to-layer="1973" to-port="1" />
		<edge from-layer="1973" from-port="2" to-layer="1975" to-port="0" />
		<edge from-layer="1974" from-port="0" to-layer="1975" to-port="1" />
		<edge from-layer="1975" from-port="2" to-layer="1977" to-port="0" />
		<edge from-layer="1976" from-port="0" to-layer="1977" to-port="1" />
		<edge from-layer="1977" from-port="2" to-layer="1981" to-port="0" />
		<edge from-layer="1977" from-port="2" to-layer="1988" to-port="0" />
		<edge from-layer="1978" from-port="0" to-layer="1987" to-port="0" />
		<edge from-layer="1978" from-port="0" to-layer="1980" to-port="0" />
		<edge from-layer="1979" from-port="0" to-layer="1985" to-port="0" />
		<edge from-layer="1979" from-port="0" to-layer="1986" to-port="0" />
		<edge from-layer="1980" from-port="1" to-layer="1986" to-port="1" />
		<edge from-layer="1981" from-port="1" to-layer="1982" to-port="0" />
		<edge from-layer="1982" from-port="1" to-layer="1984" to-port="0" />
		<edge from-layer="1983" from-port="0" to-layer="1984" to-port="1" />
		<edge from-layer="1984" from-port="2" to-layer="1985" to-port="1" />
		<edge from-layer="1985" from-port="2" to-layer="1986" to-port="2" />
		<edge from-layer="1986" from-port="3" to-layer="1987" to-port="1" />
		<edge from-layer="1987" from-port="2" to-layer="1988" to-port="1" />
		<edge from-layer="1988" from-port="2" to-layer="1991" to-port="0" />
		<edge from-layer="1989" from-port="0" to-layer="1991" to-port="1" />
		<edge from-layer="1990" from-port="0" to-layer="1991" to-port="2" />
		<edge from-layer="1991" from-port="3" to-layer="1992" to-port="0" />
		<edge from-layer="1991" from-port="4" to-layer="1993" to-port="1" />
		<edge from-layer="1992" from-port="1" to-layer="1993" to-port="0" />
		<edge from-layer="1993" from-port="2" to-layer="1994" to-port="0" />
		<edge from-layer="1994" from-port="2" to-layer="2167" to-port="2" />
		<edge from-layer="1995" from-port="0" to-layer="2003" to-port="0" />
		<edge from-layer="1995" from-port="0" to-layer="1997" to-port="0" />
		<edge from-layer="1996" from-port="0" to-layer="2002" to-port="0" />
		<edge from-layer="1996" from-port="0" to-layer="2001" to-port="1" />
		<edge from-layer="1997" from-port="1" to-layer="2000" to-port="0" />
		<edge from-layer="1998" from-port="0" to-layer="2000" to-port="1" />
		<edge from-layer="1999" from-port="0" to-layer="2000" to-port="2" />
		<edge from-layer="2000" from-port="4" to-layer="2002" to-port="2" />
		<edge from-layer="2000" from-port="3" to-layer="2001" to-port="0" />
		<edge from-layer="2001" from-port="2" to-layer="2002" to-port="1" />
		<edge from-layer="2002" from-port="3" to-layer="2003" to-port="1" />
		<edge from-layer="2003" from-port="2" to-layer="2004" to-port="1" />
		<edge from-layer="2004" from-port="2" to-layer="2008" to-port="0" />
		<edge from-layer="2004" from-port="2" to-layer="2015" to-port="0" />
		<edge from-layer="2005" from-port="0" to-layer="2007" to-port="0" />
		<edge from-layer="2005" from-port="0" to-layer="2014" to-port="0" />
		<edge from-layer="2006" from-port="0" to-layer="2012" to-port="0" />
		<edge from-layer="2006" from-port="0" to-layer="2013" to-port="0" />
		<edge from-layer="2007" from-port="1" to-layer="2013" to-port="1" />
		<edge from-layer="2008" from-port="1" to-layer="2009" to-port="0" />
		<edge from-layer="2009" from-port="1" to-layer="2011" to-port="0" />
		<edge from-layer="2010" from-port="0" to-layer="2011" to-port="1" />
		<edge from-layer="2011" from-port="2" to-layer="2012" to-port="1" />
		<edge from-layer="2012" from-port="2" to-layer="2013" to-port="2" />
		<edge from-layer="2013" from-port="3" to-layer="2014" to-port="1" />
		<edge from-layer="2014" from-port="2" to-layer="2015" to-port="1" />
		<edge from-layer="2015" from-port="2" to-layer="2017" to-port="0" />
		<edge from-layer="2016" from-port="0" to-layer="2017" to-port="1" />
		<edge from-layer="2017" from-port="2" to-layer="2019" to-port="0" />
		<edge from-layer="2018" from-port="0" to-layer="2019" to-port="1" />
		<edge from-layer="2019" from-port="2" to-layer="2030" to-port="0" />
		<edge from-layer="2019" from-port="2" to-layer="2023" to-port="0" />
		<edge from-layer="2020" from-port="0" to-layer="2029" to-port="0" />
		<edge from-layer="2020" from-port="0" to-layer="2022" to-port="0" />
		<edge from-layer="2021" from-port="0" to-layer="2027" to-port="0" />
		<edge from-layer="2021" from-port="0" to-layer="2028" to-port="0" />
		<edge from-layer="2022" from-port="1" to-layer="2028" to-port="1" />
		<edge from-layer="2023" from-port="1" to-layer="2024" to-port="0" />
		<edge from-layer="2024" from-port="1" to-layer="2026" to-port="0" />
		<edge from-layer="2025" from-port="0" to-layer="2026" to-port="1" />
		<edge from-layer="2026" from-port="2" to-layer="2027" to-port="1" />
		<edge from-layer="2027" from-port="2" to-layer="2028" to-port="2" />
		<edge from-layer="2028" from-port="3" to-layer="2029" to-port="1" />
		<edge from-layer="2029" from-port="2" to-layer="2030" to-port="1" />
		<edge from-layer="2030" from-port="2" to-layer="2032" to-port="0" />
		<edge from-layer="2031" from-port="0" to-layer="2032" to-port="1" />
		<edge from-layer="2032" from-port="2" to-layer="2071" to-port="0" />
		<edge from-layer="2033" from-port="0" to-layer="2035" to-port="0" />
		<edge from-layer="2033" from-port="0" to-layer="2041" to-port="0" />
		<edge from-layer="2034" from-port="0" to-layer="2040" to-port="0" />
		<edge from-layer="2034" from-port="0" to-layer="2039" to-port="1" />
		<edge from-layer="2035" from-port="1" to-layer="2038" to-port="0" />
		<edge from-layer="2036" from-port="0" to-layer="2038" to-port="1" />
		<edge from-layer="2037" from-port="0" to-layer="2038" to-port="2" />
		<edge from-layer="2038" from-port="3" to-layer="2039" to-port="0" />
		<edge from-layer="2038" from-port="4" to-layer="2040" to-port="2" />
		<edge from-layer="2039" from-port="2" to-layer="2040" to-port="1" />
		<edge from-layer="2040" from-port="3" to-layer="2041" to-port="1" />
		<edge from-layer="2041" from-port="2" to-layer="2042" to-port="1" />
		<edge from-layer="2042" from-port="2" to-layer="2046" to-port="0" />
		<edge from-layer="2042" from-port="2" to-layer="2053" to-port="0" />
		<edge from-layer="2043" from-port="0" to-layer="2045" to-port="0" />
		<edge from-layer="2043" from-port="0" to-layer="2052" to-port="0" />
		<edge from-layer="2044" from-port="0" to-layer="2050" to-port="0" />
		<edge from-layer="2044" from-port="0" to-layer="2051" to-port="0" />
		<edge from-layer="2045" from-port="1" to-layer="2051" to-port="1" />
		<edge from-layer="2046" from-port="1" to-layer="2047" to-port="0" />
		<edge from-layer="2047" from-port="1" to-layer="2049" to-port="0" />
		<edge from-layer="2048" from-port="0" to-layer="2049" to-port="1" />
		<edge from-layer="2049" from-port="2" to-layer="2050" to-port="1" />
		<edge from-layer="2050" from-port="2" to-layer="2051" to-port="2" />
		<edge from-layer="2051" from-port="3" to-layer="2052" to-port="1" />
		<edge from-layer="2052" from-port="2" to-layer="2053" to-port="1" />
		<edge from-layer="2053" from-port="2" to-layer="2055" to-port="0" />
		<edge from-layer="2054" from-port="0" to-layer="2055" to-port="1" />
		<edge from-layer="2055" from-port="2" to-layer="2057" to-port="0" />
		<edge from-layer="2056" from-port="0" to-layer="2057" to-port="1" />
		<edge from-layer="2057" from-port="2" to-layer="2068" to-port="0" />
		<edge from-layer="2057" from-port="2" to-layer="2061" to-port="0" />
		<edge from-layer="2058" from-port="0" to-layer="2067" to-port="0" />
		<edge from-layer="2058" from-port="0" to-layer="2060" to-port="0" />
		<edge from-layer="2059" from-port="0" to-layer="2065" to-port="0" />
		<edge from-layer="2059" from-port="0" to-layer="2066" to-port="0" />
		<edge from-layer="2060" from-port="1" to-layer="2066" to-port="1" />
		<edge from-layer="2061" from-port="1" to-layer="2062" to-port="0" />
		<edge from-layer="2062" from-port="1" to-layer="2064" to-port="0" />
		<edge from-layer="2063" from-port="0" to-layer="2064" to-port="1" />
		<edge from-layer="2064" from-port="2" to-layer="2065" to-port="1" />
		<edge from-layer="2065" from-port="2" to-layer="2066" to-port="2" />
		<edge from-layer="2066" from-port="3" to-layer="2067" to-port="1" />
		<edge from-layer="2067" from-port="2" to-layer="2068" to-port="1" />
		<edge from-layer="2068" from-port="2" to-layer="2070" to-port="0" />
		<edge from-layer="2069" from-port="0" to-layer="2070" to-port="1" />
		<edge from-layer="2070" from-port="2" to-layer="2071" to-port="1" />
		<edge from-layer="2071" from-port="2" to-layer="2081" to-port="0" />
		<edge from-layer="2072" from-port="0" to-layer="2074" to-port="0" />
		<edge from-layer="2072" from-port="0" to-layer="2080" to-port="0" />
		<edge from-layer="2073" from-port="0" to-layer="2078" to-port="1" />
		<edge from-layer="2073" from-port="0" to-layer="2079" to-port="0" />
		<edge from-layer="2074" from-port="1" to-layer="2077" to-port="0" />
		<edge from-layer="2075" from-port="0" to-layer="2077" to-port="1" />
		<edge from-layer="2076" from-port="0" to-layer="2077" to-port="2" />
		<edge from-layer="2077" from-port="4" to-layer="2079" to-port="2" />
		<edge from-layer="2077" from-port="3" to-layer="2078" to-port="0" />
		<edge from-layer="2078" from-port="2" to-layer="2079" to-port="1" />
		<edge from-layer="2079" from-port="3" to-layer="2080" to-port="1" />
		<edge from-layer="2080" from-port="2" to-layer="2081" to-port="1" />
		<edge from-layer="2081" from-port="2" to-layer="2085" to-port="0" />
		<edge from-layer="2081" from-port="2" to-layer="2092" to-port="0" />
		<edge from-layer="2082" from-port="0" to-layer="2091" to-port="0" />
		<edge from-layer="2082" from-port="0" to-layer="2084" to-port="0" />
		<edge from-layer="2083" from-port="0" to-layer="2090" to-port="0" />
		<edge from-layer="2083" from-port="0" to-layer="2089" to-port="0" />
		<edge from-layer="2084" from-port="1" to-layer="2090" to-port="1" />
		<edge from-layer="2085" from-port="1" to-layer="2086" to-port="0" />
		<edge from-layer="2086" from-port="1" to-layer="2088" to-port="0" />
		<edge from-layer="2087" from-port="0" to-layer="2088" to-port="1" />
		<edge from-layer="2088" from-port="2" to-layer="2089" to-port="1" />
		<edge from-layer="2089" from-port="2" to-layer="2090" to-port="2" />
		<edge from-layer="2090" from-port="3" to-layer="2091" to-port="1" />
		<edge from-layer="2091" from-port="2" to-layer="2092" to-port="1" />
		<edge from-layer="2092" from-port="2" to-layer="2094" to-port="0" />
		<edge from-layer="2093" from-port="0" to-layer="2094" to-port="1" />
		<edge from-layer="2094" from-port="2" to-layer="2096" to-port="0" />
		<edge from-layer="2095" from-port="0" to-layer="2096" to-port="1" />
		<edge from-layer="2096" from-port="2" to-layer="2107" to-port="0" />
		<edge from-layer="2096" from-port="2" to-layer="2100" to-port="0" />
		<edge from-layer="2097" from-port="0" to-layer="2106" to-port="0" />
		<edge from-layer="2097" from-port="0" to-layer="2099" to-port="0" />
		<edge from-layer="2098" from-port="0" to-layer="2104" to-port="0" />
		<edge from-layer="2098" from-port="0" to-layer="2105" to-port="0" />
		<edge from-layer="2099" from-port="1" to-layer="2105" to-port="1" />
		<edge from-layer="2100" from-port="1" to-layer="2101" to-port="0" />
		<edge from-layer="2101" from-port="1" to-layer="2103" to-port="0" />
		<edge from-layer="2102" from-port="0" to-layer="2103" to-port="1" />
		<edge from-layer="2103" from-port="2" to-layer="2104" to-port="1" />
		<edge from-layer="2104" from-port="2" to-layer="2105" to-port="2" />
		<edge from-layer="2105" from-port="3" to-layer="2106" to-port="1" />
		<edge from-layer="2106" from-port="2" to-layer="2107" to-port="1" />
		<edge from-layer="2107" from-port="2" to-layer="2109" to-port="0" />
		<edge from-layer="2108" from-port="0" to-layer="2109" to-port="1" />
		<edge from-layer="2109" from-port="2" to-layer="2119" to-port="0" />
		<edge from-layer="2110" from-port="0" to-layer="2118" to-port="0" />
		<edge from-layer="2110" from-port="0" to-layer="2112" to-port="0" />
		<edge from-layer="2111" from-port="0" to-layer="2116" to-port="1" />
		<edge from-layer="2111" from-port="0" to-layer="2117" to-port="0" />
		<edge from-layer="2112" from-port="1" to-layer="2115" to-port="0" />
		<edge from-layer="2113" from-port="0" to-layer="2115" to-port="1" />
		<edge from-layer="2114" from-port="0" to-layer="2115" to-port="2" />
		<edge from-layer="2115" from-port="3" to-layer="2116" to-port="0" />
		<edge from-layer="2115" from-port="4" to-layer="2117" to-port="2" />
		<edge from-layer="2116" from-port="2" to-layer="2117" to-port="1" />
		<edge from-layer="2117" from-port="3" to-layer="2118" to-port="1" />
		<edge from-layer="2118" from-port="2" to-layer="2119" to-port="1" />
		<edge from-layer="2119" from-port="2" to-layer="2123" to-port="0" />
		<edge from-layer="2119" from-port="2" to-layer="2130" to-port="0" />
		<edge from-layer="2120" from-port="0" to-layer="2122" to-port="0" />
		<edge from-layer="2120" from-port="0" to-layer="2129" to-port="0" />
		<edge from-layer="2121" from-port="0" to-layer="2127" to-port="0" />
		<edge from-layer="2121" from-port="0" to-layer="2128" to-port="0" />
		<edge from-layer="2122" from-port="1" to-layer="2128" to-port="1" />
		<edge from-layer="2123" from-port="1" to-layer="2124" to-port="0" />
		<edge from-layer="2124" from-port="1" to-layer="2126" to-port="0" />
		<edge from-layer="2125" from-port="0" to-layer="2126" to-port="1" />
		<edge from-layer="2126" from-port="2" to-layer="2127" to-port="1" />
		<edge from-layer="2127" from-port="2" to-layer="2128" to-port="2" />
		<edge from-layer="2128" from-port="3" to-layer="2129" to-port="1" />
		<edge from-layer="2129" from-port="2" to-layer="2130" to-port="1" />
		<edge from-layer="2130" from-port="2" to-layer="2132" to-port="0" />
		<edge from-layer="2131" from-port="0" to-layer="2132" to-port="1" />
		<edge from-layer="2132" from-port="2" to-layer="2134" to-port="0" />
		<edge from-layer="2133" from-port="0" to-layer="2134" to-port="1" />
		<edge from-layer="2134" from-port="2" to-layer="2138" to-port="0" />
		<edge from-layer="2134" from-port="2" to-layer="2145" to-port="0" />
		<edge from-layer="2135" from-port="0" to-layer="2144" to-port="0" />
		<edge from-layer="2135" from-port="0" to-layer="2137" to-port="0" />
		<edge from-layer="2136" from-port="0" to-layer="2143" to-port="0" />
		<edge from-layer="2136" from-port="0" to-layer="2142" to-port="0" />
		<edge from-layer="2137" from-port="1" to-layer="2143" to-port="1" />
		<edge from-layer="2138" from-port="1" to-layer="2139" to-port="0" />
		<edge from-layer="2139" from-port="1" to-layer="2141" to-port="0" />
		<edge from-layer="2140" from-port="0" to-layer="2141" to-port="1" />
		<edge from-layer="2141" from-port="2" to-layer="2142" to-port="1" />
		<edge from-layer="2142" from-port="2" to-layer="2143" to-port="2" />
		<edge from-layer="2143" from-port="3" to-layer="2144" to-port="1" />
		<edge from-layer="2144" from-port="2" to-layer="2145" to-port="1" />
		<edge from-layer="2145" from-port="2" to-layer="2147" to-port="0" />
		<edge from-layer="2146" from-port="0" to-layer="2147" to-port="1" />
		<edge from-layer="2147" from-port="2" to-layer="2149" to-port="0" />
		<edge from-layer="2148" from-port="0" to-layer="2149" to-port="1" />
		<edge from-layer="2149" from-port="2" to-layer="2153" to-port="0" />
		<edge from-layer="2149" from-port="2" to-layer="2160" to-port="0" />
		<edge from-layer="2150" from-port="0" to-layer="2152" to-port="0" />
		<edge from-layer="2150" from-port="0" to-layer="2159" to-port="0" />
		<edge from-layer="2151" from-port="0" to-layer="2158" to-port="0" />
		<edge from-layer="2151" from-port="0" to-layer="2157" to-port="0" />
		<edge from-layer="2152" from-port="1" to-layer="2158" to-port="1" />
		<edge from-layer="2153" from-port="1" to-layer="2154" to-port="0" />
		<edge from-layer="2154" from-port="1" to-layer="2156" to-port="0" />
		<edge from-layer="2155" from-port="0" to-layer="2156" to-port="1" />
		<edge from-layer="2156" from-port="2" to-layer="2157" to-port="1" />
		<edge from-layer="2157" from-port="2" to-layer="2158" to-port="2" />
		<edge from-layer="2158" from-port="3" to-layer="2159" to-port="1" />
		<edge from-layer="2159" from-port="2" to-layer="2160" to-port="1" />
		<edge from-layer="2160" from-port="2" to-layer="2163" to-port="0" />
		<edge from-layer="2161" from-port="0" to-layer="2163" to-port="1" />
		<edge from-layer="2162" from-port="0" to-layer="2163" to-port="2" />
		<edge from-layer="2163" from-port="3" to-layer="2164" to-port="0" />
		<edge from-layer="2163" from-port="4" to-layer="2165" to-port="1" />
		<edge from-layer="2164" from-port="1" to-layer="2165" to-port="0" />
		<edge from-layer="2165" from-port="2" to-layer="2166" to-port="0" />
		<edge from-layer="2166" from-port="2" to-layer="2167" to-port="3" />
		<edge from-layer="2167" from-port="4" to-layer="2169" to-port="0" />
		<edge from-layer="2168" from-port="0" to-layer="2169" to-port="1" />
		<edge from-layer="2169" from-port="2" to-layer="2170" to-port="0" />
	</edges>
	<rt_info />
</net>
